models/pretrained_spx.pth (torch, 438405 bytes, 29 tensors)

encoder.lstm.weight_ih_l0 f4 [256, 1]
00000000: dd7f ad3d 19ad 3dbe 59ba 93bc 4579 0abe
00000010: 0937 e03d b132 193e 9820 6cbd 5cdd c93d
00000020: b1f0 2bbe 090a 3fbe 1cee ccbd cf5c 25bd
00000030: 3a70 e9bd 54ca 543d d0ab b5bd fd85 e0bd
00000040: 13c4 42bd cbcc bcbc 5466 9ebd 9fc2 cabd
00000050: a61c 7e3c 87b9 68bd c6d1 1ebc e125 0ebe
00000060: 66a3 5cbd 20e6 ec3d cf80 21bd 8173 b0bc
00000070: 8d19 2abd c826 833d 26e1 8b3d cf15 49bd
00000080: ac9c 66bd 3d48 3f3c cb82 093e f503 a1bd
00000090: 67de 05bd 0bb9 d13d 8d2c 8d3d 2184 dabd
000000a0: d9f2 3abe 5e3d 913d 8a44 e73d d301 6d3d
000000b0: efaf 89bd 9089 dfbd 793c b13d ea08 823d
000000c0: 1ae5 30bd 8fa0 89bd c427 fd3d 7056 183e
000000d0: 4e3b 8d3d cc44 8d3d b916 b5bc 84b2 15bd
000000e0: bf22 0ebe 9f46 ffbd 295f c43d de69 1cbd
000000f0: 8316 9dbd 6a93 3d3d 0967 adbc dd6f 8bbc
00000100: 7038 d43d 9919 8cbe bcde 863d 7a1f 82bc
00000110: e3fc 693d d1cf 373d 4ecf a43c d67b 96bc
00000120: 4f61 25be 0ba2 50be 81e9 9abd 549e a13d
00000130: 7317 e6bc e2eb f63d d919 6cbc 1180 393d
00000140: 41bc 5ebd 61d3 0b3d ea7f f03d 417e 93bc
00000150: ea6f e4bb b9e7 1d3e 6dda e53c 6471 13be
00000160: acb2 19be 63ac 2f3e 84ab 67bd 5e87 1b3d
00000170: 9716 ba3d 19af d03d 11d3 223e ae6a 9e3d
00000180: 3c4b 19be 515f c6bc 3149 953d 9fd6 033e
00000190: 07ca aebd 688e a3bd fd6f c1bc 2be3 303c
000001a0: 3c4b 85bd da69 173d b6af e43d 21b2 78bd
000001b0: c449 83bd a763 cc3c 5e52 83bd 79ef 40bd
000001c0: 642e 7bbc 92ef 1d3d 2387 3c3c 34d8 7bbb
000001d0: 0483 46bd edcf 08bd 8486 553d d3f1 adbd
000001e0: 71f3 27be 9580 debd 3c9f 1c3e b58e 0f3d
000001f0: a05b d4ba 42e4 253e a120 803c 5296 15bd
00000200: 4778 003e a588 e63d 1265 19bc b347 08be
00000210: a901 253e 1683 a43d d249 06be bda1 6cbc
00000220: 7592 04be 5ee8 393e 2886 183e 6785 b0bd
00000230: 418b 0fbe a7b3 263e e4ac 023e a179 af3d
00000240: a2fe dfbc 65d1 2ebe 9751 0bbe 073d 33bd
00000250: 8bf9 a0bd de78 06be 0655 5abd 6313 123e
00000260: e8ce 493d 1f2d 0ebe 46f3 2bbe a050 59bd
00000270: 72e9 153e 9f39 063e a1d7 77bd 758a 9f3d
00000280: 864a 363e 9b03 153e ab54 22be a182 093e
00000290: 2a5d f2bd 809d 2dbe 229a 0fbe 5c1e 4f3d
000002a0: af11 80bd e5a6 653d 8b71 f1bd dbe5 6cbd
000002b0: 3ddd 15be 5e83 c0bd dc58 0c3e fde8 0abe
000002c0: a469 1abe 8942 e73d 2dc3 15be 172f 213e
000002d0: 9dc8 06be 092b bc3d 00bc 11be 1a19 1b3e
000002e0: bad3 f93d 7602 3dbe 95a4 0f3e 85c5 bcbd
000002f0: 7e76 18be 3cef e13c 0ebe c03d 526a 073e
00000300: 050e 233e 71ec 9dbe 30b4 0bbd b0b7 61be
00000310: a39a 353e af4f 313e a3e2 943a c0f6 883b
00000320: 2e3c 68be efd2 8ebe 9008 0cbd 2e4b b2bd
00000330: b6b4 e8bd 8f96 713d efe7 c8bd 1ec7 0ebe
00000340: 358d 8a3d 1ba5 d43c 4feb 2f3d 1a12 af3d
00000350: ef6b 713d b2aa 393e 3800 b6bd 7a07 443c
00000360: 30a8 4fbd 4337 bd3d 8cc9 bb3d 1cf0 493c
00000370: 4041 d23d 09c3 da3d 1725 863d 7e47 223e
00000380: bd9b debd bfdb 063e 2855 623d 30d9 89bd
00000390: 1c76 e2bd 765b 9abc 548b f2bd b708 f03d
000003a0: c294 62be d388 9e3d 2827 37bd dd9c 30be
000003b0: b326 0d3e a89f 9dbd 082d b63d 8a35 063e
000003c0: e1f2 c5bc 67ff 31be 1c32 1a3e dd75 1f3e
000003d0: 10b6 42bb 6acc 493c aa42 13be 9673 adbd
000003e0: 4458 5fbe 8b38 45be 18c6 f13d ba82 7cbd
000003f0: 7448 e73b 8d43 ee3d c1ca 953d 999f be3d
0.084716536 -0.18523063 -0.018033193 -0.13522823 0.10947997 0.14960743 -0.05764827 0.09856674
-0.16791035 -0.18656172 -0.10006353 -0.040371712 -0.11398359 0.051950768 -0.08870661 -0.10963056
-0.047550272 -0.023046872 -0.07734361 -0.09900402 0.01550976 -0.056817558 -0.009693569 -0.13881637
-0.053866766 0.1156733 -0.039429482 -0.021539452 -0.041528273 0.06403881 0.06830053 -0.049093064
-0.056301758 0.011674938 0.134288 -0.07862083 -0.032682803 0.10240372 0.06893263 -0.10669733
-0.18256702 0.07091783 0.1129237 0.057863068 -0.0672301 -0.1091491 0.08654112 0.063493565
-0.04318724 -0.06720077 0.123611 0.14876723 0.06896077 0.068978876 -0.022105562 -0.0365472
-0.13880442 -0.12464642 0.09588463 -0.0381869 -0.076703094 0.046283163 -0.021167295 -0.017021114
0.10362327 -0.2736328 0.06585452 -0.01588415 0.057125937 0.044875924 0.020118382 -0.018369596
-0.16150402 -0.20374314 -0.075640686 0.07891527 -0.028087353 0.1205671 -0.014410459 0.04528815
-0.05437875 0.034137134 0.11743148 -0.018004538 -0.006971349 0.15420426 0.028058255 -0.14398724
-0.15009564 0.17155604 -0.056560054 0.037970893 0.0908634 0.10189647 0.15900828 0.07735191
-0.14970106 -0.024215372 0.07289351 0.1287484 -0.085346274 -0.07986146 -0.02361297 0.010796349
-0.065084904 0.036966182 0.11166327 -0.060716752 -0.06410554 0.024949862 -0.06412195 -0.04710338
-0.015330885 0.03855855 0.0115068285 -0.0038428428 -0.04846479 -0.03340142 0.052130237 -0.0849339
-0.1640146 -0.10864369 0.15295118 0.035048205 -0.0016201623 0.16200355 0.015640559 -0.03652031
0.12545882 0.112565316 -0.009362476 -0.13308601 0.16113915 0.08032815 -0.13114098 -0.014442858
-0.12946494 0.18155047 0.14894927 -0.086191945 -0.14017965 0.1627947 0.12761265 0.08568121
-0.027343098 -0.17072065 -0.13605343 -0.043759372 -0.078600965 -0.13132045 -0.05330374 0.14265208
0.049269587 -0.138844 -0.1679202 -0.053055406 0.14639834 0.13107918 -0.060508374 0.077900805
0.17801866 0.14552157 -0.15852611 0.13428737 -0.11834176 -0.16954613 -0.14023641 0.050566062
-0.06253373 0.056067366 -0.11789235 -0.057836395 -0.14635177 -0.09400056 0.13705772 -0.1356544
-0.15079361 0.112919874 -0.14625235 0.1574062 -0.13162465 0.09187896 -0.14231873 0.15146294
0.12198587 -0.1845797 0.14027627 -0.09217361 -0.14888951 0.027579896 0.0941125 0.13224152
0.15923317 -0.30844453 -0.034107387 -0.22042727 0.1773477 0.17315553 0.0011359047 0.0041798055
-0.22679207 -0.27895305 -0.034187853 -0.08705746 -0.11362593 0.058981474 -0.09809863 -0.13943145
0.06765214 0.025957635 0.042949017 0.085483745 0.058940824 0.18131521 -0.088867605 0.011964673
-0.050697505 0.09239056 0.091693014 0.012325313 0.10266352 0.10681731 0.06550043 0.15847585
-0.108695485 0.13169764 0.055256993 -0.06730878 -0.11057684 -0.01884244 -0.11842981 0.11720412
-0.22127059 0.07740941 -0.044715077 -0.17247339 0.13784294 -0.07696468 0.08895308 0.13106361
-0.024163665 -0.17382585 0.15058178 0.15572305 -0.0029710568 0.0123168025 -0.14380899 -0.08469312
-0.21811014 -0.1925985 0.118053615 -0.061648108 0.0070581976 0.11633978 0.07314063 0.093077846

encoder.lstm.weight_hh_l0 f4 [256, 64]
00000000: 7b32 c9bd f23b 71bd ad84 5bbd dd5b 7d3d
00000010: 1ac8 67bd fb5a a6bd 4b5f 4d3d 457e 15be
00000020: bd9e a73d 74e4 2ebd 421c 3cbd 8d1d d03d
00000030: cc8c 073e ddb1 04bd 4d9c d1bd 629e b83c
00000040: 16ef 563d ca59 c7bd 5722 06bd dee8 05be
00000050: a429 733d c4bf 02be f37e ebbd de8b 983c
00000060: 7703 613c 95db 59bd 92dd 4c3d 5dfc 803d
00000070: 7fb6 3cbd a68d e5bc 13be eb3a c49f 2e3d
00000080: 4583 b5bd a077 3bbd ba77 943d bbea 973d
00000090: 371c 3a3e f280 94bc 0731 cf3b 01fb e83d
000000a0: 1807 343e f73d 0c3d 96e7 2f3d 5987 043e
000000b0: 3f10 ae3d 1a43 a73d c574 193d 2d28 4dbc
000000c0: 327d bc3c 6163 ec3c 3706 04be c681 323d
000000d0: c501 c03d fe77 c9bc 279a ee3d 02d6 ba3c
000000e0: 457d dcbd 53b0 70bd ab73 1c3e 70f5 073e
000000f0: dffc e23d 7328 a2bc abf7 d13c 5a06 a1bd
00000100: 012d 5cbd bc87 16be 92be 20bd b798 0b3d
00000110: 9db1 0b3d 5b5d 2d3d 425d 893d 0ed6 9b3d
00000120: 0a94 19bd 5604 4139 66e0 d0bd 5d52 783d
00000130: 06e0 2a3e 999e e6bd 396e 3ebe 3060 d5bc
00000140: 812b 74bd 9b7a d33d 25cb 3dbd a6b3 aabc
00000150: 4f2f e8bc c5b6 7cbd 324b 973d c74b a7bd
00000160: 0f4f 583d 9771 dbbd 7356 073e 37eb 4f3d
00000170: 0d23 38bd fd3b 1e3c c54c b33d 5a84 14be
00000180: 49f4 96bd d8a5 ec3d 5fd3 ab3d ec1b ba3c
00000190: 2f41 c3bc 8fe3 1b3d e757 1fbc 7723 6a3d
000001a0: d1b7 843d 2cb7 14be 7089 0fbe c364 483e
000001b0: f2a6 cabd c433 1d3e a707 7d3c 4086 22be
000001c0: cc42 eabb 3491 713c b112 d53c 1ee4 b23d
000001d0: 18cb b53d 92d8 f63d ec7c 813d 0c9c 0fbe
000001e0: 42ee 44be 7324 4cbb 2058 693c 8db7 0f3e
000001f0: 8fc4 0c3e bd9c f03d 6864 85bc 5d87 153d
00000200: f812 cc3d 03c2 d1bd 52fc dfbc a77b 6cbc
00000210: d327 a73d b775 b8bc 1c52 cd3d 47a2 69bd
00000220: df45 fdbd 7a09 2b3d 70ab 833d 1fec ed3d
00000230: 34c3 ee3c 0e3f a2bd beb3 8cbd b43e b4bd
00000240: 569d 6e3d bce7 abbd 1fee b2bc 4872 e63c
00000250: 48bc 2a3c 2e1c a23c 513b 55bc 5edd de3d
00000260: 3565 d8bd 63f5 f4bd 5102 0ebe 54bf aebd
00000270: 6af4 46bc e513 39bc 5535 6a3d e99a e8bd
00000280: a8ee 163d 630c 0e3e 315c 27bb 72b2 dd3d
00000290: 436f 07be f691 36bd 8f30 65bc 3006 b63c
000002a0: 9ec7 01be 8481 f3bd ff9e 833d 30fb 083d
000002b0: bdd6 08bd d9c6 92bd e469 c83d f1bd 803d
000002c0: 0c3f c73d cafe f13d 0855 0b3c d3b4 74bd
000002d0: ac3f adbc ce8c d03d 817d 25bd 362d b33d
000002e0: 20bb 033d 708b a33c 273b 0f3e e8b4 a63d
000002f0: 2119 c3bc bdc2 c5bd f915 0b39 ec04 71bc
00000300: 87b8 f1bb eb2c 7b3d 8081 7e3d 2ac6 38bd
00000310: 0484 b23c c3dd b93c 68ea ba3b 33f1 933d
00000320: 6e76 95bd bab8 ebbd 1007 ef3d 8b39 263c
00000330: 8253 93bd 2293 dd3c 7161 c6bd 1773 2fbd
00000340: d11b d8bd c49a f03b 0c56 5a3d 2810 abbd
00000350: b691 d0bd 8f63 ec3c 07d5 1bbe 3cc8 a23c
00000360: c849 8a3d 7171 93bd 7985 99bc 8593 c93d
00000370: 02e8 7abd 6eef d13d 151b 373c 124d db3d
00000380: cdb6 4dbb e415 f73d 32c1 1cbd 5583 083e
00000390: a276 823d 06f4 a4bd 22e2 423d 468b a93d
000003a0: 9446 9abd 24ce a3bc 6710 cbbc ab00 163e
000003b0: f3d7 0ebe 37fd 4d3c 3607 e23b 78f5 4dbd
000003c0: 1027 c0bd 4daf 42bd 4174 d2bd 3c6d 88bc
000003d0: e6ca 0abd 06c8 013d 4bf3 abbd cfa0 08bd
000003e0: 2c8d b43d 8557 da3d 0f87 183e 562c 8a3d
000003f0: 555b 953c b5cb 41bc c712 853d 5a5d 8dbd
-0.098240815 -0.05889506 -0.053593326 0.061855186 -0.056587316 -0.08122822 0.050139707 -0.14598949
0.08184574 -0.04269834 -0.045925386 0.10161886 0.13237303 -0.032396186 -0.1023489 0.02253646
0.052474104 -0.09733923 -0.032747593 -0.13077113 0.059365883 -0.12768465 -0.11498823 0.018621381
0.013733736 -0.053187925 0.050015993 0.062981345 -0.04607248 -0.028021645 0.0017985724 0.042632833
-0.08862928 -0.04576838 0.072493985 0.07417818 0.18174826 -0.018127892 0.006322983 0.11376
0.17580831 0.03423878 0.042945467 0.12942256 0.084991924 0.081670955 0.037464876 -0.012521786
0.023008917 0.028855981 -0.12892996 0.043580793 0.093753375 -0.02459335 0.11650496 0.022807125
-0.10766081 -0.058761906 0.15278499 0.1327722 0.110833876 -0.019794678 0.025630793 -0.078625396
-0.053753857 -0.14700216 -0.039244242 0.034081187 0.034104932 0.04232536 0.06707241 0.07609187
-0.037494697 0.0001840753 -0.101990506 0.060625423 0.1668702 -0.11260719 -0.18596734 -0.026046842
-0.0596118 0.103261195 -0.04633631 -0.020837616 -0.028342871 -0.06169774 0.07387389 -0.0816875
0.05280977 -0.10715025 0.13216572 0.050761428 -0.044955302 0.009657857 0.08754877 -0.14503613
-0.073708124 0.1155507 0.08389925 0.022718392 -0.023834793 0.038058814 -0.009725547 0.05716273
0.06480373 -0.14523 -0.14017272 0.19569688 -0.098951235 0.15351778 0.015443719 -0.15871525
-0.007149076 0.014744092 0.02600989 0.08734916 0.08876628 0.12053026 0.06322655 -0.14024371
-0.19231513 -0.0031149655 0.014242202 0.14034863 0.13746856 0.117486455 -0.016283229 0.036506046
0.099645555 -0.10242083 -0.027341995 -0.014433778 0.08161893 -0.022517068 0.10025427 -0.057039525
-0.123668425 0.041757084 0.064291835 0.11617302 0.029145814 -0.07922183 -0.068702206 -0.08801022
0.058255516 -0.08393809 -0.02184206 0.028130665 0.010420866 0.019788828 -0.01301463 0.10882066
-0.10566179 -0.11960866 -0.13868071 -0.08532587 -0.012143234 -0.011296247 0.057179768 -0.11357672
0.036848694 0.13871913 -0.0025537128 0.10825051 -0.13226037 -0.044572793 -0.013988628 0.022219747
-0.12673804 -0.118899375 0.064268105 0.033442676 -0.033407915 -0.071668334 0.09785822 0.062862284
0.09728822 0.11816175 0.00850416 -0.05974276 -0.021148525 0.10183106 -0.040402893 0.08748858
0.03216088 0.01996395 0.13987409 0.08139974 -0.023815693 -0.09656284 0.00013264258 -0.014710646
-0.0073767337 0.061322134 0.06213522 -0.04511086 0.021791466 0.022688752 0.005704213 0.072237395
-0.07297979 -0.11509843 0.11671269 0.010145555 -0.07193662 0.027047697 -0.09686554 -0.042834368
-0.105521806 0.0073426683 0.053304717 -0.08352691 -0.10184042 0.028856067 -0.15217982 0.01987087
0.06752354 -0.071993716 -0.018740403 0.0984259 -0.061256416 0.10250746 0.01117589 0.10708059
-0.0031389475 0.12064722 -0.038270183 0.13331349 0.06370284 -0.08054356 0.04757894 0.082785174
-0.07532993 -0.019995756 -0.024788095 0.14648692 -0.13949566 0.012572578 0.0068978323 -0.050282925
-0.093824506 -0.04753046 -0.1027608 -0.01665365 -0.033884905 0.031684898 -0.08396014 -0.033356484
0.08815989 0.10661224 0.14895271 0.06746738 0.018232027 -0.011828353 0.06497722 -0.06902571

encoder.lstm.bias_ih_l0 f4 [256]
00000000: e000 043e 14f0 b63d 6f8d ba3d f6e2 0a3e
00000010: 92ba 12bb aa64 ad3d 2cf8 ec3d 064d 0fbd
00000020: f376 783e 0f68 2cbc 1d9c 893d 1415 023e
00000030: f0ad fe3c 373a 1e3d f13a fa3d d15c 88bd
00000040: d7b5 e1bc d742 bf3c 5b46 593c 512a bf3d
00000050: d091 8cbd 85d2 d13b 13d7 a1bd 7ccc 23bd
00000060: 21a3 b03d bf35 1abd dc47 2d3e e15c 9fbc
00000070: 4e33 233d b8af b3bc b37c bdbd ad9e 193a
00000080: 5f8f 0dbd 4d35 a33d ad57 c33b 1723 f23d
00000090: 95cd 743d f57a 513c 3563 ad3d bfd9 15bb
000000a0: 6358 fb3d 7a94 f4bd dd34 bebd 7c1c 783d
000000b0: 4d3e b6bb 0bf2 923d 8f3f 993d 146e 763d
000000c0: f2c1 323e c5bb de3d b4eb e73d 480d 083e
000000d0: db74 b3bc 775f 4e3d 6da1 47bd 0ad2 c1bc
000000e0: 9d87 84bd 0d4b ec3d 1364 3f3d e297 6f3d
000000f0: 6cb9 933c 1f69 703d 1c4b b7bd c994 93bd
00000100: 7728 093d fb7c 15be 25a4 e5bd 87dd f73d
00000110: a1f6 e03d 4bac e23d 33df ebbc a68b 493d
00000120: 61eb bcbc 3ad4 87bd c5c9 ffbd 6f1c 9dbd
00000130: d2a9 383d 3020 253d 5706 f2bd 92b6 c53d
00000140: a43a 77bd 7a8e e2bd 2f6a 15bd ba8f 71bd
00000150: cb3f e43c 3571 df3c c89a 87bd 400e 70bd
00000160: 799e b93d 6cb9 063c fb54 08be 93e1 a7bd
00000170: 7dd3 8fbd 1ad0 c63a 7a72 aebc f40d 693d
00000180: cdd2 94bd 38ac a53d fac8 9f3d 386e 6e3d
00000190: c6d0 523d 8012 c0bd 6f10 51bb e5ec b6bc
000001a0: 2009 c0bd c7cb 9cbd 1efc 3ebd 3414 90bc
000001b0: 31ad 85bd 1d14 4b3c 7ab4 04be cb0f 74bc
000001c0: d95c 2fbd 9753 e53a 1ea4 9bbd 3222 9abd
000001d0: ff6a 3f3d 3fe5 c43c fd53 6f3d b077 1ebe
000001e0: 3de4 503d cac0 433c a908 c4bd a8f2 5b3d
000001f0: 42fa c6bd 578d b6bd 35bd 9dbc 61f3 cbbd
00000200: 6e18 f1bd c343 8c3d 41c1 58bd 8b8f f83d
00000210: 7186 bdbb 99e6 b1bd e20f a73d ea2f b0bc
00000220: 1797 20bd a1be 3dbd 6035 42bc 17ac c93b
00000230: 46ae eebb b7b6 9cbc d703 2f3b bb3f 893d
00000240: 9b03 723d 5dbc ed3c 0d7e 273d 1357 f7bd
00000250: 631e 8fbd 0c3f 90bd b0b3 003d 0459 3cbd
00000260: e143 abbd fe8d 83bd c09b a03d a3e7 06bd
00000270: 2e35 e0bd 56fd 763d 82ae db3d 143d cd3d
00000280: c6bd 26bd e8f8 3a3d d24e 25bd 8d21 c43d
00000290: 5bbe 83bc 56d6 3abc e6eb e33c 9fe6 a83c
000002a0: d09d 833d ede6 58bd bded 9abd a90c c63d
000002b0: 0371 173c bc8a d93d ef2a c03d c440 783d
000002c0: 3f3a a2bd 9040 fc3b aff1 ca3d 7cf6 03bd
000002d0: 8958 813d 0f78 8c3d 7e8d e43d e2b9 65bc
000002e0: 3b9d f6bd ad2c b03d 8db8 03bd f927 863d
000002f0: c7c3 433d 84ce d33d d7db d23c 87e6 403d
00000300: 9460 3e3d 5d99 093e 1432 00bd 2460 b53d
00000310: 5e0c bfbd 66a0 d23d 3ccb b2bc 2283 bfbd
00000320: bce5 3a3e c77d ac3d a044 633d cecf babd
00000330: 7722 8a3d 28ed 463e 1765 183e 43d4 8c3d
00000340: 1005 2a3d e8cb 8f3d 3e90 f83d 9b6d d23d
00000350: cd0a c33d 42c6 3e3e b283 89bd 26c1 e5bd
00000360: 24ca 93bd 6545 873d bdf9 7c3d 16da a83d
00000370: 1882 aa3d 953d be3d f935 aabd 6991 253b
00000380: c187 9f3c f7dc 09bd 18e3 163e fab9 08bd
00000390: 04c1 a8bd fc1c 3c3c 86ef 2f3e 674b fc3b
000003a0: a50d 903d 853a 013b 4ae5 db3d fa84 b1bd
000003b0: a3e8 6c3c be84 42bd 7276 ffbc afb0 1b3d
000003c0: 38bc 563d 02e9 1fbd fe33 72bd afda c73d
000003d0: d6d6 23bd 3705 973b 5ef3 0c3e d5c1 573e
000003e0: 3b5e 8fbd 6e02 d33d 54df 283e c8cb 11bb
000003f0: a3ab 23bd fda3 cb3d 2f3e d43d 01f9 c8bb
0.12890959 0.0893251 0.091090076 0.13563141 -0.0022389037 0.08466466 0.115707725 -0.034985565
0.24264126 -0.010522856 0.06719229 0.12703353 0.0310888 0.038629737 0.122182734 -0.06658328
-0.027552528 0.023347301 0.013261403 0.09334243 -0.06863749 0.0064032697 -0.0790235 -0.039989933
0.08624864 -0.037648913 0.16921943 -0.019453468 0.03984385 -0.021934375 -0.092523 0.00058601314
-0.034560557 0.07969151 0.0059613795 0.11823099 0.05976637 0.012785663 0.08466188 -0.0022865382
0.12272718 -0.11942382 -0.092874266 0.06057404 -0.005561626 0.07175072 0.07482826 0.060163572
0.17456797 0.10875658 0.11324254 0.13286316 -0.021906307 0.05038401 -0.048737932 -0.023659725
-0.06471179 0.11537752 0.046726298 0.058494456 0.018032752 0.058694 -0.08949873 -0.07206113
0.033485856 -0.14598458 -0.11212949 0.121028 0.10984541 0.110680185 -0.028792953 0.049205445
-0.023061456 -0.06632276 -0.12489656 -0.07671439 0.04508383 0.0403139 -0.118176155 0.09653963
-0.06035866 -0.110623315 -0.036478218 -0.05897496 0.02786245 0.027275661 -0.06621319 -0.05860734
0.090634294 0.008222919 -0.13313667 -0.08197322 -0.0702276 0.001516822 -0.021294821 0.056898072
-0.072667696 0.08089489 0.07802005 0.05821058 0.051468633 -0.093785286 -0.0031900664 -0.022329757
-0.093767405 -0.07656055 -0.046627156 -0.017587759 -0.06527174 0.012394932 -0.12959471 -0.014896343
-0.042813156 0.0017496225 -0.07599662 -0.075260535 0.0467329 0.024035094 0.058429707 -0.15475345
0.050998915 0.01194782 -0.09571964 0.053698212 -0.09715702 -0.08913677 -0.01925526 -0.0995853
-0.11772238 0.06848862 -0.052918676 0.12136754 -0.005783849 -0.08686561 0.08157326 -0.021507222
-0.03920659 -0.046324376 -0.011853546 0.006154548 -0.0072839586 -0.019130094 0.002670517 0.06701609
0.05908547 0.029020483 0.040891696 -0.12077155 -0.06988218 -0.07043275 0.031421363 -0.04598333
-0.08362556 -0.06423567 0.07842207 -0.03293575 -0.10947643 0.060300194 0.10726644 0.10021415
-0.040708326 0.04564753 -0.040358372 0.09576712 -0.01608198 -0.011403641 0.027822446 0.020617781
0.06426585 -0.052954603 -0.07564876 0.096703835 0.009243253 0.106221646 0.09383189 0.06060864
-0.07921266 0.007698126 0.09909379 -0.032217488 0.06315715 0.06858837 0.111598 -0.014021369
-0.12041708 0.08602271 -0.032158423 0.06550593 0.04779413 0.10342124 0.025739593 0.047094848
0.046478823 0.1343741 -0.03129776 0.08856228 -0.09328531 0.102845 -0.021825425 -0.093511835
0.18251699 0.084224276 0.055485368 -0.09121667 0.06744855 0.19426405 0.14882313 0.06876423
0.041508734 0.07021314 0.12136887 0.10274812 0.095235445 0.18630317 -0.06714572 -0.11218481
-0.0721629 0.06605033 0.061761606 0.082447216 0.08325595 0.092890896 -0.08311076 0.0025263673
0.019473912 -0.033657994 0.14735067 -0.033380486 -0.0823994 0.01148152 0.17181215 0.0076994183
0.070338525 0.0019718718 0.10737093 -0.086679414 0.014459762 -0.047489874 -0.031184409 0.038010295
0.052425593 -0.039040573 -0.059131615 0.097585075 -0.039999805 0.004608776 0.13764712 0.21070035
-0.07000395 0.10303198 0.16491443 -0.0022246707 -0.039958607 0.09943388 0.10363423 -0.006133199

encoder.lstm.bias_hh_l0 f4 [256]
00000000: d2e0 e93d 46ce a33d a6db babd 6adc 31bd
00000010: 68f3 52bd df4f dd3d 7dc1 9e3d 0833 463d
00000020: 14a8 163d 93cb ddbc 4f4e b2bd c5ab c5bc
00000030: b2b8 963d e110 873d 3059 f03d d99a 09bd
00000040: eef9 8b3d 36c5 9c3c 9d49 a9bd 22b4 ac3d
00000050: 635c 023e 8b47 523e 2083 dabd 67fe 053e
00000060: 0580 f4bd 2c6a e0bd 94e6 4c3d 7106 ea3d
00000070: b695 69bb 1524 e83d 0160 8dbc 8b5f a93d
00000080: 0c06 95bd b02e 12bd e765 213e 0239 00bc
00000090: dd3c 8d3a c730 e43d 6786 87bd 8ea6 35bd
000000a0: b0b9 a2ba 9558 1fbd f54d ddbd c6a1 97bd
000000b0: 5065 7dbd 8d03 10bd 3b06 e7bc 8dfe 98bd
000000c0: 81ca 493d c091 6d3d 82d2 123d 3028 8fbd
000000d0: 9844 a1bd b5b6 b73d f366 0f3e e8e8 483e
000000e0: e2a2 013d b583 a73d ec8d e03d 84cb 92bd
000000f0: d85d b43d 0ec3 db3d e036 3cbc b664 b1bc
00000100: ff93 acbd 8c84 7cbd a189 f6bd 8be6 a8bd
00000110: 6064 023d 210f d73d 35c6 a2bc b4af e3bc
00000120: 1ad8 bcbd a09a debd 34b6 40bd ab32 ee3c
00000130: 5a4b fbbc 944c 8ebd dd7b c53c 20be 8a3b
00000140: 5205 603d aeb8 643d da19 c5bd fb94 a6bd
00000150: 3854 a9bc cc1c 54bd e2c3 18be 153c a0bd
00000160: 47c8 4a3c cfbc 04bd df58 a5bd d498 293e
00000170: 345c 7abd c62d b1bd 9acd ea3c 8a82 cc3c
00000180: 9b72 0bbe 1ed6 06be fc4e a7bb 0538 a4bd
00000190: 790b adbd f740 54ba ba72 043e 43df 4d3d
000001a0: ad3e 3b3c 826c 1fbd 3fc9 b33d 0569 a1bd
000001b0: 9a8e 49bd 683b a13d 534e 993d 9850 f0bd
000001c0: 4811 84bd b1a3 bcbd be13 643c c0dd cdbd
000001d0: 70a3 7cbd c34b 903d 5c47 843d a01c ebbd
000001e0: e8a8 b53d 1b54 1c3d 8ec6 e6bd 8519 fabd
000001f0: e830 83bd 735d cb3c 64ff 353c a4c9 9fbc
00000200: 13dd e33d 341a 2fbd 96d1 8cbd 5512 ab3d
00000210: d1a8 cb3d c2b5 8f3d 4c38 88bd 3537 afbd
00000220: 8367 063d 63d1 6ebd 7599 d03d dc5d 2dbd
00000230: f91c e33d 1682 75bd add9 e7bd 95c0 cabd
00000240: 36ea 3f3b e55c 713d 328a d3bd 0135 eb3d
00000250: 9a6e be3d 1fcf 9d3d 57de bebd e87c c9bd
00000260: 267c f53c 646f ccbd 0453 8fbd 51c5 e93d
00000270: 7042 ca3d 649e 223d 07c3 67bd b881 f0bd
00000280: 7d28 163d e815 5ebd 2b36 893c c55f c1bc
00000290: 62ad c23d 9b5f 39bd 7a70 3f3d cb4e 09bb
000002a0: 0518 ef3c 395c d83c fab9 80bd 131e d93d
000002b0: 8a7c ccbd 978b ab3d 9227 3cbd e347 cdbd
000002c0: 586f a13d 3186 a7bd a728 b5bd c6a0 be3d
000002d0: b03e 533d 2b3e 76bd e4ad c03c c14d 42bd
000002e0: 13b0 c9bd 6d65 c33d d1dd 57bd 2995 7a3c
000002f0: 22f2 99bd 0da8 763d e423 d23d 67dc 273d
00000300: 8a14 1c3d 7845 fc3d d6ba 7fbd 01e9 bd3c
00000310: e792 a8bd 94bb e3bc a6a1 fe3b 2c94 903c
00000320: 63dc 2f3e e46e 763b 8fab 49bd e86d 643d
00000330: 57c4 b8bc 63ab b83c 9db4 613d cbc4 c93d
00000340: 7850 cc3d b193 c23d a1b0 cabd 87dd b83c
00000350: d5b5 e1bc d1e9 cb3d bfea 5c3d cab8 d2bd
00000360: 9821 ef3d aefc d2bd 472b 463e 3857 893d
00000370: 3f63 3b3b 457a a7bc fb10 bd3d b1e4 68bc
00000380: 8e9b 903d 9129 dfbc 5e12 703d c009 2c3d
00000390: 3611 eebc 2e4b 073e b2f2 b83d 120c 883b
000003a0: bd70 e2bd c1a0 9dbd 20f9 f13c 7c02 c13d
000003b0: 81b0 1bbd e13b 5e3d 7032 cf3d b32e dabb
000003c0: c5f1 1cbd a3a9 093e 87fd 1e3e 48c8 6ebc
000003d0: 86ad 33bd 0c4f 923d e97c abbd b3d1 393e
000003e0: dea8 823d 5fef 9e3d b65d 383e 1698 f03c
000003f0: 533c dd3d 0824 9a3d a901 003e 61a3 113e
0.11419834 0.07998328 -0.09123926 -0.043423094 -0.05150166 0.1080625 0.07751749 0.04838851
0.036781386 -0.02707461 -0.087063424 -0.024129758 0.073594466 0.06595016 0.11735761 -0.03359494
0.0683478 0.019137006 -0.08265994 0.08432795 0.12730555 0.20535104 -0.10669541 0.13085328
-0.1193848 -0.10957751 0.050024584 0.1142701 -0.0035642213 0.11335007 -0.017257692 0.082701765
-0.07276544 -0.035689056 0.15761529 -0.007826092 0.0010775585 0.11142116 -0.06617432 -0.044348292
-0.0012414958 -0.038902838 -0.10805885 -0.07403903 -0.061864197 -0.035159636 -0.028201213 -0.07470427
0.04926539 0.058000326 0.035845287 -0.06990087 -0.07874411 0.089703955 0.14004116 0.19620097
0.031649478 0.08179418 0.109645694 -0.07167724 0.08806962 0.10730563 -0.011487693 -0.021654468
-0.084266655 -0.061649844 -0.120379694 -0.082470976 0.031834006 0.105009325 -0.019869903 -0.027793743
-0.092209056 -0.10869336 -0.047048762 0.029076895 -0.030675579 -0.069482 0.024106914 0.0042340904
0.054692574 0.055840187 -0.096240714 -0.081338845 -0.020670041 -0.051785275 -0.14918473 -0.0782396
0.012376851 -0.032406624 -0.080735914 0.16562206 -0.061123088 -0.08651309 0.028662492 0.02496459
-0.13617937 -0.13167617 -0.005105851 -0.080184974 -0.08449454 -0.0008096839 0.1293439 0.050261747
0.011428517 -0.03892184 0.08778619 -0.07881359 -0.04920826 0.07872659 0.07485642 -0.11734122
-0.06448609 -0.09210909 0.0139207225 -0.10052061 -0.061679304 0.070457004 0.06458923 -0.11480069
0.08870107 0.038166147 -0.1126834 -0.12211899 -0.064058125 0.024824833 0.011108253 -0.01950533
0.11126151 -0.0427496 -0.06875913 0.08353106 0.099443085 0.070170894 -0.06651363 -0.08555452
0.03281356 -0.058305155 0.101855196 -0.04232584 0.110895105 -0.059938513 -0.11320815 -0.09900013
0.0029283888 0.05892648 -0.10329093 0.11484719 0.09298439 0.07705521 -0.09319752 -0.09838277
0.029966425 -0.099821836 -0.06998256 0.11414588 0.09875953 0.039701834 -0.056582477 -0.11743492
0.036659706 -0.05422011 0.016749462 -0.023605237 0.095057264 -0.045257192 0.046738125 -0.0020951505
0.029186258 0.026411163 -0.06285472 0.10601439 -0.099846914 0.08376234 -0.045936175 -0.10023477
0.07882565 -0.08179892 -0.088456444 0.09308009 0.051573455 -0.06011788 0.023520418 -0.047437433
-0.098480366 0.0954083 -0.052701775 0.015294352 -0.07516886 0.06021886 0.10260752 0.040981676
0.038105525 0.123179376 -0.06243404 0.023182394 -0.082311444 -0.027799405 0.007770735 0.017648779
0.17173915 0.0037602717 -0.049235877 0.055768877 -0.02255456 0.022542661 0.055103887 0.098519884
0.09976286 0.09500826 -0.098969705 0.02256657 -0.027552525 0.09956706 0.05393481 -0.10289152
0.116763294 -0.10302101 0.19352446 0.06706089 0.002859309 -0.020444045 0.092317544 -0.0142146805
0.0706092 -0.0272415 0.058611266 0.042001486 -0.029060941 0.13212273 0.090306655 0.0041518295
-0.11056659 -0.07696677 0.029537737 0.09424302 -0.038010124 0.054256324 0.10117042 -0.006658399
-0.038316507 0.13443618 0.155264 -0.014574118 -0.043866657 0.07143983 -0.08373434 0.181464
0.06379865 0.077605 0.18004498 0.029369395 0.108025216 0.07526404 0.12500633 0.1422248

encoder.lstm.weight_ih_l1 f4 [256, 64]
00000000: c131 53bd 60db 12be 8d60 f83c 4fe3 a43d
00000010: 9d6e 65bc c5f0 acbd 3432 953d 07e9 413d
00000020: e483 13bc 3b5e 4cbc ea16 0cbd efd6 3e3e
00000030: 56a5 003e 80c4 2bbe b2a4 27be 3f05 05be
00000040: 2de7 f33d 8ae7 e33d 9ace 86bd 3bc0 2f3d
00000050: 44b4 9cbd 10b1 113e 32b9 673c 02b1 20bd
00000060: 1cc4 af3c 32bf 783d ca7d acbc 2330 27bd
00000070: 3389 d0bd 106e 07bd 16eb 013c 59f1 99bc
00000080: 72a0 ecbd 8112 bebd b78f 0c3b 7215 e53b
00000090: 2c76 b7bc c483 e73d 1486 af3d 847e 08bd
000000a0: 4cef fa3d bbd4 18be e156 a33d baa1 193a
000000b0: fa96 babd c711 573d c16d 50bd 36fc 313e
000000c0: 36d6 033e cda2 49bd 7277 183e 5206 cdbc
000000d0: 1216 e53d 87e3 4cbc 331d 043e ce76 43bd
000000e0: 25c2 123d a51b be3a b012 a43b 4bf1 29bd
000000f0: 7e8a c6bc 7ced 11bd 08d8 77bd 182c 2dbd
00000100: 8644 08be dcf9 5bbd af17 633c dc5b c63d
00000110: 90a4 0abd 5df8 91bd 5152 66bb 1571 b93d
00000120: 1bae 8c3d 1b46 2abd d094 dabc 3a6a 5dbd
00000130: a271 ac3d 324a d73d 86f3 803d 0a9d 913c
00000140: c172 8f3d 5c10 f8bc 7655 f73c 1853 07be
00000150: 123d a5bd 2283 99bd 44e0 54bc 8e68 e7bb
00000160: cb3d 303d 6a69 293b 2976 c33d cbc3 02ba
00000170: 3f3f 9e3d 9150 743d 0fe1 1b3d 4b3a 02be
00000180: ccfd 213c 0a80 d13c f9a2 b93d f8f9 b53d
00000190: 8265 46bd 5179 bcbd e261 a53d 7472 153d
000001a0: 0e50 9d3d 9351 32bd c121 a93c 3bbb 0cbe
000001b0: effd 093d 8337 59bd 10ba 2c3d 28c4 18be
000001c0: 0b2b 953d 8ecb 5bbd 7e3d f6bd 312d e8bc
000001d0: 4f71 edbb bed1 023d cdc0 913c a98a 113d
000001e0: de45 ea3d 62ee 0bbe c4b6 d13d 1eb6 8b3d
000001f0: 63c6 423d 27ca c0bd c074 c73d ac52 ea3d
00000200: 42b7 04be 960b 13be 32a9 e03d 7284 de3c
00000210: 115f a7bd 2e32 bebc e565 f83d 2fd0 013e
00000220: e351 d93b 21ce e8bd e2d5 923c 6ad3 84bd
00000230: 9ead ea3b e6a9 2e3a e9f8 01bd 55f8 633c
00000240: f94d 06bd bcf1 c33d f236 f7bd 51f0 e6bc
00000250: eacc 073e a5a2 f9bd 6d26 2d3d ac96 06bd
00000260: ae3f 9ebc 16f7 e03d 868c 413d 297a c8bd
00000270: 0246 6b3c a263 8a3d 0d0d 23bc 5d9e 353b
00000280: 60cf 5dbd b503 fcbc cc8b 8bbb dc47 e0bd
00000290: 8683 bdbc d25c 99bd ceb3 433d fbfc 543d
000002a0: 31a1 183d e3c3 55bc 6831 f9bd 8f2a 6e3d
000002b0: cb3d febd 95ab 3dbd 9745 96bd c12d 06be
000002c0: b3c6 233d d3c4 24bd 4ef9 2a3d 8b36 82bd
000002d0: 606f 403c ca34 eabd 001f a33d 80a0 e3bd
000002e0: 00c7 e1bc f7ea 85bd 3d41 9837 179e 3f3d
000002f0: 12eb 92bd c23f 89bd 38c9 af3c 0919 973c
00000300: 4333 a7bd aa16 e6bd 88bd 7939 d9b5 dc3d
00000310: b9ef 20bd 3660 afbd 7731 bcbd 5153 01be
00000320: 246d cabd e775 cebd 8c6a b63d fe84 893d
00000330: a599 0e3d 451c c43c 6995 7abb 7f21 afbd
00000340: 196e c63d e160 e73c 2af8 8fbb 7fbf c7bd
00000350: 4ef5 58bd ac16 88bb d8a3 c13c 8fa6 3dbb
00000360: 938a d13c 8dbe d7bd e287 bebd 1369 ae3b
00000370: 1a47 19bd e52b 8b3d 79d9 a5bd 59b3 d8bc
00000380: 7fe0 61bd 938f 2d3e 86fc 693d 0731 a1bd
00000390: f9f9 e6bd 7819 443d f67d cb3d a00b e3bd
000003a0: 6fb9 8dbd 67fd d9bd 5744 1dbe 13e1 d2bd
000003b0: 4d2c fabd 1dd6 6abd 5fbe f13d dd5a 583d
000003c0: 2b61 3dbc 79c2 b6bc 0478 6eba 44e2 b33c
000003d0: ee92 edbd 8762 8f3d e98e f43b d198 de3d
000003e0: 8254 be3d 9226 acbd 3a33 a1b8 28b8 663d
000003f0: 1305 b5ba 40f3 87bd 5b77 b73d caec 103e
-0.05156112 -0.14341497 0.030319477 0.08051168 -0.014003423 -0.08444361 0.07284966 0.047341373
-0.009003613 -0.012473638 -0.03420154 0.18636678 0.1256307 -0.16774178 -0.1637142 -0.12990282
0.11909328 0.11128147 -0.06582375 0.042907935 -0.076515704 0.142277 0.014143275 -0.039231308
0.021455817 0.060729213 -0.021056075 -0.04081739 -0.10182419 -0.03306395 0.007929584 -0.018791841
-0.1155404 -0.09280873 0.0021447965 0.006991082 -0.022395216 0.11304429 0.08570495 -0.03332378
0.122526735 -0.149249 0.07975555 0.0005860586 -0.09110828 0.05250719 -0.05088592 0.17381367
0.12874684 -0.049227525 0.14889315 -0.025027428 0.1118585 -0.012505419 0.12901764 -0.047720723
0.035829682 0.0014504088 0.0050071105 -0.04148988 -0.02423596 -0.035626873 -0.060508758 -0.04227838
-0.1330739 -0.05370508 0.013860627 0.096854895 -0.033848345 -0.0712745 -0.003514428 0.09054772
0.068691455 -0.041570764 -0.026682287 -0.054056384 0.08420111 0.105121985 0.062964484 0.017775077
0.070043094 -0.030281238 0.030192118 -0.13215292 -0.08068289 -0.07495715 -0.012992922 -0.0070620244
0.04302768 0.0025850185 0.09544022 -0.0004988282 0.07726907 0.059647147 0.03805643 -0.1271755
0.00988717 0.02557375 0.09064288 0.088855684 -0.04843665 -0.09202827 0.0807531 0.036486104
0.07681285 -0.043534826 0.020645978 -0.13743298 0.033689436 -0.053031456 0.04216963 -0.14918578
0.072836004 -0.05366092 -0.120234475 -0.028341861 -0.0072461735 0.031938307 0.01779213 0.035532627
0.11439107 -0.13665155 0.10239938 0.068218455 0.047552478 -0.094135575 0.09739065 0.1144155
-0.12960532 -0.14359888 0.109697714 0.027162764 -0.08172429 -0.023217287 0.1212881 0.12677072
0.006632076 -0.11367441 0.017924253 -0.064856365 0.00716181 0.000666289 -0.03173152 0.013914187
-0.032789204 0.095675915 -0.12071027 -0.028190764 0.13261762 -0.12189225 0.042272974 -0.032858536
-0.019317474 0.10984628 0.047253154 -0.09788925 0.014359953 0.06757285 -0.009951842 0.00277128
-0.054152846 -0.030763486 -0.0042586084 -0.10951206 -0.023134004 -0.07488407 0.047778897 0.051999073
0.0372631 -0.013047191 -0.121676266 0.058146056 -0.1241413 -0.04630621 -0.07337492 -0.13103391
0.039984416 -0.04022677 0.04174166 -0.063580595 0.011745304 -0.1143585 0.07964897 -0.11114597
-0.02756071 -0.065389566 1.8150191e-05 0.046781626 -0.07173742 -0.06701614 0.021458253 0.018444555
-0.08164074 -0.112347916 0.00023817096 0.10776872 -0.039291117 -0.08563273 -0.09189122 -0.12629439
-0.09884098 -0.10081082 0.08907041 0.06714819 0.034814496 0.023939261 -0.0038236028 -0.08551311
0.09688968 0.028244438 -0.004393597 -0.09753322 -0.052968316 -0.0041530933 0.023637697 -0.0028938388
0.025578773 -0.105343916 -0.09303261 0.0053225844 -0.037421323 0.067954816 -0.0809812 -0.026452707
-0.055145737 0.169493 0.05712559 -0.07870679 -0.11278147 0.04787585 0.099361345 -0.11086202
-0.06920134 -0.10644036 -0.15358101 -0.10296836 -0.12215481 -0.0573331 0.118038885 0.05282103
-0.011558811 -0.022309529 -0.0009096863 0.021958478 -0.1160029 0.070012145 0.0074633253 0.10868991
0.09293462 -0.08405794 -7.68662e-05 0.05632797 -0.0013810716 -0.06638193 0.08958312 0.14152828

encoder.lstm.weight_hh_l1 f4 [256, 64]
00000000: c241 003e 70ff 2b3e 35ee 953d 66da efbd
00000010: 356b 553d fde4 95bd ea6f f1bd a0c4 a03d
00000020: 47bb 723d 1239 863d a59d 1c3a 3f27 c7bd
00000030: 7b94 013e ebf3 453d 32d4 a5bd 3b71 843d
00000040: cf0e 0c3e 8d1e 91bc 7245 5abd 2b8e 2ebe
00000050: c8ca b53d e0f6 eabc bf1f 25be bb39 103e
00000060: fabc 103d 0013 cb3d d52b 883d 45c3 523d
00000070: 9fcd 293e 313a a9bd 8a5b 0abe de42 d33d
00000080: b603 3c3d 5ccc 9a3c e2ab 44bc e438 80bc
00000090: 2648 e2bd c144 9c3d 65b4 adbd 5958 66bd
000000a0: 8cbd 183d d30b d93d 984d cbbb e24d 9fbd
000000b0: 90d4 4c3c 1668 3abd 0672 f1bc fe28 a3bc
000000c0: 0dc6 903c 4b9e e5bd b98a 0f3e 85e7 16be
000000d0: 95c3 b4bc ae65 dc3d 5135 1c3d 0b7e 283d
000000e0: 15da 3dbc ad90 303c 941d cd3d 5eb3 143c
000000f0: fc7f 94bc d824 3e3e f5ae 153d 0bf0 fe3d
00000100: d48b 833d a4c1 ef3b e53f c4bb 1e30 14bd
00000110: a599 0fbe fc88 bcbd 24a5 02bd bd67 ef3d
00000120: cef4 233d 15d8 143e 04ff b4bd 30a2 a1bd
00000130: c869 18bc 4167 ca3d 9516 9e3d 61f1 b13d
00000140: 9655 e9bd b976 95bc 40a8 a6bd 000f a23d
00000150: bcd9 fc3c 163f 083e b13a 933c 79d0 f2bd
00000160: 71cb 8abd abdb 543c aa07 503d 3251 a53d
00000170: 9050 d63d 1475 1a3e 8ff1 8ebc 09ac b8bd
00000180: 0089 ce3d b08f b03c 8257 bebc b392 b63d
00000190: 71e1 a03c 0e7a 8dbd e5bb 073e 3737 2e3d
000001a0: aee4 f7bd ce5d 393c 1039 273e c47d 893d
000001b0: e39b aa3d 9013 d73d 50c8 d33d c827 94bd
000001c0: 01c1 edbd 8582 ae3d 3655 173d 1a70 1bbd
000001d0: 0274 cebd 6a9c 533d 4f10 5ebd cff9 babb
000001e0: df37 a73d aa55 013e 1d12 d33c 76b9 a73b
000001f0: 6524 a63c a830 17be aa9d b33d f9a7 0cbe
00000200: 301a 09bd 1bff d4bd a3fd 733d 79f8 713d
00000210: 287c 333d 8d5e 10be a545 26be 7310 23bc
00000220: c64a 4cba fd5f 553d d1ec ce3d f1e8 243d
00000230: af15 cbbd d651 6a3d 77be cdbd 3e89 b7bc
00000240: 012c 193d 3efa edbc fd19 f43d 6138 c63d
00000250: a101 ca3c 1bde da3c 0e98 01bd 3de8 0ebe
00000260: 1d99 f7bc 98b3 53bd 6926 96bd 9258 a3bd
00000270: 53dc 4b3c 476f cb3d 3948 85bd fcb7 8abd
00000280: 1020 d53d 9813 88bd 0258 14be 9615 573d
00000290: f4f3 bebd 6741 58bd d916 deb9 334a 9a3c
000002a0: 8bb3 91bd 7d76 00bd 89a0 8f3d f26b c7bc
000002b0: 0cfe 64bd 26cb 9fbd b68c 93bd 49f2 2dbe
000002c0: fcbc 643d 728b 82bd a0ef 603c d617 15be
000002d0: d554 0d3d eb9c ecbc 2071 d9bc ad39 4dbd
000002e0: 4ffb 09bd 7aa7 da3d 499f f43d 6c63 8cbd
000002f0: 8cba 65bd 098c 673d c6c7 a53d 3e33 0fbe
00000300: 8f97 043e f71e 523d 1ef7 3fbd 23fd d73d
00000310: 0365 1c3e 48b2 e5ba a36b bdbd b331 6ebd
00000320: 4915 8cbc 617a 843d c464 9f3d c355 073d
00000330: f0d5 bd3c 6254 0ebd 988e 04be 6e18 dfbd
00000340: b88d dc3d 9168 933d 1678 9ebd fd83 aebc
00000350: 7a6c b0bd 7f08 663d 309c cebc 31e5 ecbc
00000360: 350d 543d a710 883d 0961 143e fff4 81bb
00000370: 536a 3b3d 2c1c a03d 22c3 d8bd 0bb1 f7bc
00000380: 5926 18bd 3ee1 a9bd 7009 85bd 2860 a73d
00000390: f4e4 94bd c0d4 d13d 1021 b8bd c724 27bd
000003a0: 08cc 7fbd 141d 243d 91ed e2bd 6408 1b3e
000003b0: 4468 803d 0eda c0bd d6d3 f63c ff9b 1abe
000003c0: 8733 313d 4700 ccbd 6e6a daba d503 0dbe
000003d0: d0af f1bc 5de2 eb3d 81b6 a6bd 033b dd3c
000003e0: d739 88bd 912b 08be 707d 913d 9c07 10b9
000003f0: 1c41 723d a45d d1bd efab 2c3e 4f2e ae3a
0.12525085 0.1679666 0.07320825 -0.11711578 0.052104194 -0.07319067 -0.11788924 0.07850003
0.059260633 0.06553854 0.00059744186 -0.097242825 0.12654297 0.04832832 -0.08097114 0.064669095
0.13677524 -0.017714763 -0.053288884 -0.1704642 0.08876568 -0.028682172 -0.16125391 0.14084522
0.035336472 0.09915733 0.06648985 0.051455755 0.16582344 -0.08263052 -0.13511482 0.10315488
0.045901977 0.018896274 -0.012003871 -0.015652128 -0.110489175 0.07630301 -0.08481673 -0.0562366
0.03729014 0.105979584 -0.0062043183 -0.07778527 0.012501851 -0.04550942 -0.029473316 -0.019917008
0.017672563 -0.112118326 0.14017762 -0.14736755 -0.022065917 0.10761581 0.038136784 0.04113583
-0.011587639 0.010776681 0.10015407 0.009075968 -0.018127434 0.18568742 0.036543805 0.12448128
0.064231545 0.007316785 -0.005989062 -0.0361787 -0.14023454 -0.09205815 -0.03189577 0.116897084
0.040028386 0.14535554 -0.08837703 -0.07892263 -0.009302564 0.09882975 0.07719151 0.086886175
-0.11393277 -0.018245088 -0.0813756 0.07913017 0.030865543 0.13305315 0.017972322 -0.11856169
-0.067770846 0.012991826 0.05078856 0.080721274 0.10464585 0.15083724 -0.017449168 -0.09017188
0.100847244 0.02155289 -0.023235086 0.089146994 0.019638749 -0.06908046 0.1325527 0.042533126
-0.12104164 0.011313869 0.16330361 0.06713441 0.08330514 0.10501778 0.10340941 -0.0723415
-0.11609078 0.085209884 0.036946498 -0.037948705 -0.100807205 0.05166284 -0.05421477 -0.005706049
0.081649534 0.12630334 0.025765473 0.005118544 0.020281026 -0.14764655 0.087703064 -0.13735951
-0.03347224 -0.1040022 0.05956806 0.059074853 0.043819577 -0.14098568 -0.16237505 -0.009952652
-0.00077931245 0.052093495 0.10103763 0.040261213 -0.09916245 0.05720695 -0.10046094 -0.02240431
0.03739548 -0.029049989 0.11919019 0.09678722 0.02465898 0.026717236 -0.03163915 -0.1395578
-0.030224377 -0.051684946 -0.07331545 -0.07975878 0.012442666 0.09933334 -0.06507916 -0.067733735
0.10406506 -0.06644362 -0.14486697 0.05251082 -0.09323874 -0.052796748 -0.00042360162 0.01883421
-0.07114323 -0.031363 0.070130415 -0.024343465 -0.05590634 -0.07802419 -0.07204573 -0.16986956
0.055844292 -0.06374253 0.013729006 -0.14559874 0.03450473 -0.028883418 -0.0265432 -0.050103832
-0.033686932 0.10676475 0.11944444 -0.06854901 -0.056086108 0.056530032 0.080947444 -0.13984391
0.1294844 0.05129906 -0.04686653 0.10546329 0.15272908 -0.0017524445 -0.09249046 -0.058152866
-0.017099993 0.064686544 0.077828914 0.033040773 0.023173302 -0.034748442 -0.1294502 -0.108933315
0.10769218 0.07197679 -0.07737748 -0.021303171 -0.0861444 0.056160446 -0.02522096 -0.02891788
0.051770408 0.06643801 0.14490141 -0.0039659734 0.045755696 0.07817873 -0.10584094 -0.030235788
-0.037145946 -0.08294915 -0.06495941 0.08172637 -0.07270232 0.10245657 -0.08990681 -0.040806558
-0.06245044 0.040066794 -0.110804684 0.1513992 0.06269887 -0.09416591 0.030130308 -0.1509857
0.04326203 -0.099609904 -0.0016663799 -0.13770993 -0.02950278 0.11517785 -0.081402786 0.027005678
-0.06651657 -0.1329787 0.071040034 -0.00013735745 0.059144124 -0.10222939 0.16862462 0.0013288948

encoder.lstm.bias_ih_l1 f4 [256]
00000000: 4d62 5e3c aa11 cfbd 559d 85bd ceea b1bd
00000010: 79f7 e73d 04a4 433d ad6f 453d 1942 88bc
00000020: 13a3 183e 91e8 e13d 594b 893d b0ac 213d
00000030: 982b a5bd 943e 6fbd 797e 30bd ad01 56bd
00000040: 0b73 75bd f79f 8b3d cd1f f93d 3b69 143d
00000050: 5fa7 15be 177a 08bc d938 db3d ce5f 0b3e
00000060: 369c c93d 08c6 3c3e dde1 4e3d 0f79 8d3d
00000070: a5b4 bdbc 1265 c33d 6d24 d63d 005e 7c3d
00000080: df83 a23d fb1c 9f3b 27af e53d 7586 62bd
00000090: 4607 bdbc 7bdb fbbd 564a bfbd 5309 503d
000000a0: 40d6 d43d 186d 373e b986 2c3e 1acd c4bc
000000b0: bcbb 94bd 7812 80bc 451b a9bd 2aac b53c
000000c0: 5be9 2b3d 0579 143e 3c00 1d3d 67ef 66bc
000000d0: 9290 d1bd 7d99 38bd 48d9 d03d 430a fe3d
000000e0: a9a6 8fbc 9650 7ebd 42d9 debd efd2 f0bd
000000f0: a867 acbd 3727 973d 28b6 bb3d b487 4e3d
00000100: bf0e f0bd fd16 abbd f7a1 d83d ea27 bf3d
00000110: 4166 22be 4bb1 a4bd 9855 e5bc 4554 79bc
00000120: 15a0 4cbe a8b6 d23c 11d3 933c 7a9c b03d
00000130: 02c1 c03d 4064 713d 0d4c 8ebd cd3c 933d
00000140: 17d7 24be 5522 873b b2dd 853d b58f 01bc
00000150: 141d 903d ee88 233e dec9 143e 6488 7bbd
00000160: 6103 cf3c 8be7 803d 21ee 0fbe eeb9 3e3d
00000170: ce6e 10bd 38ea 8ebd 76dd 4e3d 53ca 9bbc
00000180: 6737 50bd 7bb1 2d3d b24d 4f3d 8d88 95bc
00000190: 8a7b 7b3d af3b 103d c4f9 f93d 957d 023d
000001a0: 0bda 023e 4384 e43a be9f d3bd 35e7 9abb
000001b0: f63c 7cbd 9bf9 023d e0d3 1abd 107e 083c
000001c0: 5fe9 a33c f600 153d d451 9f3d a839 2dbd
000001d0: 47d8 8abd ae37 123c bf6e 80bd ca56 01bc
000001e0: a557 093d 3fd9 afbd 9146 283d f5ea 98bb
000001f0: 4bcd 2abd 1fb1 81bd 344b 0439 3fd5 c73d
00000200: f8ef b73d 8dcf d13d 579d bcbd 4d9f 88bd
00000210: 8184 c13d 0ea2 a43d b08d 9e3d 5eaf f93c
00000220: c751 0b3d 25dc a23c 5861 35bb 6d05 33bc
00000230: 12c9 9c3d efed 9f3d 4bdf 8bbd 8578 4dbd
00000240: a3d2 a5bc 8245 0fbc b9b4 063d 3944 833c
00000250: 1ce9 153d 9ff8 9dbd 27a8 89ba d2f2 523d
00000260: 8bc3 703d f94e 8b3d a370 63bd f9b8 993d
00000270: ec03 873c aca6 123c 838a eebd 59e6 01bd
00000280: df45 f93d 4bb3 afbd 2421 2e3c b6d8 54bd
00000290: e858 b6bd d6e7 85bb 5f7f eebd cf66 77bd
000002a0: 6248 77bd 09a3 133d ec0a dfbd 80d3 9c3d
000002b0: 69f9 29bc c2c6 ddbd 56e5 183d 9f14 25ba
000002c0: f950 923d 0e07 3ebc 091e 81bc f1ac 07bd
000002d0: 87f6 13bd 6c10 4abd fcfc 0c3d 9744 d1bd
000002e0: 45f4 ba3c 0c46 36bd 5aac d03d 260f cabd
000002f0: cbe1 3d3c 9c2d 473d ba3a a33d f8e4 b3bd
00000300: 64fe 0b3e 2448 66bb c89f dabd 1f05 65bc
00000310: e60c f13d cc36 ef3d f6e7 4bbd f55d df3a
00000320: 8198 883e 1ce7 99ba 670f 293d 02b5 6a3d
00000330: b119 e73d 1991 023c e349 063e 903f 0a3e
00000340: d87c 11bd a167 62bd a83e a13d 198c cf3d
00000350: f5d4 dabc e157 63bd 0e3c 193e f550 163e
00000360: 6733 d8bb 2f5e 3a3c 21da 403e 1c8d 953d
00000370: 9132 193d e29c 17bd f5f4 ec3d 9523 f83d
00000380: 121a 713d cf4f ee3d 555b b83d dc69 583d
00000390: d674 553b ae3b b73c c62d 9f3d 91de 91bd
000003a0: 07e0 d13d ff0f 413e 8fbd 333d c719 5dbd
000003b0: f446 87bc d28e 333d d60e 80bd 2cb1 92bd
000003c0: 0bf0 233d eaf4 4a3e 8329 823d 6d06 d33d
000003d0: b19e 933d d66b 2e3e 345e d13d 5ace 883d
000003e0: a922 003e 0e2f 2a3d 12d4 783d 193c 243d
000003f0: 274d 843c 258d ff3d 249d 0c3d c107 a53c
0.013573241 -0.10110791 -0.06524149 -0.086873636 0.113264985 0.04776384 0.048202205 -0.01663308
0.14905958 0.11030687 0.067038245 0.03947133 -0.080649555 -0.05840929 -0.043089364 -0.052247692
-0.059924167 0.0681762 0.12164269 0.036233168 -0.14614628 -0.00832989 0.10704202 0.13610765
0.09844248 0.18434918 0.05050837 0.06907856 -0.023157427 0.09540762 0.104561664 0.061613083
0.07935309 0.0048557497 0.11215048 -0.05530401 -0.023074757 -0.12297722 -0.0934035 0.050790142
0.103924274 0.1791271 0.16848268 -0.024023581 -0.0726237 -0.015633807 -0.082571544 0.02217682
0.041970592 0.1449929 0.0383303 -0.014095164 -0.10232653 -0.045068253 0.10197693 0.12404301
-0.017535524 -0.06208857 -0.108812824 -0.117589824 -0.08418208 0.073805265 0.09165603 0.050422385
-0.117215626 -0.08353994 0.10577767 0.09333785 -0.1585932 -0.080416285 -0.027994916 -0.015217845
-0.19982941 0.025721863 0.01804498 0.086235955 0.09411813 0.058933496 -0.06948099 0.07189331
-0.16097675 0.0041239657 0.06536426 -0.007907798 0.07036796 0.15970203 0.14530131 -0.06140937
0.025270166 0.06294163 -0.14055683 0.046564035 -0.03526192 -0.069782674 0.05050417 -0.019017374
-0.050834086 0.042405587 0.050611205 -0.018253589 0.061397113 0.03521317 0.12205842 0.031858046
0.1277849 0.0017434437 -0.10333203 -0.004727269 -0.061581574 0.031976324 -0.037799716 0.008330837
0.020008741 0.03637787 0.07779279 -0.042291313 -0.06779533 0.008924408 -0.06271123 -0.007894227
0.03353085 -0.08586358 0.041082922 -0.004666681 -0.04169969 -0.06332611 0.00012616516 0.0975747
0.08981317 0.10244665 -0.09209698 -0.06671009 0.09449101 0.08038722 0.077418685 0.03047913
0.034013536 0.019880364 -0.002767643 -0.010926587 0.076555386 0.07809054 -0.06829699 -0.050163765
-0.020242041 -0.008744599 0.032887194 0.016023742 0.036599264 -0.07713436 -0.0010502384 0.051501103
0.058780234 0.06802172 -0.05552734 0.07505984 0.016481362 0.0089508705 -0.11647513 -0.031713817
0.1217153 -0.08579119 0.0106280185 -0.051964484 -0.08903676 -0.004086475 -0.11645388 -0.06040078
-0.060371764 0.036044154 -0.10890755 0.07657528 -0.010374405 -0.10828926 0.037328087 -0.0006297323
0.071443506 -0.011598362 -0.015761392 -0.033123914 -0.03612378 -0.049332067 0.034420952 -0.102181606
0.022821555 -0.044500396 0.101891235 -0.098661706 0.011589478 0.04862748 0.079701856 -0.08783907
0.13671261 -0.0035138214 -0.10675007 -0.013978272 0.11770038 0.116803735 -0.049781762 0.0017041551
0.2667885 -0.001174185 0.041274454 0.05730153 0.11284197 0.007969164 0.13114123 0.1350081
-0.03551945 -0.05527461 0.07873279 0.101341434 -0.026712874 -0.05550373 0.14964315 0.1467932
-0.0065979245 0.011374994 0.1883321 0.07302305 0.03740174 -0.03701485 0.11570159 0.12116162
0.058862753 0.11636316 0.09001795 0.05283533 0.003257086 0.022367325 0.077724025 -0.07122529
0.10247808 0.18853758 0.04388195 -0.05397966 -0.016513325 0.043837376 -0.0625283 -0.07162699
0.040023845 0.1981999 0.06355574 0.1030396 0.07208002 0.17033324 0.10223046 0.066799834
0.12513222 0.04154878 0.06074912 0.040096376 0.01615007 0.12478093 0.03432955 0.020145299

encoder.lstm.bias_hh_l1 f4 [256]
00000000: 144a 213e 7c28 093d c063 71ba 4abd b43d
00000010: 6933 ba3d 84da 8c3d 2952 0e3d b84c 123d
00000020: a343 673e 4d83 bf3d f352 8d3c 0dce 1bbd
00000030: d92f 583d 1065 01be eb8e a33c dfab 533d
00000040: 5065 2ebc 22e1 7c3d bbc3 6abd 91a6 a83d
00000050: 03f2 fabd 36e9 f9bb a65a 373d 410b 3d3b
00000060: 0b88 37bd 17f2 3f3e f704 f23c 7737 2e3e
00000070: 6be3 62bd e450 5f3c 4337 74bd 14a0 78bd
00000080: 9fe8 643d cc18 843d e038 dfbd 3f37 48bd
00000090: e860 b5bd 4d51 5ebc 2a4d 143e e958 dc3d
000000a0: 71a7 bfbd ac74 b7bc 4b18 4dbd 2ba4 2c3d
000000b0: f989 f7bb cf71 3e3d 8f86 11bd 1827 3538
000000c0: d96e 2b3d 37ef ce3d f2a3 1d3e 8923 59bc
000000d0: 3fc1 ab3d 0f3d f8bb a40b d63d 55bc 88bc
000000e0: d13f 533e 1a5c eebd 3835 7b3c 152f 92bd
000000f0: 5d2e 003d d826 0b3e 2381 153e e8d9 383d
00000100: 1910 bfbd 7772 c0bc 7364 96bd 0cea 383d
00000110: cb3e afbd e269 8ebc db56 cbbd 168d b03d
00000120: 8f81 f3bd b5f0 af3d 90ab d6bd 980a d6bd
00000130: 688a f3bd 8784 9e3d 03ef 9b3d a5a2 1e3d
00000140: c995 bdbd e262 71bd 4e09 08be e326 a5bd
00000150: ca92 1abb d94d cb3d 430f 233e c296 4dbd
00000160: 707b 523b b01d 1dbc 3b32 10bb f416 0d3d
00000170: 1f29 39be 6c67 093d 047e adbd 5686 bcbd
00000180: 5a15 c23b cee2 e03d d2eb d13d 6cab d4bd
00000190: ad46 b23d a991 98bd 6c65 a2bd 46b5 0bbd
000001a0: 015a 643c a6e4 10bd fb5c 3dbd bb9f e0bd
000001b0: 9515 babc 8d0f fe3d 688e f93b 2808 8d3d
000001c0: e22c 82bd 7669 393d 3116 233d cc07 a2bd
000001d0: c11a 99bd cd6d cabc 9273 77bd ede9 98bd
000001e0: 37ac f1bd f8b2 97bd 98b4 0a3d ae31 13be
000001f0: 7c42 f93d ecb8 efbd b140 33be b24c f73c
00000200: c87c cebc 1b0f 2dbd 9e51 96bd 46bc 8a3d
00000210: 8ab8 923d fd27 a4bc 6210 72bd 3f44 86bd
00000220: 16f9 80bd 3a0f 103b 8e4c be3b 1a85 ee3c
00000230: ac12 c1bd ec98 9f3d a5fd 37bd eef3 c2bc
00000240: 3d18 f23d 2ab2 b03c bf7a e93d a488 22bd
00000250: 39cf 85bc 8aef bbbd f673 ab3c aaa4 8abd
00000260: 2d49 b63c 4b4b af3d 7f5c 803d 0988 2cbd
00000270: 1a1d 5abd 9591 d4bc 60c5 6f3d 3c3d 023d
00000280: ee43 9bbd 17ea da3d a32d 8a3d 3fcd 34bd
00000290: 55d5 a73d 4863 793d e4f1 0d3d 3776 6a3d
000002a0: 438d c2bd 0b84 93bd ee77 d33d 9091 e43d
000002b0: 758e db3c d5d4 10bd 4269 4dbd 899a 5dbd
000002c0: 797e 793d eaec af3c 6411 abbc a6c3 d7bd
000002d0: 2be9 afbd 07f4 523d 08d1 66bd d846 c9bd
000002e0: 09bf debd 657c 9dbd ed5b a23d c674 c53c
000002f0: 4523 d73d b67b 313d 9b18 48bd 88ab c93d
00000300: be3c a9bd c600 0ebe f59b f93d deba c43b
00000310: 49cf dabd 722f 97bd 1e90 94bd a1fa f13c
00000320: 036e 483e 1cf4 71bd 370e 41bd c574 173b
00000330: 9e7c 16bc 251c b83d ba32 6b3c 8b46 e63b
00000340: 7aaa 59bd 7599 6f3d 5920 073e be73 b7bd
00000350: 65ce 1b3d 6a24 7f3d a17f 6abd d05b 9fbc
00000360: 50f4 07bd 7a77 4d3c 76e1 57bd 2fd6 2ebd
00000370: 7cef 7c3d d5e7 823b 7d71 1b3e 260b 2ebc
00000380: de53 ebbd fd3a 6a3d f60e 993d 5253 e8ba
00000390: bcb8 cb3d 7e08 b0bd a05f 353d 7abb 043e
000003a0: 0017 3bbd 77bd 5d3e 24a3 123e 5918 d2bd
000003b0: 5f0e ba3d 6934 6e3c 86b1 6dbd e6a0 97bd
000003c0: 31ea c33d f2cc f13c 6842 eabc db0e 743d
000003d0: 25a8 3e3d 8b4a 2dbd 6400 c73b d1b1 523d
000003e0: da63 e03d d596 963d 9bc1 a0bd 09d4 113d
000003f0: 7d54 6a3d 159d 033e 5332 133e 7b54 9f3b
0.15750915 0.033485875 -0.00092082843 0.088251665 0.09091837 0.06877616 0.034746323 0.035717696
0.22584395 0.093512155 0.017251467 -0.038038302 0.052780006 -0.12636209 0.01996561 0.05167758
-0.010644272 0.06173814 -0.05731557 0.08234895 -0.12253191 -0.007626678 0.044764183 0.002884582
-0.044807475 0.18744694 0.029543383 0.17013346 -0.055392664 0.013630126 -0.059623014 -0.060699537
0.055885907 0.06450042 -0.1089952 -0.04888081 -0.08856374 -0.013569188 0.14482561 0.10759146
-0.09358109 -0.0223945 -0.050071996 0.04214875 -0.0075542894 0.046495255 -0.035528716 4.319017e-05
0.04185376 0.1010422 0.15394571 -0.013253101 0.08386468 -0.007575638 0.10451439 -0.016691366
0.20629813 -0.11638661 0.015332513 -0.071378864 0.031294215 0.13589036 0.14600043 0.045129687
-0.09329242 -0.023492081 -0.07343378 0.04514508 -0.08556899 -0.017384473 -0.09928676 0.0862066
-0.11889946 0.08590833 -0.10481942 -0.10451239 -0.11891633 0.07740121 0.07613947 0.03872933
-0.09257085 -0.058932193 -0.132848 -0.08064058 -0.0023586028 0.09926958 0.1592379 -0.050192602
0.0032117032 -0.009589598 -0.0022002596 0.034445718 -0.18082093 0.033545896 -0.08471301 -0.0920531
0.0059229555 0.109807596 0.10250057 -0.10384259 0.087048866 -0.074496575 -0.07929501 -0.034108423
0.013937474 -0.035374306 -0.04623125 -0.10967966 -0.02271537 0.1240531 0.007615853 0.06886321
-0.06356217 0.04526659 0.039816085 -0.079116434 -0.07475806 -0.02471056 -0.06041295 -0.07466493
-0.118004255 -0.074071825 0.033863634 -0.1437442 0.12170884 -0.11705193 -0.17505147 0.030187938
-0.025205985 -0.042250734 -0.07339786 0.067741916 0.07164104 -0.0200386 -0.059097655 -0.06555986
-0.06297509 0.0021981732 0.005807466 0.029116202 -0.094273895 0.077928394 -0.04491963 -0.023797955
0.11821029 0.02156933 0.11400365 -0.039681092 -0.016334163 -0.09176548 0.020929318 -0.067696884
0.02225169 0.08559283 0.06267642 -0.04212192 -0.05325041 -0.025948325 0.05853784 0.03179668
-0.07581316 0.1068918 0.06746986 -0.04414105 0.08194987 0.060885698 0.034654513 0.057241645
-0.094996 -0.072029196 0.10325609 0.11160576 0.026801327 -0.035359222 -0.05014921 -0.054102454
0.06091163 0.021475274 -0.020882316 -0.10535364 -0.08589395 0.051502254 -0.05635169 -0.098279655
-0.10876281 -0.07689742 0.0792769 0.024103533 0.10504774 0.04333087 -0.04885159 0.0984717
-0.08263539 -0.13867483 0.121879496 0.0060037216 -0.10684068 -0.07382096 -0.07254051 0.029538454
0.19573216 -0.05907069 -0.047132697 0.0023110372 -0.0091849845 0.08989743 0.014355356 0.0070274523
-0.053141095 0.058495957 0.13195933 -0.08957623 0.03803863 0.062290587 -0.057250623 -0.01945296
-0.03319198 0.012540692 -0.05270525 -0.04268473 0.061751828 0.0039949217 0.15180011 -0.010622775
-0.11490606 0.05718516 0.07473557 -0.0017725027 0.09947345 -0.0859537 0.04428065 0.12962142
-0.04567623 0.21654306 0.14320046 -0.1025855 0.09084772 0.014538863 -0.058030628 -0.07403736
0.09566153 0.02951667 -0.028596118 0.05958448 0.046547074 -0.042307418 0.0060730446 0.05143911
0.10956545 0.07352988 -0.07849427 0.035602603 0.05720948 0.12852891 0.14374666 0.004862366
