models/pretrained_spx.pth (torch, 438597 bytes, 29 tensors)

encoder.lstm.weight_ih_l0 f4 [256, 1]
0	0xbc9ce48a	-0.019151945
1	0x3e066125	0.13122995
2	0x3d648ebc	0.055800185
3	0x3dcdd774	0.1005086
4	0x3dd85919	0.10563869
5	0x3cda3741	0.026637675
6	0xbc206b8f	-0.009791269
7	0xbc4c59ab	-0.01247255
8	0x3dda7052	0.10665955
9	0xbd52dc95	-0.051479895
10	0xbe2179a8	-0.15769064
11	0x3d9305b9	0.07178826
12	0xbd4415af	-0.04787224
13	0x3e022644	0.1270991
14	0x3de48713	0.11158576
15	0x3c263f3a	0.01014691
16	0x3d870a75	0.065937914
17	0xbde8be4f	-0.113644235
18	0xbd81dfc1	-0.06341506
19	0xbc21dee7	-0.009879804
20	0xbe4c9504	-0.1997872
21	0xbcca9a94	-0.024731912
22	0xbe5584bd	-0.20851417
23	0xbda35f15	-0.0797712
24	0x3d49b289	0.04924253
25	0x3d8fa4ca	0.07013853
26	0xbd1893c7	-0.037250306
27	0x3de54449	0.11194665
28	0xbd3412e3	-0.043963324
29	0x3d0b840e	0.034061484
30	0x3cca04fa	0.024660576
31	0xbe12e632	-0.14345625
32	0xbe0bd45f	-0.13655232
33	0xbd7e43e7	-0.062076475
34	0xbdaa2da3	-0.08309486
35	0xbd88d2d8	-0.0668084
36	0x3d2df499	0.042469595
37	0xbdb3819a	-0.08764954
38	0x3d77552d	0.060383964
39	0x3d702d44	0.05863692
40	0x3dd80a03	0.105487846
41	0x3e23f42e	0.16011116
42	0x3db46384	0.088080436
43	0x3d1b6f32	0.03794784
44	0xbc4f1867	-0.012640095
45	0xbe03c040	-0.12866306
46	0x3e0a6d79	0.13518323
47	0x3dbdf5da	0.09275408
48	0xbd4f377b	-0.05059002
49	0xbe656962	-0.22403482
50	0xbe3928ea	-0.18082014
51	0x3e1ec8b9	0.15506257
52	0x3d669424	0.05629362
53	0x3dac2a31	0.08406485
54	0xbd95f6a3	-0.07322433
55	0x3d6575cd	0.056020547
56	0x3da02ba3	0.07820823
57	0x3e172336	0.14759526
58	0xbe00c636	-0.12575611
59	0x3cbfcb6c	0.023412429
60	0x3d8c7375	0.06857959
61	0x3d20c3a2	0.03924907
62	0xbcb86784	-0.022510298
63	0x3e19f49d	0.15034719
64	0xbd46ab36	-0.048503123
65	0x3dafde59	0.08587331
66	0xbc6f050b	-0.014588605
67	0x3dad32f1	0.08456982
68	0xbd84eb35	-0.06490175
69	0x3df46756	0.11933772
70	0xbd85ecf6	-0.06539337
71	0xbd8f5753	-0.06999078
72	0x3dec53a4	0.11539391
73	0x3d6bed6f	0.05759948
74	0xbe160919	-0.14651908
75	0xbdccc35f	-0.099982016
76	0x3deb7536	0.114969656
77	0x3df55265	0.11978606
78	0xbd86b1f7	-0.06576913
79	0x3ca9e89c	0.0207408
80	0x3dd1a646	0.10236792
81	0x3ce828f4	0.02833984
82	0xbe2b81af	-0.16748689
83	0xbdccd41e	-0.10001396
84	0x3c88dfac	0.016708218
85	0xbaad4a68	-0.0013221027
86	0x3c489ad1	0.012243942
87	0xbd755ccd	-0.059902955
88	0x3d8edcf3	0.069757365
89	0xbde8a20a	-0.113590315
90	0xbd80b681	-0.0628481
91	0xbbb207b5	-0.0054330477
92	0x3da4e8ab	0.080521904
93	0xbd3a45f1	-0.045476858
94	0x3db00b66	0.08595924
95	0xbde68f22	-0.11257769
96	0x3d821bad	0.06352935
97	0xbd9f2101	-0.07769967
98	0x3da2eb7d	0.07955072
99	0x3d154a27	0.03644767
100	0x3d8d93fb	0.06912991
101	0xbd59ca4d	-0.053171445
102	0xbdc2f49e	-0.09519313
103	0x3d32b629	0.043630753
104	0x3d6896b9	0.056784365
105	0x3e0ed225	0.13947351
106	0x3e03dfe8	0.12878382
107	0x3d90420e	0.07043849
108	0xbd4b98bf	-0.049706217
109	0x3d8593dc	0.065223426
110	0x3c52f0f0	0.012874827
111	0xbc98eb6c	-0.018666945
112	0x3c82154b	0.015879294
113	0xbe38e955	-0.18057759
114	0xbd861bab	-0.06548246
115	0x3d099f5b	0.03359924
116	0x3e0532c2	0.13007644
117	0xbdd8a19a	-0.10577698
118	0xbd69191a	-0.056908704
119	0xbd43ee0a	-0.047834434
120	0xbda36c79	-0.07979674
121	0x3d6d7e25	0.05798163
122	0x3d8bdc43	0.06829121
123	0xbc879a69	-0.01655312
124	0xbe0d805d	-0.13818498
125	0x3e394ec6	0.18096456
126	0x3d530251	0.05151588
127	0xbc139843	-0.00900847
128	0xbdb27778	-0.08714193
129	0xbe222050	-0.15832639
130	0x3e3fffae	0.18749878
131	0xbe2aeca9	-0.16691841
132	0xbcc38e91	-0.023871692
133	0xbe1bc4e2	-0.15211824
134	0x3d53841d	0.051639665
135	0xbe32865c	-0.17434067
136	0xbe1a9d44	-0.15099055
137	0xbdaa8330	-0.08325803
138	0xbd5e0f54	-0.054213837
139	0xbe031d99	-0.1280426
140	0x3d86e7e9	0.06587202
141	0x3e0a92d5	0.13532574
142	0xbd821455	-0.06351534
143	0xbe066a58	-0.13126504
144	0x3e3e210b	0.18567292
145	0x3d3e52ad	0.046465565
146	0x3e397d31	0.18114163
147	0xbde739bf	-0.11290311
148	0xbe099181	-0.13434412
149	0xbe3105b1	-0.17287327
150	0xbdc83253	-0.097752236
151	0xbd506746	-0.05087974
152	0x3db1eed0	0.08688128
153	0x3df583a6	0.119880006
154	0xbe2f6f2f	-0.17132257
155	0xbe091c85	-0.13389786
156	0x3e381d63	0.1797996
157	0xbd93c179	-0.07214636
158	0xbe17e49d	-0.14833303
159	0x3e25afc6	0.16180333
160	0x3e3ad017	0.18243442
161	0xbd165107	-0.036698367
162	0xbdd1fa50	-0.102528214
163	0x3e1ac60a	0.15114608
164	0x3e34c45a	0.17653027
165	0xbe193b06	-0.14963922
166	0xbcefd538	-0.029276475
167	0x3dfaa9dc	0.12239429
168	0xbdda6901	-0.10664559
169	0xbe2d26ca	-0.16909328
170	0xbe42ff4a	-0.19042698
171	0xbdc898e1	-0.09794784
172	0x3df22796	0.11823957
173	0xbde9c752	-0.114149705
174	0x3e19aba7	0.15006886
175	0x3e1b2c67	0.15153657
176	0x3cc0a8f4	0.023518063
177	0xbdd320fc	-0.10309026
178	0x3e2c4ee2	0.16826966
179	0xbdf3766c	-0.118878216
180	0xbe0eb5e4	-0.13936573
181	0xbe18f8c3	-0.14938645
182	0xbe596cf8	-0.21232975
183	0x3d7bb0d5	0.061447937
184	0x3c7abf6e	0.015304429
185	0x3dc74cb0	0.09731424
186	0xbe05b75f	-0.13058232
187	0x3cdaaf17	0.026694817
188	0x3d3f35d3	0.04668219
189	0x3e140d98	0.1445831
190	0x3e13482e	0.14383003
191	0x3d4c5ad7	0.04989132
192	0xbdcc2159	-0.09967298
193	0xbc432743	-0.011911216
194	0xbda2beab	-0.07946523
195	0x3e05bbe8	0.13059962
196	0x3e03558e	0.12825605
197	0x3d5bd452	0.05366928
198	0xbda7aae6	-0.08186893
199	0xbd57123b	-0.05250762
200	0x3da903c5	0.08252672
201	0x3d349ec8	0.044096738
202	0x3c54000c	0.012939464
203	0xbd24e0a1	-0.040253285
204	0xbc758041	-0.014984191
205	0x3d80c084	0.062867194
206	0x3b7c022f	0.003845345
207	0x3ddd60c4	0.10809472
208	0xbe08acc4	-0.13347155
209	0xbe0dac71	-0.13835312
210	0xbe8961e6	-0.26832503
211	0x3d08775a	0.033316948
212	0xbe8d66c4	-0.27617466
213	0xbc90410c	-0.017609142
214	0xbd83064a	-0.06397684
215	0x3c91c890	0.017795831
216	0xbe34e11b	-0.17663996
217	0xbd1347cf	-0.035957154
218	0xbdfdcfe5	-0.12393168
219	0x3e3b8e11	0.18315913
220	0x3da105a2	0.078624025
221	0xbd1bdfb0	-0.038055122
222	0x3dcde03f	0.10052537
223	0xbd9feddc	-0.0780904
224	0xbd6c80a6	-0.057739876
225	0xbd2aafaa	-0.041671433
226	0x3e285d3a	0.16441813
227	0x3d31f25f	0.043444034
228	0xbd775b1d	-0.060389627
229	0xbe479d4c	-0.19493598
230	0xbd239986	-0.039941333
231	0x3da1f574	0.079081446
232	0xbd1f94eb	-0.03896038
233	0x3e08092d	0.1328475
234	0x3c88798e	0.016659524
235	0x3e5e7195	0.21723016
236	0xbe4c053a	-0.19923869
237	0xbdf0978d	-0.11747656
238	0x3c3b2ccc	0.011424255
239	0x3d43ae87	0.047773864
240	0xbc9b5231	-0.01896009
241	0xbe993802	-0.29925543
242	0xbe3a62ba	-0.18201724
243	0x3da6722f	0.081272475
244	0x3e20c938	0.15701759
245	0x3c5e3724	0.013562951
246	0xbc87d62d	-0.01658162
247	0x3dcdfe1c	0.10058233
248	0xbd8866c8	-0.06660229
249	0x3e2ce31b	0.16883509
250	0x3c041ddb	0.008063759
251	0x3de36709	0.11103637
252	0xbe65c7d6	-0.22439513
253	0x3de8b35f	0.11362337
254	0xbd0e2cf7	-0.03471085
255	0x3e0feee4	0.14055973

encoder.lstm.weight_hh_l0 f4 [256, 64]
0	0x3cdbc518	0.02682738
1	0x3c4ded40	0.012568772
2	0x3d85a3ba	0.06525369
3	0xbdeb05cd	-0.11475716
4	0xbe241655	-0.16024144
5	0x3d949f3f	0.07256936
6	0xbddef184	-0.10885909
7	0x3c75fb45	0.015013521
8	0xbdf81503	-0.12113383
9	0xbd80c0db	-0.06286784
10	0x3dadb85e	0.08482431
11	0xbce9be67	-0.028533174
12	0x3d3c0c86	0.04591038
13	0xbcf3cc63	-0.029760545
14	0xbde22079	-0.1104135
15	0x3d3e5a04	0.046472564
16	0xbd836580	-0.06415844
17	0xbde51c49	-0.111870356
18	0xbdaf4b7f	-0.085593216
19	0xbdf735be	-0.120707974
20	0x3bfd790c	0.007735377
21	0xbdfbd838	-0.122971
22	0xbcf1aefe	-0.029502388
23	0x3e267bb9	0.16258134
24	0xbe18fb98	-0.14939725
25	0x3e3d2171	0.18469788
26	0xbc29a9cd	-0.010355425
27	0xbd79c165	-0.06097545
28	0x3e0c4d90	0.13701463
29	0xbd8e3c05	-0.069450416
30	0xbce66008	-0.028121963
31	0x3d37b012	0.044845648
32	0x3dc16b61	0.09444309
33	0x3c843ff4	0.016143776
34	0xbd5c30cc	-0.053757474
35	0x3d1571fc	0.036485657
36	0xbbb9c4ea	-0.005669226
37	0x3ca1a179	0.019730316
38	0x3dfde600	0.12397385
39	0x3d8ef052	0.06979431
40	0xbe0eb7ab	-0.13937251
41	0x3bc507ab	0.006012877
42	0xbe03ee67	-0.12883912
43	0x3cb374e3	0.021906322
44	0xbdd777e1	-0.10520912
45	0x3e201aca	0.15635219
46	0xba23081e	-0.0006219166
47	0x3d8e5d9c	0.06951448
48	0x3a151931	0.0005687653
49	0xbd58c24b	-0.052919667
50	0x3df1c384	0.1180487
51	0xbda951ca	-0.08267553
52	0x3c91ddfd	0.017806048
53	0xbdbfc669	-0.093640156
54	0x3d4df9f2	0.050287195
55	0x3de5380d	0.111923315
56	0xbd9c117b	-0.07620522
57	0xbb129a97	-0.0022369975
58	0xbdc62730	-0.09675443
59	0x3daf4565	0.08558158
60	0x3d9591b5	0.07303182
61	0x3d3a3db0	0.045468986
62	0xbd1114ec	-0.035420343
63	0x3cb5b6ad	0.022181833
64	0x3dbfc887	0.093644194
65	0xbcd5de0e	-0.02610686
66	0x3d5ced00	0.05393696
67	0xbb8abaa5	-0.0042336755
68	0xbe893613	-0.26799068
69	0xbc765af7	-0.015036336
70	0xb9c39083	-0.00037300968
71	0x3c5ef696	0.013608595
72	0xbe567913	-0.20944624
73	0x3d0ea6d5	0.034827072
74	0x3e1f9308	0.15583432
75	0x3e0639f3	0.13108043
76	0x3e60fd98	0.21971738
77	0x3e2ff15e	0.17181918
78	0xbe0deb75	-0.13859351
79	0xbe17e67f	-0.14834021
80	0xbc2d7c39	-0.010588699
81	0xbe0edca4	-0.13951355
82	0xbde35156	-0.11099498
83	0xbe185324	-0.14875466
84	0x3e409d9c	0.18810123
85	0xbd816bb5	-0.063193716
86	0x3e332c24	0.17497307
87	0x3d91c5c8	0.07117802
88	0xbe2b189b	-0.16708605
89	0x3d0df4ee	0.03465741
90	0x3e287366	0.16450271
91	0xbe788736	-0.24270329
92	0x3e48581e	0.19564864
93	0xbded2c17	-0.11580675
94	0xbd54d3b5	-0.051959712
95	0xbe122df1	-0.14275338
96	0xbdcaa514	-0.098947674
97	0x3cf3198b	0.029675266
98	0xbe89883c	-0.2686175
99	0x3e7242d4	0.23658305
100	0xbd82525d	-0.06363366
101	0xbb44860d	-0.0029987127
102	0xbe1a0d23	-0.15044074
103	0x3cea3320	0.028588831
104	0xbde8d89d	-0.11369441
105	0xbe5f0c58	-0.21782053
106	0xbdbc23dc	-0.09186527
107	0xbdc92703	-0.09821894
108	0xbcafe964	-0.021473594
109	0x3e223605	0.1584092
110	0x3e256d28	0.16154921
111	0xbe02496c	-0.1272332
112	0x3e922bd8	0.28549075
113	0x3e51daf2	0.20493677
114	0x3d94da50	0.07268202
115	0xbe1962df	-0.14979123
116	0xbe2cd151	-0.16876723
117	0xbd668db3	-0.05628748
118	0xb9151bdb	-0.00014220124
119	0x3e15450b	0.14577119
120	0x3e61b72b	0.2204253
121	0x3e2e9a47	0.1705104
122	0xba808b90	-0.0009807218
123	0xbe2edbda	-0.17076054
124	0xbe958e2a	-0.29210025
125	0x3e5b1127	0.21393262
126	0x3e2997ee	0.16561863
127	0x3e6b51f4	0.22980481
128	0x3b596005	0.0033168804
129	0xbd3d472a	-0.046210445
130	0xbd98cfdd	-0.07461522
131	0xbe151015	-0.14556916
132	0xbdc51190	-0.096224904
133	0x3c680d26	0.014163291
134	0x3d9aa5fe	0.07551192
135	0x3d4d7eb6	0.05016967
136	0x3d278315	0.040896494
137	0x3dea7287	0.114476256
138	0x3e1d940b	0.15388505
139	0x3de31edb	0.110898696
140	0x3e783928	0.24240553
141	0x3ceb9095	0.028755466
142	0x3d9150f5	0.070955195
143	0xbe550e7c	-0.20806307
144	0x3c202a86	0.009775763
145	0xbe293b71	-0.16526581
146	0xbe682076	-0.22668633
147	0x3dd34d2c	0.10317454
148	0x3e164311	0.14674021
149	0x3ce18be0	0.027532518
150	0x3e81b4be	0.25333208
151	0x3e0a31c4	0.13495547
152	0xbe2e0677	-0.16994654
153	0x3d78e75d	0.06076752
154	0x3de3920b	0.1111184
155	0xbc2dc6a0	-0.010606438
156	0xbde6baf9	-0.11266131
157	0xbe64b332	-0.22333983
158	0x3e1ceb10	0.15324044
159	0xbe4a5d33	-0.19762115
160	0xbd6e9ff8	-0.058258027
161	0x3ddce238	0.10785335
162	0xbd7f88af	-0.06238621
163	0xbc59cbdc	-0.013293233
164	0xbe0f3802	-0.13986209
165	0x3e71e18d	0.23621197
166	0xbddafcbb	-0.10692736
167	0x3e22e0a4	0.15906006
168	0xbda69b7b	-0.08135124
169	0xbe09184e	-0.13388178
170	0x3a0defaa	0.0005414436
171	0xbdea0d52	-0.11428322
172	0xbd935fbc	-0.07195994
173	0x3e45b8c3	0.19308762
174	0x3dc3cf87	0.09561067
175	0xbde1ebc8	-0.110313
176	0x3e826fe5	0.25475994
177	0x3e5ec43f	0.2175455
178	0xbe2aeefe	-0.16692731
179	0xbe3b0fd9	-0.18267764
180	0xbe527c1b	-0.20555155
181	0x3d741f55	0.059600193
182	0x3cd79384	0.026315458
183	0x3e6eae59	0.23308696
184	0x3e56d93a	0.20981303
185	0x3d9ecca0	0.07753873
186	0x3d8d0006	0.0688477
187	0xbdcf0453	-0.10108247
188	0xbdb41834	-0.08793679
189	0xbc8d20a0	-0.01722747
190	0x3c06be93	0.008224147
191	0x3d85d115	0.0653402
192	0x3e03ca63	0.12870173
193	0xbd6cce97	-0.057814207
194	0x3cc81fdf	0.02442926
195	0x3bc8aeba	0.0061243447
196	0xbde9bc9a	-0.11412926
197	0x3da10b02	0.07863428
198	0x3d3f9e36	0.04678174
199	0x3d9b815d	0.075930335
200	0xbde73400	-0.11289215
201	0xbd95d9e2	-0.073169485
202	0x3e14ec0c	0.1454317
203	0x3d366160	0.044526458
204	0x3e2b1cce	0.16710207
205	0xbdb2b026	-0.08725004
206	0x3d355f4d	0.04428034
207	0x3d9ca034	0.07647744
208	0x3d304f38	0.0430443
209	0x3d828193	0.063723706
210	0xbdc070de	-0.09396528
211	0xbcc73317	-0.024316354
212	0xbcc121b5	-0.023575643
213	0x3d469a3e	0.04848694
214	0x3cd2afac	0.025718533
215	0x3e1f173f	0.15536211
216	0xbdfeb835	-0.124374785
217	0xbd6d9c63	-0.05801047
218	0x3be6d6c5	0.0070446455
219	0xbb55e68b	-0.0032638635
220	0x3dec89ee	0.115497455
221	0xbe2623b5	-0.16224559
222	0xbde97a79	-0.11400313
223	0xbd8b38a5	-0.067979135
224	0xbda6997a	-0.08134742
225	0x3d871d04	0.06597331
226	0xbdf77871	-0.12083519
227	0x3cc47f06	0.02398635
228	0xbc2a7b1d	-0.010405329
229	0x3db051de	0.08609365
230	0xbc968052	-0.018371735
231	0x3d62b0b4	0.0553443
232	0xbd2b339d	-0.04179727
233	0xbdd34b5e	-0.103171095
234	0x3caf0900	0.021366596
235	0x3cfe4b1a	0.03104167
236	0x3d95e2cd	0.073186494
237	0x3df9608e	0.121766195
238	0x3e0b153b	0.13582318
239	0x3d38e2c9	0.045138154
240	0x3e060cd8	0.13090837
241	0xb986c5bb	-0.00025705792
242	0x3c8713e7	0.016488982
243	0xbddba089	-0.10723979
244	0x3c5b6691	0.013391153
245	0xbbd5103a	-0.0065021785
246	0x3d7aba40	0.061212778
247	0x3d630557	0.055425014
248	0x3d176b2d	0.036967445
249	0x3da5db1b	0.08098432
250	0x3d8a01c3	0.06738617
251	0xbdf77545	-0.12082914
252	0xbdd5fd38	-0.10448688
253	0x3e07461d	0.1321034
254	0xbda85935	-0.0822014
255	0xbd8d64fb	-0.06904026

encoder.lstm.bias_ih_l0 f4 [256]
0	0x3dfe655a	0.12421675
1	0x3e1e4914	0.15457565
2	0x3e68c5b8	0.22731674
3	0x3dcff347	0.10153823
4	0xbdeaa4af	-0.11457192
5	0x3e3a3c66	0.18187103
6	0xbe05ff41	-0.13085653
7	0x3c8578c9	0.016292946
8	0x3dd388d1	0.1032883
9	0x3e07f381	0.13276483
10	0xbc5250f0	-0.01283668
11	0x3c473384	0.012158278
12	0xbdada79b	-0.08479234
13	0x3dd12896	0.10212819
14	0x3dee46fc	0.11634633
15	0xbcf08749	-0.029361384
16	0x3e3ebef3	0.18627529
17	0x3dd38a62	0.10329129
18	0xbcc2301e	-0.023704585
19	0x3d6e9273	0.058245134
20	0xbd2ef09f	-0.042709943
21	0x3e41134f	0.18855022
22	0x3dbaf4a8	0.09128696
23	0x3cd9f7dd	0.026607448
24	0x3c1c5f36	0.009544184
25	0x3d847655	0.064678825
26	0x3be6d7d9	0.007044774
27	0xbc9f1749	-0.019420283
28	0x3e3f9016	0.18707308
29	0xbd79a5ba	-0.060949065
30	0x3e0f2c4e	0.13981745
31	0x3e2c34bc	0.16816992
32	0xbb56612a	-0.0032711723
33	0xbd1e245d	-0.038608897
34	0xbd342663	-0.04398192
35	0x3dd152ec	0.10220894
36	0x3e200857	0.15628181
37	0xbc314844	-0.010820452
38	0xbc07900d	-0.0082740905
39	0x3d3272ba	0.043566443
40	0xbd093f8f	-0.03350788
41	0x3d4d7e8b	0.05016951
42	0x3dd78bba	0.105246976
43	0x3dbefa0a	0.09325035
44	0x3d87ca4e	0.066303834
45	0x3df97474	0.12180415
46	0x3db5921c	0.08865759
47	0x3dd9aeb2	0.106290236
48	0x3d2206d2	0.039557286
49	0xbd37bb25	-0.04485621
50	0x3de4a186	0.11163621
51	0x3db2773c	0.087141484
52	0x3de844d9	0.11341257
53	0x3dc46e1b	0.095913135
54	0x3d7a45c9	0.06110171
55	0x3c75cd5c	0.015002575
56	0x3db09daa	0.08623822
57	0xbd257891	-0.040398184
58	0x3d88c733	0.06678619
59	0x3db5c0e4	0.088746816
60	0x3da2cc45	0.079491176
61	0x3d8f837e	0.07007502
62	0x3d9127c6	0.07087664
63	0x3dd4a54d	0.10383091
64	0x3d121ea1	0.03567374
65	0xbdf017a5	-0.1172326
66	0xbe15030b	-0.14551942
67	0xbdbe55ab	-0.092936836
68	0x3d3b7030	0.045761287
69	0xbd1a18ba	-0.037621237
70	0xbde0bf22	-0.10973956
71	0xbcf2901e	-0.029609736
72	0xbe08c09b	-0.13354723
73	0xbd070f9b	-0.032973867
74	0x3c6c282c	0.014413875
75	0x3ca71581	0.020395996
76	0x3dc0e982	0.09419538
77	0xbdb4c593	-0.08826747
78	0xbcc8d77d	-0.024516815
79	0xbd2ccb67	-0.042186167
80	0xbe2c5e35	-0.16832812
81	0xbd7aa03e	-0.061187975
82	0xbe114a88	-0.14188588
83	0xbde30628	-0.110851586
84	0xbdbaa2e1	-0.09113098
85	0xbe4672d7	-0.19379745
86	0x3cd4b4b4	0.025965072
87	0xbab88ef9	-0.0014080695
88	0x3d0b6b31	0.034037773
89	0x3c5f746b	0.013638596
90	0xbdeb5fb1	-0.11492861
91	0x3dc329d0	0.095294595
92	0x3d8b797d	0.068102814
93	0x3dd8435f	0.10559725
94	0x3d949f69	0.072569676
95	0xbd91dbf9	-0.071220346
96	0xbd8a4d37	-0.06753009
97	0xbdbae769	-0.09126169
98	0x3bb29c0c	0.005450731
99	0x3db8bc85	0.09020332
100	0x3d596f0a	0.05308441
101	0x3d966ff8	0.07345575
102	0x3e0ff332	0.14057615
103	0xbb607b96	-0.003425335
104	0x3dff6bf4	0.12471762
105	0xbe149bd1	-0.14512564
106	0x3b9d823e	0.004806786
107	0xbc6da45c	-0.014504518
108	0x3d5cc1b6	0.053895675
109	0x3d3bdc12	0.045864172
110	0x3d0d138d	0.034442473
111	0xbd9ed1cf	-0.077548616
112	0xbda525ef	-0.08063876
113	0x3914d438	0.00014193438
114	0xbcc2b7eb	-0.02376934
115	0x3db8c1ca	0.09021337
116	0xbdd1f916	-0.102525875
117	0xbb305829	-0.0026908016
118	0xbe275da1	-0.1634431
119	0xbd489b1b	-0.048976045
120	0xbde31ae7	-0.110891156
121	0x3d7b4dcf	0.0613535
122	0xbd8e05c0	-0.069346905
123	0x3c1cb877	0.009565464
124	0xbe049553	-0.12947588
125	0x3dbec384	0.093146354
126	0xbe04925b	-0.12946455
127	0xbc996444	-0.018724568
128	0x3d9b563f	0.075848095
129	0x3dcb7ace	0.099355325
130	0x3d429551	0.04750568
131	0xbd639975	-0.05556627
132	0xbce8617e	-0.0283668
133	0xbc111bab	-0.008856694
134	0xbd42c772	-0.047553487
135	0x3c34da1a	0.011038328
136	0xbd03b319	-0.032153223
137	0x3b99b73a	0.0046910318
138	0x3dfe3d84	0.12414077
139	0x3d27795d	0.040887225
140	0x3dde8a6b	0.10866245
141	0xbd551299	-0.05201969
142	0x3d8b2b8a	0.06795414
143	0xbdcdb170	-0.10043609
144	0xbdae2764	-0.08503607
145	0x3d6a0619	0.05713472
146	0x3dbb4781	0.09144498
147	0x3c830d39	0.015997516
148	0x3cbb45b7	0.022860391
149	0x3d80e991	0.06294549
150	0x3dc3b5fc	0.09556195
151	0x3d8816ba	0.0664496
152	0xbddff648	-0.10935646
153	0x3ce67491	0.028131755
154	0x3b114dda	0.0022171647
155	0x3d8a43cf	0.06751215
156	0x3db35951	0.0875727
157	0xbdd91036	-0.10598795
158	0x3ce6c335	0.028169254
159	0xbd927d24	-0.07152775
160	0x3ded2095	0.1157848
161	0x3c9051bd	0.0176171
162	0xbd1b4346	-0.037905954
163	0x3ddabfc2	0.10681106
164	0x3c813469	0.015772061
165	0xbb48d28f	-0.003064308
166	0xbdcc08e0	-0.0996263
167	0xbd460a65	-0.048349757
168	0x3ce7fce6	0.028318834
169	0xbd6fec15	-0.058574755
170	0x3d188819	0.037239168
171	0xbd5c384d	-0.05376463
172	0x3a823719	0.0009934633
173	0x3d934e42	0.07192661
174	0x3d165f9d	0.036712278
175	0xbcf5bd12	-0.029997382
176	0x3dbd0128	0.09228736
177	0x3dc13d3a	0.09435506
178	0xbc9a7330	-0.018853754
179	0xbba7b88c	-0.0051184352
180	0xbdbc543b	-0.09195753
181	0xbce19fd9	-0.027542042
182	0x3d07f759	0.033194873
183	0xbcd4b9a3	-0.025967425
184	0xbc8a8835	-0.016910652
185	0x3d9903c9	0.07471425
186	0x3dbfe9fa	0.09370799
187	0xbce529dc	-0.027974062
188	0xbd637b89	-0.055537734
189	0x3cfcf707	0.03087951
190	0x3d524158	0.051331848
191	0x3d21ac79	0.039471123
192	0xbd135eef	-0.035979208
193	0x3e23b8de	0.1598849
194	0x3e2ad11b	0.1668133
195	0x3c5b0878	0.013368718
196	0xbe18548a	-0.14875999
197	0x3e80cdd8	0.25157046
198	0xbcd74f3e	-0.026282903
199	0xbd8f7005	-0.07003788
200	0x3e2c4b22	0.16825536
201	0x3d4285f2	0.04749102
202	0x3e0aaac9	0.13541712
203	0x3dd8d12d	0.10586772
204	0x3df0c25d	0.11755822
205	0x3ddd6099	0.1080944
206	0x3d8a55df	0.0675466
207	0x3b633304	0.003466786
208	0x3dfbd9e6	0.1229742
209	0x3da6eb23	0.081503175
210	0x3df4008a	0.11914165
211	0x3e3a281a	0.1817936
212	0x3dc2365c	0.094830245
213	0x3e955368	0.29165196
214	0x3dbd42c6	0.09241252
215	0xbda90704	-0.08253291
216	0xbd7c5af5	-0.06161018
217	0x3db910e8	0.09036428
218	0x3e11b460	0.14228964
219	0x3d1753c2	0.036945112
220	0x3b76db54	0.003766735
221	0x3e00e06d	0.12585612
222	0x3dcb93d7	0.099403076
223	0xbce73106	-0.028221618
224	0x3daa14c4	0.08304742
225	0x3c8a4ec9	0.01688327
226	0xbc03f2f8	-0.008053534
227	0xbd135f9b	-0.03597985
228	0x3d60fb08	0.054926902
229	0x3e038cda	0.128467
230	0xbdbc0836	-0.091812536
231	0x3da45ed5	0.080259
232	0x3e11694b	0.14200322
233	0x3d839087	0.06424051
234	0x3e2f42da	0.17115346
235	0x3e07b883	0.1325398
236	0x3e25448d	0.16139431
237	0x3c12dcae	0.008963747
238	0xbd340a08	-0.04395488
239	0x3e14001a	0.14453164
240	0xbdbcae82	-0.09212972
241	0x3d9f53fa	0.07779689
242	0xb9233be1	-0.00015567198
243	0xbccd265e	-0.025042709
244	0x3dda765b	0.10667106
245	0x3e009605	0.12557228
246	0x3d072331	0.032992546
247	0x3dbe43d3	0.0929028
248	0x3d2c4669	0.042059336
249	0x3dc4b58a	0.09604938
250	0x3d45f991	0.04833371
251	0x3cce8d05	0.025213728
252	0x3cbd253f	0.02308905
253	0xbd0aced5	-0.033888657
254	0x3dbadbd0	0.09123957
255	0xbce27ab8	-0.027646407

encoder.lstm.bias_hh_l0 f4 [256]
0	0x3d4c9598	0.04994735
1	0x3d9418db	0.07231303
2	0x3e1e7af4	0.1547659
3	0xbcec6e61	-0.028861227
4	0xbde495be	-0.111613736
5	0x3e6c81fb	0.23096459
6	0x3dddae4c	0.1082426
7	0x3e01178f	0.12606643
8	0x3de64a45	0.112446345
9	0x3e0df38d	0.13862438
10	0x3d74a9b0	0.05973214
11	0x3dc058fd	0.09391973
12	0xbdf092ea	-0.11746772
13	0xbcbe3a4d	-0.02322116
14	0x3e19f003	0.15032963
15	0xbc5eb9e5	-0.013594125
16	0x3e0cc5e2	0.13747361
17	0x3d0cb6fb	0.03435419
18	0x3b9530cf	0.0045529376
19	0x3d672357	0.056430187
20	0x3e34db94	0.17661887
21	0x3eba7de2	0.36424166
22	0x3d0e83dc	0.03479372
23	0x3d97af0d	0.07406435
24	0xbd89512e	-0.06704937
25	0x3e31e451	0.17372252
26	0xbcd97c6d	-0.026548589
27	0x3c875f8b	0.01652505
28	0xbba4a605	-0.005024674
29	0x3d5d4bab	0.05402724
30	0x3dfd9d75	0.12383548
31	0x3de0560b	0.109539114
32	0xbd1f9f13	-0.038970064
33	0xbd39b237	-0.045335975
34	0xbb4305c6	-0.002975808
35	0x3df8b7c3	0.12144425
36	0xbc0fc9a3	-0.008776101
37	0x3d928ffc	0.07156369
38	0x3b85f6db	0.0040882654
39	0x3ccbf83c	0.02489864
40	0x3d88dc7d	0.0668268
41	0x3e27fb0d	0.16404362
42	0x3e400244	0.18750864
43	0x3d5e3eda	0.05425916
44	0x3e0d2ea2	0.1378732
45	0xbda610b0	-0.08108652
46	0x3e0c8cf7	0.13725649
47	0x3de4ac69	0.11165697
48	0x3c2bb1ba	0.010479385
49	0x3cbcec46	0.023061883
50	0x3d42cb1e	0.04755699
51	0xbdccd0a2	-0.10000731
52	0xbde657e1	-0.1124723
53	0x3d63728c	0.055529162
54	0x3e8223f6	0.2541806
55	0x3d908b5f	0.07057833
56	0x3dbb2bf7	0.09139245
57	0x3d9040ea	0.070436314
58	0x3cca1184	0.024666555
59	0x3dc9b56b	0.09849056
60	0x3d2acfba	0.04170201
61	0x3e09c681	0.1345463
62	0x3d767f23	0.06017984
63	0xbd6c9f3c	-0.057769045
64	0xbcd724c7	-0.026262654
65	0xbdcf1722	-0.10111834
66	0xbe2d608b	-0.1693136
67	0xbd8e8785	-0.06959442
68	0xb6230650	-2.4292567e-06
69	0xbe065d9f	-0.13121651
70	0xba35c541	-0.0006933995
71	0x3d25630e	0.04037767
72	0x3d9ec2a8	0.077519715
73	0x3d9b337b	0.075781785
74	0x3c0ca01b	0.008583094
75	0x3ddab3ac	0.10678801
76	0x3e002aca	0.12516323
77	0xbd0e09b5	-0.034677226
78	0x3db28f45	0.08718733
79	0x3d5ae85a	0.053444244
80	0xbda69a6e	-0.08134924
81	0x3d7def54	0.06199582
82	0x3d50d9da	0.05098901
83	0xbcb7d9df	-0.022442756
84	0x3ca9ef93	0.02074412
85	0xbe5da4fd	-0.2164497
86	0xbd9d6023	-0.07684352
87	0xbd491492	-0.049091883
88	0x3d649133	0.055802535
89	0xbdbe9ce8	-0.09307271
90	0xbcaf5ce6	-0.021406602
91	0xbbd4c576	-0.0064932657
92	0xbc3200f8	-0.010864489
93	0xbd7c1a25	-0.06154837
94	0x3c808cae	0.015692081
95	0xbd5ff1d8	-0.054674
96	0x3d8f0e60	0.06985164
97	0x3de11b1e	0.109915
98	0xbdeace6d	-0.11465154
99	0xbdadab07	-0.084798865
100	0xbe203e5c	-0.15648788
101	0xbe068c1c	-0.13139385
102	0xbdc755db	-0.097331725
103	0xbe0caf1e	-0.13738677
104	0xbce55cc7	-0.027998341
105	0xbe0a34f3	-0.13496761
106	0xbd9967b3	-0.07490482
107	0xbd6e1ef3	-0.058134984
108	0xbe29ffee	-0.16601536
109	0x3d5df252	0.054186173
110	0xbab732bd	-0.0013976913
111	0xbb34aa70	-0.002756741
112	0x3ca0d48a	0.019632597
113	0xbd37ba79	-0.04485557
114	0x3d274c88	0.04084447
115	0xbdc75772	-0.09733476
116	0x3dd808dc	0.10548565
117	0x393b808a	0.00017881594
118	0xbde226bc	-0.11042544
119	0x3cb04b41	0.021520259
120	0x3d871427	0.06595641
121	0x3d7960e2	0.06088341
122	0x3d59b005	0.05314638
123	0xbdae12ea	-0.08499701
124	0x3d9342de	0.07190488
125	0xbcab6266	-0.020920943
126	0xbd7cc36b	-0.061709803
127	0xbdecc3e0	-0.11560798
128	0x3bf6104e	0.007509268
129	0xbcbaf543	-0.022822028
130	0xbd92a2b6	-0.07159941
131	0x3ceb3e41	0.028716208
132	0xbd88eea8	-0.06686145
133	0x3d2d4061	0.042297725
134	0x3be6102c	0.007020971
135	0xbc6c68f2	-0.014429318
136	0x3db711b1	0.08938921
137	0x3de448bc	0.111466855
138	0x3ddcf167	0.10788231
139	0x3d954dbf	0.072902195
140	0xbcd06b98	-0.02544193
141	0xbc291137	-0.010319046
142	0xbd5e177a	-0.054221608
143	0x3d2098a2	0.039208062
144	0x3b2b6619	0.0026153384
145	0xbdbe4576	-0.09290592
146	0xbdb36c09	-0.087608404
147	0xbc13eda0	-0.009028822
148	0x3ca0fd69	0.019652085
149	0xbd1293f1	-0.03578562
150	0xbe0f0e3c	-0.13970274
151	0x3c738235	0.014862587
152	0x3c665c68	0.014060117
153	0x3d1b3ddd	0.037900794
154	0x3d65f930	0.056145847
155	0xbddea462	-0.10871197
156	0xbdee9c3a	-0.116508916
157	0x3daf2d42	0.08553554
158	0x3d3e29ce	0.046426587
159	0xbd56784a	-0.05236081
160	0xbdc19c29	-0.09453613
161	0xbd85d74c	-0.06535205
162	0xbda5c33e	-0.0809388
163	0xbdfc3c2b	-0.12316164
164	0xbd30791c	-0.04308425
165	0x3d912c89	0.070885725
166	0x3c47ad93	0.012187379
167	0x3d9e92ee	0.07742868
168	0xbd9d1025	-0.07669095
169	0x3d7a16f2	0.06105704
170	0xbd50ceee	-0.050978594
171	0x3da101b4	0.07861653
172	0xbd41066a	-0.047125258
173	0x3cc1b0f8	0.023643956
174	0xbcb7572c	-0.022380434
175	0xbd10c899	-0.035347555
176	0xbcb74c78	-0.02237533
177	0xbd1f9c7d	-0.0389676
178	0x3d5ba11e	0.05362045
179	0xbdb2edec	-0.08736786
180	0xbd90f73c	-0.07078406
181	0x3d53a972	0.051675268
182	0x3ccd9f82	0.025100473
183	0x3db6cad5	0.08925406
184	0x3e011ce6	0.1260868
185	0x3cf9ec81	0.030508282
186	0x3a3903d4	0.00070577604
187	0xbdd9e17f	-0.10638713
188	0xbd77f799	-0.060538862
189	0xbcae9862	-0.021312896
190	0xbccbd386	-0.024881136
191	0xba52fbb5	-0.00080483715
192	0xbc0ea200	-0.008705616
193	0x3e769f0f	0.24084114
194	0x3e0fed76	0.14055428
195	0x3d854bc5	0.065085925
196	0xbca96832	-0.020679567
197	0x3e886ee7	0.26647112
198	0x3d8f6f80	0.07003689
199	0x3c9efc0f	0.0194073
200	0x3c896269	0.016770558
201	0x3c1c01b6	0.009521892
202	0xbcb125d3	-0.021624481
203	0xbd3dc809	-0.046333347
204	0xbbc11217	-0.005892049
205	0x3e279957	0.16367088
206	0xbda9043d	-0.082527615
207	0xbd3954b0	-0.04524678
208	0x3db4ab19	0.08821697
209	0x3daa94be	0.083291516
210	0x3d79411a	0.0608531
211	0x3d87772f	0.06614529
212	0x3da56eff	0.080778114
213	0x3e43330b	0.1906244
214	0x3e1367fd	0.14395137
215	0xbc9d3ff3	-0.019195532
216	0xbcc5b74c	-0.024135254
217	0x3c237365	0.009976243
218	0x3e4e1464	0.20124966
219	0x3d25727e	0.04039239
220	0x3d89588e	0.067063436
221	0xbcd606eb	-0.026126346
222	0x3e1b1241	0.15143682
223	0x3dd2c67b	0.102917634
224	0x3c8060b4	0.015671112
225	0x3c44bf30	0.012008473
226	0x3c99ee1a	0.018790293
227	0x3dbd2976	0.09236424
228	0x3e39f1b4	0.18158609
229	0x3c59ddba	0.013297493
230	0xbd9f19fb	-0.07768627
231	0x3de8ba06	0.11363606
232	0xbd95c5b9	-0.07313103
233	0x3e185589	0.14876379
234	0x3d97d2a1	0.07413221
235	0x3e1e2d2d	0.1544692
236	0x3cb8670c	0.022510074
237	0xbd9c72b4	-0.076390654
238	0xbcbbf3b0	-0.022943348
239	0xbc2a6255	-0.010399421
240	0x3cb8fec7	0.022582425
241	0x3d4ac02f	0.049499687
242	0x3d51d01b	0.051223855
243	0xbd6e532a	-0.05818478
244	0x3d787f2e	0.060668163
245	0x3dc25dda	0.09490557
246	0x3d97cefb	0.07412525
247	0xbd9bb7b4	-0.07603398
248	0xbdff39bd	-0.124621846
249	0x3d58f919	0.052971933
250	0x3e1aca5d	0.15116258
251	0x3d93c260	0.072148085
252	0x3dc9472e	0.098280296
253	0xbc95d4e3	-0.018289989
254	0x3e03a906	0.12857446
255	0x3d8106b1	0.063001044

encoder.lstm.weight_ih_l1 f4 [256, 64]
0	0x3d60c855	0.05487855
1	0xbd484cc4	-0.048901334
2	0x3bfd0b44	0.00772229
3	0xbd36fc7e	-0.04467439
4	0xbe29d3c0	-0.16584682
5	0xbcbb1db9	-0.022841321
6	0xbd687338	-0.056750506
7	0x3ca65b69	0.02030726
8	0x3dd92c35	0.10604135
9	0x3cb43399	0.02199726
10	0x3cb47085	0.02202631
11	0xbc8f11f4	-0.017464615
12	0x3d4498c6	0.04799726
13	0x3d7f6f12	0.062361784
14	0x3cf8bdb9	0.030363904
15	0xbdc1c76f	-0.09461867
16	0x3d97d5c9	0.07413823
17	0x3c49f616	0.012326738
18	0x3c43681e	0.011926679
19	0x3df3ddbb	0.11907526
20	0x3e1596ed	0.14608355
21	0x3e1c19a4	0.15244156
22	0xbd964e19	-0.07339115
23	0xbd87e62b	-0.06635698
24	0x3d1bc652	0.03803093
25	0xbdc151bc	-0.09439418
26	0xb8bb98bc	-8.945304e-05
27	0xbc7a1dbc	-0.015265878
28	0xbd9e2232	-0.07721366
29	0x3e05a2dd	0.13050409
30	0x3d720e53	0.059095692
31	0x3ddeffbb	0.108886205
32	0x3d99418f	0.074832074
33	0x3d357409	0.044300113
34	0xbcf4b218	-0.029870078
35	0x3d8100ca	0.062989786
36	0x3e09bb40	0.13450336
37	0x3d862a65	0.06551055
38	0x3d5da1f1	0.054109517
39	0x3dc5d418	0.09659594
40	0xbdbf5fe1	-0.09344459
41	0xbe07dad5	-0.13267072
42	0xbdcf5520	-0.10123658
43	0x3dc6f7ab	0.09715208
44	0x3c699ccf	0.0142585775
45	0x3dddd6d1	0.108319886
46	0x3dab839a	0.083747104
47	0xbe15ce2f	-0.14629434
48	0xbd6252b9	-0.05525467
49	0x3e073413	0.13203458
50	0xbdc8237a	-0.097723916
51	0xbda86a7b	-0.082234345
52	0xbddb945c	-0.10721657
53	0xbdde76c8	-0.108624995
54	0x3d5e1208	0.054216415
55	0x3db62532	0.08893813
56	0x3d63befd	0.055602062
57	0xbd74d328	-0.059771687
58	0xbcd4c5dc	-0.025973253
59	0x3cfab48d	0.030603671
60	0xbe1d1aa2	-0.15342191
61	0x3e0b24ae	0.13588211
62	0xbb87be52	-0.004142561
63	0x3dacdc20	0.08440423
64	0x3b66740b	0.0035164382
65	0x3e1cc555	0.15309651
66	0xbe35fbac	-0.17771786
67	0x3d570910	0.052498877
68	0xbde501b4	-0.111819655
69	0x3dfd9b84	0.12383178
70	0x3d3de24e	0.0463584
71	0x3c73e8a2	0.014887007
72	0xbd3a7ed2	-0.0455311
73	0x3e001489	0.12507834
74	0xbd7e4125	-0.062073845
75	0xbd1bba49	-0.038019452
76	0xbca905df	-0.020632682
77	0x39210299	0.00015355124
78	0x3b39de22	0.0028361161
79	0xbd9de832	-0.07710303
80	0x3da02bd7	0.07820862
81	0x3c9af5a7	0.018915964
82	0xbd968450	-0.07349455
83	0x3d16ff6c	0.036864683
84	0x3e027f10	0.12743783
85	0x3e3ec84c	0.18631095
86	0xbdb1c59d	-0.0868027
87	0x3decfaec	0.11571297
88	0xbdb116f8	-0.08646959
89	0xbd1e4528	-0.03864017
90	0x3deeadfe	0.1165428
91	0xbd946ead	-0.07247672
92	0xbe09b3cd	-0.13447495
93	0x3dc164ae	0.09443031
94	0xbb6b73c9	-0.0035927168
95	0xbdf3ca1d	-0.119037844
96	0xbe0452ff	-0.12922285
97	0xbd8a55f8	-0.067546785
98	0xbd0ca684	-0.03433849
99	0x3d56e823	0.052467477
100	0xbd30b6e2	-0.04314316
101	0x3df8cb11	0.12148107
102	0xbded2232	-0.11578788
103	0xbdf0ef34	-0.117643744
104	0x3cf3ad20	0.029745638
105	0xbd816db3	-0.063197516
106	0xbcf007f4	-0.029300667
107	0x3bf07e17	0.00733925
108	0xbe1bdc51	-0.15220763
109	0x3e042e2a	0.12908235
110	0xbd0db266	-0.034593962
111	0xbdaba50e	-0.08381091
112	0xbdafa569	-0.08576471
113	0x3c9debbb	0.019277444
114	0x3cb2feb0	0.02184996
115	0xbdc2d2ad	-0.095128395
116	0xbda3df0e	-0.08001529
117	0x3df1148d	0.11771498
118	0x3e1fdf74	0.15612584
119	0xbcaf0e81	-0.02136922
120	0x3dcc2982	0.099688545
121	0x3cab2078	0.020889506
122	0x3ce0aeea	0.027427156
123	0x3c6aca51	0.014330463
124	0xbd83eb14	-0.06441322
125	0x3dd0a385	0.10187439
126	0xbe343b13	-0.1760066
127	0xbdac0677	-0.083996706
128	0xbdb66b97	-0.0890724
129	0xbe3a9866	-0.18222198
130	0xbbd43d52	-0.0064770365
131	0xbe119fcf	-0.14221118
132	0x3d3d7d83	0.046262275
133	0xbcf949d6	-0.030430716
134	0xbd85ab9f	-0.06526875
135	0xbe1f32ba	-0.15546694
136	0xbbdaf64c	-0.006682193
137	0xbc7c4de9	-0.015399435
138	0x3c44be00	0.01200819
139	0xbc9f6660	-0.019457996
140	0xbdcc9c2a	-0.099907234
141	0x3dd5557f	0.10416698
142	0xbca664fb	-0.020311823
143	0xbbb27b61	-0.005446837
144	0x3da05c5c	0.07830116
145	0x3daed00b	0.08535775
146	0xbd3ca534	-0.046055987
147	0xbbece6c6	-0.007229659
148	0x3cd91628	0.026499823
149	0xbda918d0	-0.08256686
150	0xbc8bd173	-0.017067647
151	0x3dd9d120	0.106355906
152	0x3dc20b04	0.09474757
153	0x3d15feeb	0.03662006
154	0xbe1fc58b	-0.156027
155	0xbe1dca70	-0.15409255
156	0x3e05fe6f	0.1308534
157	0x3d873913	0.06602683
158	0xbde8cc36	-0.11367075
159	0x3e082d5b	0.13298552
160	0x3da7a92a	0.08186562
161	0x3dcc9177	0.09988683
162	0xbde81757	-0.11332577
163	0x3e2602fd	0.16212077
164	0x3e123f54	0.1428197
165	0xbdf80bf4	-0.12111655
166	0xbc86ffb6	-0.016479354
167	0x3d594698	0.05304584
168	0x3dc54b57	0.096335106
169	0xbd233e3f	-0.039854284
170	0x3d37bc42	0.04485727
171	0xbcb83cde	-0.022489961
172	0xbc82fc75	-0.015989522
173	0xbdbadecd	-0.09124527
174	0x3d8e5c80	0.06951237
175	0xbcef8e42	-0.029242638
176	0xbd6e4c5d	-0.058178294
177	0xbda1b23f	-0.07895326
178	0xbce5758b	-0.02801015
179	0x3d972549	0.073801585
180	0x3d1530c1	0.03642345
181	0xbd44eaf3	-0.048075628
182	0xbe04bbc3	-0.1296225
183	0xbd95dfa7	-0.07318049
184	0xbcbb2d42	-0.022848729
185	0x3dfa7cd8	0.12230843
186	0xbdbc758b	-0.09202107
187	0xbd9b2f19	-0.075773425
188	0x3a97cb68	0.0011581006
189	0x3df0dc22	0.11760737
190	0x3cae24ca	0.021257777
191	0x3e1167d8	0.1419977
192	0xbcdc0be0	-0.026861131
193	0xbda7d52f	-0.081949584
194	0xbde8b2df	-0.11362242
195	0xbe22da93	-0.15903692
196	0xbd5e8afb	-0.05433176
197	0x3dab50c1	0.08365012
198	0xbd4245cf	-0.047429856
199	0x3bf64579	0.007515606
200	0xbe041ec4	-0.12902361
201	0xbe080831	-0.13284375
202	0xbd7b7a26	-0.061395787
203	0xbdd2957f	-0.1028242
204	0x3d527fe6	0.051391505
205	0xbd26bc29	-0.040706787
206	0xbcfc244d	-0.030779028
207	0x3d239e79	0.039946053
208	0x3dea17f6	0.114303514
209	0xbe07a678	-0.13247097
210	0xbdf4c255	-0.119511284
211	0x3d1d3750	0.03838283
212	0xbcaf9981	-0.021435501
213	0xbdbc2b59	-0.091879554
214	0x3e35241f	0.1768956
215	0x3dca737a	0.09885307
216	0x3c71f407	0.014767653
217	0xbdb48237	-0.08813899
218	0x3d96e7fe	0.07368468
219	0xbbefa1c3	-0.0073129847
220	0xbdb37d75	-0.087641634
221	0xbde56d43	-0.11202481
222	0xbe03ff46	-0.12890348
223	0xbe02873d	-0.12746902
224	0xbdc760c8	-0.097352564
225	0xb995a5ee	-0.00028543122
226	0x3d62d662	0.055380233
227	0xbdc481ee	-0.095950946
228	0x3d451ede	0.04812514
229	0x3da21d82	0.079157844
230	0x3d2795aa	0.040914215
231	0x3e04aaf1	0.12955834
232	0xbd9cb47f	-0.076516144
233	0xbdba30dd	-0.09091351
234	0x3d266e43	0.040632498
235	0xbdb13bd8	-0.086539924
236	0xbdaa433e	-0.08313607
237	0xbc5a04ef	-0.01330684
238	0x3d0ea44f	0.034824666
239	0x3d376693	0.044775557
240	0xbd468007	-0.04846194
241	0x3e1ba46e	0.15199444
242	0x3c97ac61	0.018514814
243	0xbe2312cc	-0.15925139
244	0xbe0286ac	-0.12746686
245	0xbc349f1c	-0.011024263
246	0x3da64a1e	0.081196055
247	0x3d069105	0.032853145
248	0x3d10dcad	0.035366703
249	0x3dd9528a	0.10611446
250	0x3d094a20	0.033517957
251	0xbcc20d10	-0.02368787
252	0xbd97bb01	-0.07408715
253	0xbb17f92f	-0.0023189296
254	0xbdc2973d	-0.09501503
255	0x3d17da6d	0.03707354

encoder.lstm.weight_hh_l1 f4 [256, 64]
0	0x3d6aa71b	0.05728827
1	0xbe08357b	-0.13301651
2	0x3e284fbd	0.16436668
3	0xbdbcc546	-0.092173144
4	0xbb759a94	-0.003747617
5	0x3e0aceee	0.135555
6	0x3ceca762	0.028888408
7	0x3d3ad625	0.04561438
8	0xbd9826c9	-0.07429273
9	0xbbda7b09	-0.006667499
10	0x3e3973d8	0.18110597
11	0x3d54ac46	0.051922105
12	0xbd2587ef	-0.04041284
13	0xbd5e6ce5	-0.05430307
14	0xbe3b0f36	-0.18267521
15	0xbe20cea3	-0.15703826
16	0xbe104c9e	-0.14091727
17	0xbd16831a	-0.036746122
18	0xbd3acbd7	-0.045604553
19	0xbd0bfb64	-0.03417529
20	0x3de1fb6d	0.11034284
21	0xbdac6b35	-0.084188856
22	0xbd50421b	-0.050844293
23	0xbe10136f	-0.14069913
24	0xbe257a2b	-0.16159885
25	0xbde04cac	-0.10952124
26	0x3c52562e	0.01283793
27	0x39dd4971	0.00042207123
28	0xbc9cb3a3	-0.019128626
29	0x3e4be6e1	0.19912292
30	0x3e1e91bd	0.15485282
31	0xbda878f1	-0.08226193
32	0xbe058548	-0.13039124
33	0xbd4d8fb5	-0.050185878
34	0x3e0be5ee	0.1366193
35	0x3e4b35c1	0.19844724
36	0xbdacf532	-0.08445205
37	0x3e013fc7	0.12621985
38	0x3c3af760	0.011411518
39	0x3dc4c6da	0.096082404
40	0x3e1600fd	0.14648814
41	0xbcb284ff	-0.021791933
42	0x3caf6114	0.021408595
43	0xbd85ae0d	-0.06527338
44	0x3d493827	0.049125817
45	0xbce30384	-0.027711637
46	0x3dfaf72f	0.12254178
47	0x3d9f00aa	0.077637985
48	0xbcdb68de	-0.026783403
49	0xbdb1f1d3	-0.086887024
50	0x3b668595	0.0035174836
51	0xbd84e1fb	-0.06488415
52	0xbd0b8118	-0.03405866
53	0xbcc6fa70	-0.02428934
54	0x3d6d102d	0.057876755
55	0xbd7ef176	-0.062241994
56	0xbddd46c8	-0.10804516
57	0xbc235d06	-0.009970909
58	0xbcede63b	-0.029040447
59	0xbc04e176	-0.008110395
60	0x3e05ab3d	0.13053603
61	0xbd91a35f	-0.07111239
62	0x3dbe0dfa	0.092800096
63	0xbe09cd66	-0.1345726
64	0xbc66eaec	-0.014094096
65	0xbdfae115	-0.12249962
66	0x3cb1ebfc	0.021718971
67	0x3c68d6a7	0.014211333
68	0xbe06d632	-0.13167647
69	0x3b5294a1	0.0032132047
70	0xbd47d62c	-0.048788235
71	0xbd6c55c6	-0.057698987
72	0x3dc1773d	0.09446571
73	0x3d7b6214	0.06137283
74	0xbda22f4e	-0.07919179
75	0x3b170ef0	0.0023049675
76	0x3dca9c0e	0.09893046
77	0xbcb62348	-0.02223362
78	0x3da9b44c	0.08286342
79	0xbc5c31f7	-0.013439647
80	0xbd840425	-0.06446103
81	0x3d8b6027	0.06805449
82	0xbd984464	-0.074349195
83	0xbbc52848	-0.006016765
84	0xbcf87798	-0.030330464
85	0xbdaac02b	-0.083374344
86	0x3e00f519	0.12593497
87	0xbdf7a705	-0.12092403
88	0xbd89d78a	-0.06730564
89	0xbd94e357	-0.07269924
90	0xbd2ea351	-0.04263622
91	0x398292b4	0.00024904835
92	0xbdb8d1e8	-0.090244114
93	0x3cea7f1d	0.028625065
94	0x3c99023c	0.018677823
95	0xbddcdaeb	-0.10783943
96	0x3a5e0d7b	0.00084706367
97	0x3e2ad2cf	0.1668198
98	0xbb7cd7d5	-0.0038580794
99	0x3c04a78b	0.008096586
100	0xbc956d9b	-0.01824074
101	0x3e0e9e06	0.13927469
102	0x3b69ff0d	0.0035705
103	0x3dbd4098	0.09240836
104	0x3e11b2b0	0.1422832
105	0x3d8cf814	0.06883255
106	0xbb7c1b4f	-0.0038468426
107	0x3d9eddb0	0.07757127
108	0x3e0d9072	0.13824633
109	0x3ddf35c6	0.10898928
110	0xbda8ef96	-0.082488224
111	0x3dc81555	0.09769694
112	0x3e164b6e	0.14677212
113	0xbd3f1b7e	-0.046657078
114	0x3dd6247e	0.10456179
115	0x3df427cf	0.119216554
116	0xbce66e74	-0.02812884
117	0x3dfdd5e1	0.1239431
118	0x3d7d74a8	0.06187883
119	0xbb6939ec	-0.0035587503
120	0x3ca5e92a	0.020252783
121	0x3d107309	0.035265956
122	0xbdaaba57	-0.08336323
123	0xbdf68716	-0.12037484
124	0x3de815a4	0.113322526
125	0xbd5c744c	-0.053821847
126	0xba9f29ea	-0.0012143229
127	0xbd2d3a2d	-0.04229181
128	0xbcbd6093	-0.02311734
129	0x3d329706	0.04360106
130	0xbdd27ca8	-0.102776825
131	0xbdbc26c9	-0.09187085
132	0xbc85ecd6	-0.016348284
133	0xbcaa4523	-0.02078492
134	0xbbd712d5	-0.0065635242
135	0x3dfa81a4	0.12231758
136	0xbce8f641	-0.028437736
137	0x3dc450da	0.09585734
138	0x3cbb83a2	0.022889916
139	0x3dc8ab4c	0.09798297
140	0x3d9af0ca	0.07565458
141	0x3e140fe1	0.14459182
142	0xbdc64fa3	-0.09683158
143	0x3d9b9ac9	0.07597882
144	0xbd96abb5	-0.07356969
145	0x3df4dcf1	0.11956204
146	0xbd985539	-0.0743813
147	0x3dbe947a	0.093056634
148	0xbdee70d8	-0.11642617
149	0xbd7afb54	-0.06127484
150	0xbd12dd7c	-0.035855755
151	0xbdd0d5b1	-0.101970084
152	0xbdb65de3	-0.08904626
153	0xbd850a16	-0.06496064
154	0xbd88b94d	-0.06675968
155	0x3d915c57	0.070976906
156	0x3da854b0	0.08219278
157	0xbbdff3c1	-0.0068344777
158	0xbc877818	-0.016536757
159	0x3d910935	0.07081834
160	0xbc364111	-0.0111239115
161	0x3cd942e1	0.026521148
162	0xbbf71950	-0.0075408593
163	0x3dd5d3a9	0.104407616
164	0x3d9c129f	0.07620739
165	0x3d747a7f	0.059687134
166	0xbd882a18	-0.06648654
167	0x3be7d505	0.0070749545
168	0x3d575c1b	0.052578073
169	0xbd36a51b	-0.04459105
170	0xbdc1976b	-0.09452709
171	0xbd073860	-0.033012748
172	0x3d6c2d61	0.057660464
173	0xbcc991fc	-0.024605744
174	0xbe04f0b7	-0.1298245
175	0x3d0ab42a	0.033863224
176	0x3d88cd1c	0.066797465
177	0xbdc071cb	-0.09396704
178	0xbd4a54d4	-0.049397305
179	0xbc52079d	-0.012819198
180	0x3d2ecf1f	0.042677995
181	0x3e0130c8	0.12616265
182	0x3d88fdf4	0.06689063
183	0xbd5c3b18	-0.053767294
184	0x3d6b291d	0.057412256
185	0x3d3e2b98	0.046428293
186	0xbbdf80d5	-0.006820778
187	0x3d9d2ed1	0.07674945
188	0xbd90ac9e	-0.07064174
189	0x3d3216b6	0.04347869
190	0xbcd46625	-0.025927613
191	0x3cfdd12a	0.030983526
192	0x3b4d1f80	0.0031299293
193	0xbc3d03f5	-0.011536588
194	0xbc428b65	-0.011874055
195	0xbdf60a45	-0.120136775
196	0xbcb74cab	-0.022375425
197	0xbc5df61a	-0.013547445
198	0xbd30e768	-0.043189436
199	0xbc9c2f80	-0.019065619
200	0x3daf7288	0.08566767
201	0xbd955409	-0.07291419
202	0x3cf58676	0.029971343
203	0xbca5f5d2	-0.020258818
204	0x3e430aa3	0.19047026
205	0xbcbc608a	-0.022995252
206	0xbe4f587e	-0.20248601
207	0xbd8a78b6	-0.06761305
208	0x3dd25ebf	0.10271978
209	0x3d987daa	0.074458435
210	0x3d182bdd	0.037151206
211	0xbe1def0a	-0.15423217
212	0xbd2e08cd	-0.04248886
213	0xbd2e03f2	-0.04248423
214	0xbdd7e105	-0.10540966
215	0xbd3548ca	-0.04425887
216	0xbbda662c	-0.006665012
217	0xbddb8a5e	-0.10719751
218	0xbe0e789a	-0.13913193
219	0x3e650328	0.22364485
220	0x3db5ffc3	0.08886673
221	0xbd67de15	-0.05660828
222	0x3e40b0fd	0.18817516
223	0x3dbba29f	0.09161877
224	0xbdea0230	-0.114261985
225	0xbd1a5e5f	-0.037687656
226	0x3d26e14e	0.04074221
227	0x3e2af95a	0.16696683
228	0xbd736c85	-0.059429664
229	0x3dcccd02	0.1000004
230	0x3b99a4b1	0.004688822
231	0xbdbd87b7	-0.09254401
232	0x3dd230bd	0.10263202
233	0x3d6ec702	0.058295257
234	0xbd44f5c8	-0.048085958
235	0xbe1f0a1e	-0.15531203
236	0x3c7dc162	0.015488001
237	0x3d3be3a7	0.045871403
238	0x3ddc0a2b	0.10744127
239	0x3d92cb21	0.0716765
240	0x3e266cab	0.16252391
241	0xbe015fe1	-0.12634231
242	0x3e13c27a	0.14429656
243	0xbe36937e	-0.17829701
244	0xbd8d1783	-0.0688925
245	0x3bc9e28d	0.00616104
246	0x3dee7365	0.116431035
247	0x3c9e75b8	0.019343242
248	0xbda9952f	-0.08280408
249	0xbce398bc	-0.02778279
250	0xbdd3b619	-0.10337467
251	0xbe10b945	-0.14133175
252	0x3ad22d24	0.0016035181
253	0x3dc68bdc	0.09694645
254	0xbd62a040	-0.055328608
255	0xbe4c3605	-0.19942482

encoder.lstm.bias_ih_l1 f4 [256]
0	0x3de98b11	0.11403478
1	0x3d519a15	0.051172335
2	0xbd35141c	-0.04420863
3	0x39b1ed47	0.00033936856
4	0xbd85e8be	-0.06538533
5	0x3c695fcc	0.014244031
6	0x3bdb3c7a	0.006690559
7	0x3d342b93	0.043986868
8	0x3ceb637a	0.028733958
9	0xbd8e5a2d	-0.069507934
10	0xbd996857	-0.07490604
11	0x3da4aedd	0.08041165
12	0xbdd4f986	-0.10399155
13	0xbd93a5c2	-0.0720935
14	0x3d5693ec	0.052387163
15	0xbcb53367	-0.022119237
16	0x3d51d081	0.051224235
17	0xbc5a5320	-0.013325483
18	0x3df0ca3a	0.11757322
19	0x3e570734	0.20998842
20	0x3de648f1	0.11244381
21	0xbdac611a	-0.08416958
22	0xbe09acdb	-0.13444845
23	0x3db08f5f	0.08621096
24	0xbd1134ac	-0.035450622
25	0x3e138b4c	0.14408606
26	0xbca5d1fc	-0.02024173
27	0x3e0b336c	0.13593835
28	0x3cbaa83e	0.022785302
29	0x3dd30f7d	0.103056885
30	0xbdbee6bd	-0.093213536
31	0x3d42e468	0.047581106
32	0xbd6d2b3c	-0.05790256
33	0xbd8bb298	-0.068211734
34	0x3df81065	0.12112502
35	0x3ded6a32	0.11592521
36	0x3e540a41	0.20707037
37	0x3a86f816	0.0010297324
38	0xbd83cb56	-0.064352676
39	0xbd1397c2	-0.0360334
40	0x3de897ff	0.11357116
41	0x3d55acb1	0.052166644
42	0xbdca1025	-0.098663606
43	0x3cfce549	0.03087105
44	0x3c366aa3	0.011133823
45	0xbd957cc9	-0.072991915
46	0x3d9d1fe7	0.076721005
47	0x3e1c65fc	0.15273279
48	0x3ce22754	0.027606644
49	0x3d3d0283	0.046144973
50	0x3cde333f	0.027124045
51	0x3cfe8377	0.031068547
52	0x3d84bb33	0.06481018
53	0xbc336a62	-0.010950657
54	0x3e06c866	0.13162383
55	0xbd7d3612	-0.061819144
56	0x3d36e86c	0.04465525
57	0xbcc12664	-0.023577876
58	0x3d4cac9e	0.049969308
59	0x3ca9bc70	0.020719737
60	0x3d9e201f	0.0772097
61	0xbdcd668b	-0.10029324
62	0xbde7622b	-0.11298021
63	0x3de52d68	0.11190301
64	0x3ce67e35	0.028136352
65	0x3d9f5bc8	0.07781178
66	0xbd9c5e62	-0.076351896
67	0xbc957ae7	-0.018247081
68	0x3c87eaeb	0.01659151
69	0x3d3f05d8	0.046636432
70	0xbe048739	-0.12942208
71	0xbe0a7c76	-0.1352404
72	0xbdf2f895	-0.118638195
73	0xbe00b40b	-0.12568681
74	0xbdb52455	-0.088448204
75	0x3d5e4142	0.054261453
76	0x3ddd1328	0.107946694
77	0x3df7c57f	0.12098216
78	0xbdbbdfd9	-0.09173555
79	0x3daa7d06	0.083246276
80	0x3d8d06e0	0.06886077
81	0x3d37f5e8	0.04491225
82	0x3da5ed6b	0.081019245
83	0xbe396c50	-0.18107724
84	0xbda201b3	-0.0791048
85	0x3c52764d	0.012845588
86	0xbe011fb8	-0.12609756
87	0xbdf9a14f	-0.1218897
88	0x3c319a3d	0.010839996
89	0x3c89e412	0.016832385
90	0xbe03ae12	-0.12859371
91	0x3c693717	0.014234326
92	0xbde76a83	-0.112996124
93	0xbbd94adc	-0.0066312384
94	0x3d22fe65	0.03979339
95	0xbdcd24e1	-0.100168
96	0xbd75242e	-0.059848957
97	0xbdf1e321	-0.118108995
98	0xbe5d7a4d	-0.21628685
99	0xbdffc629	-0.12488968
100	0xbe3c44a4	-0.1838556
101	0xbe0c1aa3	-0.13682036
102	0xbdd7cc12	-0.1053697
103	0x3dc18a8d	0.094502546
104	0xbdf06b03	-0.11739161
105	0xbd73458d	-0.0593925
106	0xbc585192	-0.013203042
107	0xbc7095e9	-0.014684179
108	0x3d66c3b3	0.056338977
109	0xbc7e04b6	-0.015504053
110	0x3d23396e	0.03984969
111	0xbe171808	-0.14755261
112	0x3da6ebee	0.08150469
113	0x3d2efd6e	0.042722158
114	0x3d4847bf	0.048896547
115	0x3b9876bd	0.0046528266
116	0x3d19085b	0.037361484
117	0xbe006926	-0.12540111
118	0x3d1c51fc	0.038164124
119	0x3d9eb952	0.07750191
120	0xbe257f65	-0.16161878
121	0x3d75d039	0.06001303
122	0x3d052d55	0.032513935
123	0xbd87c1a3	-0.0662873
124	0xbdf7b7d4	-0.12095609
125	0xbd2c6944	-0.042092577
126	0x3dc72b50	0.09725058
127	0xbe419b59	-0.18906917
128	0xbdd9b022	-0.10629298
129	0x3d871a75	0.06596843
130	0xbd6e3341	-0.05815435
131	0xbc6edf15	-0.014579554
132	0x3cfe11e7	0.031014396
133	0x3d997902	0.074937835
134	0xbd53b666	-0.05168762
135	0xbb600135	-0.0034180407
136	0xbdaa11d9	-0.083041854
137	0x3dc6da8a	0.09709652
138	0xbd80d563	-0.062907
139	0xbdc924a2	-0.0982144
140	0x3d37e661	0.04489744
141	0x3d8b438a	0.067999914
142	0x3d873785	0.066023864
143	0xbdadcd88	-0.084864676
144	0x3d93453e	0.07190941
145	0xbd96aa6f	-0.073567264
146	0xbddffc84	-0.109368354
147	0x3da3b52d	0.07993541
148	0xbaf3b533	-0.001859343
149	0xbc5e26ee	-0.013559086
150	0xbdd03b44	-0.10167554
151	0xbd902bff	-0.070396416
152	0xbd917d95	-0.07104031
153	0xbd92dfb1	-0.07171572
154	0xbd4d11ab	-0.050065678
155	0x3d0647db	0.03278337
156	0xbd4b8784	-0.049689785
157	0x3dad7ba3	0.084708475
158	0xbd17143c	-0.03688453
159	0xbda0c12c	-0.078493446
160	0x3dc2b7f3	0.09507742
161	0x3dc906a3	0.09815719
162	0x3d5cad2a	0.05387608
163	0xbc2b4103	-0.010452512
164	0xbc594782	-0.013261678
165	0x3d4a693c	0.049416766
166	0xbcf1a703	-0.029498583
167	0x3c44fddf	0.012023418
168	0x3db2adc7	0.08724552
169	0x3cd59402	0.026071552
170	0xbd05b8cb	-0.032646935
171	0xbd38aedc	-0.045088634
172	0x3cca086b	0.024662217
173	0xbbc5b2f7	-0.006033297
174	0xbd8fc577	-0.07020085
175	0xbcc94264	-0.02456779
176	0xbcafa713	-0.021441972
177	0xbd911b7d	-0.07085321
178	0x3db79483	0.08963873
179	0x3d305426	0.043049
180	0x3d18f1ba	0.037339903
181	0x3dc6008f	0.09668075
182	0x3de581ba	0.11206384
183	0x3d2a2078	0.04153487
184	0x3d921171	0.07132233
185	0x3dd71b7c	0.10503289
186	0x3c1073cf	0.008816673
187	0xbd54938a	-0.051898517
188	0x3b961690	0.0045803264
189	0xbdb52f40	-0.08846903
190	0xbd007203	-0.03135873
191	0xbce99998	-0.028515622
192	0xbd9efff6	-0.077636644
193	0x3df9ee68	0.122036755
194	0xbcc952db	-0.024575641
195	0x3d09649b	0.03354321
196	0x3b9969a3	0.0046817823
197	0x3d964b35	0.07338563
198	0x3d0e9bda	0.0348166
199	0x3dba299a	0.09089966
200	0xbc24884e	-0.010042263
201	0xbd921f8b	-0.071349226
202	0x3df7fb6c	0.12108502
203	0xbdc65ecc	-0.0968605
204	0xbc54af06	-0.012981182
205	0x3d2ee3eb	0.04269783
206	0x3e04596c	0.12924737
207	0x3de7abab	0.1131204
208	0x3e09b4b7	0.13447843
209	0x3e30edc5	0.17278202
210	0x3ce2c17b	0.02768015
211	0x3dafa197	0.08575743
212	0x3dd6fec8	0.104978144
213	0x3dbb05d5	0.09131972
214	0xbd9a7c71	-0.075432666
215	0x3d5cb60e	0.05388456
216	0x3e1692ba	0.14704409
217	0x3dcea635	0.10090295
218	0x3da14821	0.078750856
219	0x3e0cbb6b	0.1374337
220	0xbcdd4d7a	-0.027014483
221	0xbdc08936	-0.09401171
222	0xbd219d51	-0.03945667
223	0xbd82b6f1	-0.063825496
224	0x3e17b1c3	0.14813904
225	0x3dab0768	0.08351022
226	0x3daefcc3	0.08544304
227	0x3d4d3722	0.050101407
228	0x3e254eaf	0.16143297
229	0xbb51d080	-0.0032015145
230	0x3dc5427c	0.096318215
231	0xbd2ed145	-0.042680044
232	0xbcdc77dd	-0.026912624
233	0x3d5f5166	0.054520987
234	0xbe053e02	-0.13011935
235	0x3e27cc88	0.16386616
236	0x3e03a202	0.1285477
237	0x3e2105e0	0.15724897
238	0xbd89eb21	-0.067343004
239	0x3d5c8724	0.053839818
240	0x3bf89609	0.007586245
241	0x3dc92ce4	0.09823015
242	0xbd3d786a	-0.046257414
243	0xbd692481	-0.05691958
244	0xbddd293c	-0.107988805
245	0x3d4f3300	0.050585747
246	0x3d2a6f46	0.041610025
247	0x3db6f601	0.0893364
248	0x3d702967	0.058633234
249	0xbd58b8a0	-0.052910447
250	0x3db43fc8	0.08801228
251	0xbde12fc7	-0.10995441
252	0xbd50de9e	-0.050993554
253	0x3e0f1122	0.1397138
254	0x3d3ae078	0.045624226
255	0x3d480151	0.04882938
