models/residual_transfer_btc.pth (torch, 225789 bytes, 17 tensors)

encoder.weight_ih_l0 f4 [256, 1]
000000 45 91 6c bd 21 35 32 bd b1 93 98 bd 42 e6 b3 bd
       -0.057755727 -0.0435077 -0.07450045 -0.087841526
000010 d2 c1 75 bd c8 63 d7 3c 83 1f 11 3e f1 a7 bf bd
       -0.059999295 0.026292697 0.14172177 -0.09358204
000020 d5 8f fc 3c 01 c2 37 be 09 3d e2 bb d5 f7 57 bd
       0.030830303 -0.179451 -0.0069042486 -0.052726585
000030 b5 5c d5 bc 56 8b d1 bc a1 02 f8 bd fc c4 c8 3d
       -0.026045183 -0.025579136 -0.121098764 0.09803197
000040 d2 42 dc bd 7a a2 05 bc ab 32 0c 3e 8e 4d 69 bd
       -0.107549325 -0.008156413 0.13691203 -0.056958728
000050 af 49 2e be 66 3b 84 bd 2d cc 80 bc 8e 00 f1 3d
       -0.17020296 -0.06456642 -0.015722359 0.11767684
000060 6c 0a 94 bc b5 e7 66 bc 3b eb a7 bb 4a f7 0e be
       -0.018071376 -0.014093329 -0.005124477 -0.13961521
000070 1c 07 09 be a0 49 e8 bc 49 9e 7a bd 61 09 9c bd
       -0.13381618 -0.02835542 -0.06118611 -0.076189764
000080 4f 5c ea bc 23 61 6e bd 9e 8e 81 bd f6 26 68 3d
       -0.02860847 -0.058198106 -0.0632603 0.05667778
000090 a4 83 25 bb 72 aa 0c 3d 59 e2 b1 3c 3e 58 73 3d
       -0.0025255466 0.034342237 0.021714376 0.059410326
0000a0 87 40 59 3d 46 f7 74 3d a9 9d a1 bd d0 0e cb 3d
       0.053040054 0.05980613 -0.078913994 0.09914935
0000b0 1a b9 3e 3d 3d 83 df bd 1d 41 2f 3d a0 7d 07 3e
       0.046563245 -0.109137036 0.042786706 0.13231516
0000c0 e4 f4 1a bd 5d 6f 82 bd 28 54 21 bd fa 27 18 be
       -0.037831202 -0.06368897 -0.0393869 -0.14859
0000d0 99 39 71 bb 0c 7f 51 bc 71 4e 2c 3d 85 74 0d be
       -0.0036808013 -0.012786638 0.042066995 -0.1381398
0000e0 1b 23 2a 3d 44 a6 67 be dd 5a f4 3d e3 8c 17 3e
       0.041537385 -0.22622019 0.11931393 0.14799838
0000f0 95 e7 13 be e9 eb 87 3d 50 48 bb 3d b7 9d 09 3d
       -0.1444381 0.06636793 0.09144652 0.033597674
000100 d5 3c 40 3c 55 60 af 3d c4 5f c8 3c f6 65 e8 bd
       0.0117332535 0.08563296 0.024459727 -0.113475725
000110 f3 f2 41 bc be ae 26 be 8f 3a d7 bc b3 9f 75 bd
       -0.011837709 -0.16277596 -0.02627304 -0.059966754
000120 36 54 9f 3b 4f 93 1f be 83 d1 95 bc b6 3d a0 bd
       0.0048623336 -0.15583538 -0.01828838 -0.078242704
000130 a2 fd 2f 3d b2 90 07 3e 57 e6 d4 3b bc a0 05 be
       0.042966492 0.1323879 0.006497185 -0.13049597
000140 e9 a0 93 bd 12 bb b4 bd 3a c2 4b 3b df 90 08 be
       -0.072084256 -0.08824743 0.003109111 -0.13336514
000150 d3 e8 02 be 88 0b 86 bd 7b 81 29 3d 63 7b 4c 3d
       -0.12784128 -0.06545168 0.041383248 0.04992236
000160 45 4b d6 3d 68 2e 12 bd fb 8b a6 bd 21 01 a1 3d
       0.10463575 -0.035688788 -0.08132168 0.078615434
000170 34 dd 36 3d 6f f9 d6 3d 06 93 78 3d 80 9e a6 bc
       0.04464455 0.104967944 0.060687087 -0.02033925
000180 f4 a4 a2 3d 9e a7 ee 3c 73 ef f1 3d 21 d9 8f bd
       0.079416186 0.02913266 0.118132494 -0.07023836
000190 b7 69 01 be b4 2e 68 3d 4c bd da 3c 24 89 95 3d
       -0.12637983 0.056685165 0.026701592 0.07301548
0001a0 1d 19 1e 3d 55 c7 8e 3d 2f ac 9a bd 7f 23 f9 3d
       0.03859817 0.06971613 -0.07552373 0.121649735
0001b0 26 66 b4 3d d0 30 82 bd 17 5f 9a bd 7c ab 86 3d
       0.08808546 -0.063569665 -0.07537668 0.06575677
0001c0 77 68 2e 3d dd 31 de 3d 22 10 08 3e 01 6d 53 3c
       0.042580094 0.108493544 0.13287404 0.0129044065
0001d0 69 1d bd bc 0a f8 b6 3d da 8e bf 3d 0a 90 7c bc
       -0.023085313 0.089340284 0.09353419 -0.015415201
0001e0 01 8b 59 bd f5 eb 2f be 99 ab bb bc 34 07 8e bc
       -0.05311108 -0.17179854 -0.022908973 -0.01733742
0001f0 5f ae 24 3d d3 98 8a 3d 5d df c8 3c ee 46 62 bd
       0.040205356 0.0676743 0.02452057 -0.055243425
000200 6e c8 2f bc f3 74 ec 3a 6a 3a 59 bd e1 9b a5 bd
       -0.0107289385 0.0018040225 -0.053034224 -0.08086372
000210 58 49 09 3c 7d 3b a1 bd 52 d2 b3 bb 5b 79 4c 3d
       0.008379303 -0.078726746 -0.0054877186 0.04992042
000220 d7 b1 44 bc a9 e3 e1 bd 2a 28 05 3c 54 64 c3 3c
       -0.012005291 -0.11029751 0.008127252 0.023851551
000230 00 5f c4 3c ea cf 2a bd 94 78 40 bd 54 e9 f3 3d
       0.02397108 -0.04170219 -0.046989992 0.11909738
000240 33 d9 ed bd 18 93 4b bd f4 fb 02 bd ea 97 a1 bd
       -0.11613693 -0.049700826 -0.031978562 -0.078903034
000250 a8 ea f0 bc c4 3b ba ba ad 80 c4 3c 18 ff fb bd
       -0.029408768 -0.0014208485 0.023987139 -0.12304515
000260 55 ff fc 3c 2c 38 11 bd 8f 92 bb bd 85 f7 a3 bd
       0.03088347 -0.03545396 -0.09158813 -0.08006195
000270 7d 53 8d 3d ff 9f 09 3d f1 e3 1c 3d bc c4 85 3d
       0.0690069 0.03359985 0.03830332 0.06531665
000280 8a 4b d3 bb a6 92 c9 bc a3 5c 11 3c dd 46 b0 3a
       -0.006448214 -0.02460606 0.008872184 0.0013448853
000290 1e da f2 bd 63 7d b2 bc 28 e2 09 3d ba 02 73 bd
       -0.11858009 -0.021788305 0.033662945 -0.059328772
0002a0 93 93 6d bd ad 67 47 bd a6 b7 b6 3c 03 34 ed bd
       -0.058002066 -0.048682857 0.022304367 -0.11582186
0002b0 3d e9 0d bd 8b ff ce bc b9 af 8a 3d cb 95 bb 3d
       -0.03464626 -0.025268337 0.06771798 0.0915943
0002c0 38 b1 b0 3d 31 58 29 3c 7a 82 b4 3d 28 4e 60 bd
       0.08627552 0.010335968 0.08813949 -0.054762036
0002d0 68 5e d5 38 cb 20 bc bb 1e 4f 95 3d aa 78 00 3e
       0.00010174216 -0.005741214 0.07290481 0.1254603
0002e0 07 00 29 bd 7c 07 b9 3d fc d6 b8 bc af 2e 38 bd
       -0.04125979 0.09034631 -0.02256345 -0.044966396
0002f0 56 8c c7 3d e5 27 be bd 89 dd ad 3c 7d 11 bd bc
       0.09743564 -0.09284953 0.0212238 -0.023079628
000300 35 11 0a be 4c 11 05 3e f7 2e 47 3b d7 42 c4 bd
       -0.13483126 0.1299488 0.0030392983 -0.09583061
000310 c2 6a 81 3c cb a6 5f bd 2d a2 9a 3c fc e2 04 bb
       0.015797976 -0.054602426 0.01887616 -0.0020276895
000320 9d 70 dc 3d 60 4b d9 ba bd 79 e9 3c 50 f2 8b bc
       0.10763667 -0.001657825 0.028500432 -0.017083317
000330 01 89 e3 3d 59 c4 35 bd ca fd 53 3d 7d e8 a0 bb
       0.11110116 -0.044376705 0.051755704 -0.0049105273
000340 c2 9c ee bd 69 e5 d1 bd 4e d3 61 ba 1a d3 b3 bd
       -0.11650993 -0.10248835 -0.00086145557 -0.08780499
000350 9b 39 20 be ba c8 a0 3d 68 5c 44 3d 17 d0 04 3e
       -0.15646975 0.078507856 0.047939688 0.12970005
000360 d0 f9 b2 bb bf 43 4f bc 80 6e 4e 3d 27 12 16 be
       -0.005461909 -0.012650429 0.05039835 -0.14655362
000370 be 83 8c bc 9c 17 25 bd 8c 47 fc 3c 79 f4 fd 3d
       -0.017152663 -0.04030572 0.030795835 0.12400145
000380 81 ef 8d 3d 6f d0 52 bd 09 cd ef 3d 36 2e 91 3c
       0.06930447 -0.05146831 0.11709029 0.01772223
000390 d9 a5 9a 3d d4 1e 19 3c 40 aa 92 3d 51 6e 59 bd
       0.07551164 0.009345729 0.07161379 -0.05308372
0003a0 fc e5 88 bd 84 fd 99 3b d9 bf ca 3b 5c 34 cb 3c
       -0.06684491 0.004699411 0.006187421 0.02480524
0003b0 bf c7 4a bd c1 a1 ee 3d f8 ef 78 3c 9b a4 0a 3e
       -0.0495069 0.11651946 0.015193932 0.13539355
0003c0 d0 8c 42 bd 42 bd fd bd ce 58 af 3d af d2 30 bc
       -0.04749757 -0.12389614 0.0856186 -0.010792418
0003d0 c2 22 84 bd cb e0 ba bd 10 04 d7 3d d0 a8 61 be
       -0.06451942 -0.09124907 0.10498822 -0.22037053
0003e0 1b 8d 3b 3c e8 cd 02 be 40 71 c0 bd 29 b4 3b 3d
       0.011447216 -0.1277386 -0.09396601 0.04582611
0003f0 fe 2f f8 bd db d4 59 3d 2d 86 b6 bd 6b 09 43 3c
       -0.12118529 0.05318151 -0.08912311 0.011904101

encoder.weight_hh_l0 f4 [256, 64]
000000 b6 b5 36 3c ba 99 ca bc 1c 36 37 3d a7 41 df 3d
       0.011151722 -0.024731506 0.044729337 0.10901194
000010 34 52 6b 3d a1 5c e7 3d 5c ed e5 bd f3 cb 91 bd
       0.057451442 0.112969644 -0.11226913 -0.07118978
000020 83 0a 57 3d d2 2f d7 bd 22 32 8d 3c ad 5d d8 bc
       0.05250026 -0.10507168 0.01723582 -0.026411856
000030 0e b7 20 3d 88 11 0b 3c ec 99 95 3d 20 19 ca 3c
       0.039237075 0.0084880665 0.07304749 0.024670184
000040 2f a2 b9 bd fb c8 3b 3d ad 23 82 3d e3 ba 07 3d
       -0.09064137 0.045845967 0.06354461 0.033137213
000050 25 36 8b 3a 13 59 05 3d 5a ae 1f 3d e8 cf a4 3c
       0.0010620995 0.03255565 0.038984634 0.020118669
000060 44 8c 1a 3d 6d ba 63 3d f5 04 90 3d 2b 53 a8 bc
       0.037731424 0.05559771 0.070321955 -0.02054747
000070 1b e3 85 bd 4d a7 01 bd d9 6e 67 3d 25 6a 97 bd
       -0.065374576 -0.03165369 0.056502197 -0.07393292
000080 25 db 89 3d f6 c3 9a 3d 83 9f dc 3d 1e 83 ab 3d
       0.067312516 0.07556908 0.10772612 0.08374618
000090 75 30 93 3d a4 fb 44 bd 9d a6 a9 bc 19 cf c4 3d
       0.07186977 -0.048091546 -0.02070933 0.09609813
0000a0 4c b3 57 3d 1e 6e 03 3e a9 87 03 3e 02 c6 7b bc
       0.052661225 0.12834975 0.12844719 -0.015367033
0000b0 d4 70 28 3d 45 80 c5 bd c5 a3 04 be a5 3d a7 3a
       0.041123226 -0.09643606 -0.12953098 0.001275946
0000c0 85 8d 0b bc de b9 3c bb 48 84 cd 3c 3c 9c c6 3d
       -0.008517628 -0.002879731 0.02508749 0.09697768
0000d0 b5 44 34 bd e3 4a 54 bc 1b df d1 bd db f6 62 3d
       -0.044010837 -0.0129573075 -0.10247632 0.0554112
0000e0 68 12 1d bd 9e 36 55 3c b2 eb a9 3d a6 9b de 3c
       -0.03834763 0.01301351 0.082969084 0.027173828
0000f0 76 b5 06 be 39 f1 86 3d 56 0e d2 bd b9 41 b3 3d
       -0.1315516 0.06588978 -0.102566406 0.0875277
000100 52 22 52 bd c9 26 c7 3d 62 4b ba bd 9b 38 31 3d
       -0.05130226 0.097241946 -0.090964094 0.043266874
000110 73 1a 64 bd 9d b4 01 3e 8f 16 f0 3b 7f 6c bf bd
       -0.055689286 0.12666555 0.007326908 -0.09346866
000120 3d 70 d7 3d 73 a2 dc 3d 3e c8 f3 3d 75 b3 20 3d
       0.10519455 0.10773172 0.119034275 0.039233644
000130 73 cb 90 3d c5 4e 6a bd c6 d4 c3 bd f1 89 89 3d
       0.07070055 -0.057204027 -0.09562068 0.06715763
000140 3a b6 f1 3d 44 88 18 bd 43 ec be bd 1b 58 35 bd
       0.11802335 -0.037239328 -0.09322407 -0.044273477
000150 a9 8e 2d 3d c5 43 8c bd 57 fc bf 3c fd 37 30 bd
       0.04237238 -0.068488635 0.023435755 -0.043022145
000160 62 90 da bd a2 f6 f1 3d 90 33 ee 3d a5 88 42 3d
       -0.1067207 0.118146196 0.116309285 0.047493596
000170 44 6b c9 3d 7c da 3d bc 20 37 d4 3d 0a 8c 56 bc
       0.098349124 -0.011587735 0.10362077 -0.013094911
000180 88 63 8b bb 9c ae 2c 3c bc ef 88 bd 5d ba f2 3c
       -0.0042538084 0.010539677 -0.06686351 0.02962988
000190 7e 8e 17 ba dd 7f 78 bc 56 1d c3 bd 0a 8b d5 bd
       -0.0005781426 -0.015167204 -0.0952708 -0.1042691
0001a0 22 66 a5 bd 8c 64 9a bc 38 02 8e bd db a6 d2 3d
       -0.08076121 -0.018846773 -0.06934017 0.102857314
0001b0 f9 c4 e9 bd 36 5b f3 3d 39 1d 27 3b b1 66 4e bc
       -0.11414523 0.118826315 0.0025499596 -0.012597726
0001c0 d0 a5 5d 3d 33 b9 7b bd 7c a4 f8 bd 12 72 6c bd
       0.05411321 -0.061455917 -0.12140748 -0.057725973
0001d0 2b f7 f1 bc 10 24 19 3c 14 fd ba bd 4b d6 40 bd
       -0.029536804 0.009346977 -0.09130302 -0.047079366
0001e0 68 ba 54 3c 7f 91 ad bd 00 65 60 3c 09 71 2d 3d
       0.012983896 -0.08475017 0.013695955 0.042344127
0001f0 9a 5e 09 bc ba c2 94 3d 22 24 e2 bd 47 4f 89 3d
       -0.008384371 0.07263704 -0.11042048 0.06704574
000200 bc c9 d9 bd 23 30 07 3c c9 c8 b0 bd 44 91 79 3d
       -0.10634181 0.008251223 -0.08632047 0.06092955
000210 f2 0f 77 3a 86 08 a2 ba 81 fd cf 3d d9 f3 e8 3d
       0.0009424678 -0.0012362159 0.10155774 0.11374635
000220 aa 62 c2 3d 1d 4d 15 bd a4 87 91 3c 0c 61 c6 bd
       0.09491475 -0.036450494 0.017764874 -0.09686479
000230 88 4e 59 bd 54 4f 1d 3d ae 40 69 3d 70 24 ea bd
       -0.05305341 0.03840573 0.05694645 -0.11432731
000240 a2 f5 c6 bd d0 51 e4 3b 64 c9 08 bd 3f a0 af bd
       -0.097148195 0.0069677606 -0.033395186 -0.085754864
000250 c5 3d b3 bd d2 d3 51 3d d3 0c ce bd 72 3b 06 3e
       -0.08752016 0.0512274 -0.1006104 0.13108614
000260 a4 fe b1 3d 15 b4 97 bc a6 cf 99 bd 25 44 84 3d
       0.08691147 -0.018518487 -0.07510309 0.0645831
000270 77 8b 23 3d a2 f8 af bd 52 87 d3 bc 1b 3e aa 3d
       0.039927926 -0.08592345 -0.025821362 0.08312627
000280 6c a0 c9 3d 87 cb 86 bd d9 c5 25 bc 9f 78 53 3d
       0.09845051 -0.065817885 -0.010117971 0.051628705
000290 3d 4b 91 3d 2a c7 78 3c 9f 7c e9 3d 9b 52 cc 3c
       0.07094429 0.015184203 0.11400723 0.024941733
0002a0 42 b5 de 39 67 1a 7d bc 31 1f e7 bd b8 7d 5f 3d
       0.00042478187 -0.015448189 -0.11285246 0.054563254
0002b0 92 07 ea bd e6 34 cc bd ea e4 f0 3b 2c 6e e7 3c
       -0.11427225 -0.09971027 0.0073515074 0.028250776
0002c0 ad 06 2f bd 00 5c 24 bd f5 8e 37 bd 2b e7 7e 3d
       -0.042730976 -0.0401268 -0.04481407 0.062232178
0002d0 b0 15 33 3d 82 37 58 bd 69 2d c7 bd b9 af 01 be
       0.043721855 -0.05278731 -0.09725458 -0.12664689
0002e0 5b 5f b8 3d d2 4e d0 bd f1 c6 4e 3a 89 37 b9 3d
       0.090025626 -0.10171284 0.0007887921 0.090437956
0002f0 b6 0d 3d 3d 92 1d 36 bc 6b a2 df bd 7e e8 e4 bd
       0.046155654 -0.011115449 -0.10919651 -0.11177157
000300 2f 6b 81 bc 5b 7a ed 3d 38 35 ca bc 0b 69 01 bd
       -0.01579818 0.11595603 -0.02468358 -0.031594317
000310 6e 65 01 bd df 56 1a 3d ce 4f 2f bd 9f df dd 3c
       -0.03159087 0.037680503 -0.042800717 0.02708417
000320 9d a6 9f 3d f8 4c d2 bd 68 8c 01 3e 4e ad 00 3d
       0.07795451 -0.10268587 0.12651217 0.031415276
000330 a4 c1 55 bc 08 8d ab bd d9 96 ab bd c2 e5 ba bd
       -0.013046656 -0.08376509 -0.08378381 -0.09125854
000340 ce 22 14 3d bc d3 2c bd d8 28 38 3d f9 8b 58 bd
       0.036166005 -0.042194113 0.044960827 -0.052867863
000350 42 73 20 bc f0 a0 07 3d a6 b4 c8 bb d0 05 c4 3d
       -0.009793105 0.033112466 -0.0061250506 0.09571421
000360 6a 21 33 3d 9e 8c 01 3e 57 cc bf 3d 99 d6 89 bd
       0.043733038 0.12651297 0.093651466 -0.067303844
000370 95 36 c4 bc 85 de 46 3d ea 7c d8 bd e6 ce cf 3d
       -0.023951808 0.048552055 -0.105707005 0.101468846
000380 a8 39 c6 3b ad 36 ae bb b8 93 f5 bd 75 79 90 3c
       0.0060493536 -0.0053165765 -0.11991066 0.01763604
000390 2f 38 9b 3d 5d a8 e2 3d 42 0c cc 3d a1 00 9f bd
       0.075790755 0.11067269 0.099632755 -0.07763792
0003a0 9f d0 54 3b 61 e0 e5 bd df 88 00 3e b6 f3 d1 3d
       0.003247298 -0.112244375 0.12552212 0.10251562
0003b0 0f 60 c7 bd 15 97 cf bd 25 f6 fc 3c be c3 f1 bd
       -0.097351186 -0.101362385 0.03087909 -0.11804913
0003c0 6a 7d df 3d d0 a5 62 3c a8 cf dd 3d 49 1b 12 3d
       0.10912593 0.013833478 0.10830623 0.035670552
0003d0 cc 56 b5 bd dc a8 ea bd 27 14 26 bd 68 36 86 bd
       -0.08854446 -0.114579886 -0.040546563 -0.06553346
0003e0 73 c8 67 3c 64 47 92 3b 88 52 14 3c aa 01 14 3d
       0.014146912 0.004464077 0.00905288 0.0361344
0003f0 ab a2 85 3d 5a a2 bc bd f5 25 90 bd a2 77 81 3d
       0.06525167 -0.092106536 -0.0703849 0.06321646

encoder.bias_ih_l0 f4 [256]
000000 c0 b9 9a ba df 22 a9 bd 9c 86 84 bd 57 86 ce bd
       -0.0011804625 -0.08258604 -0.06470987 -0.10084217
000010 06 0a de bd ea 4c 96 bd a7 d2 b3 3c 50 55 b3 3c
       -0.108417556 -0.07338889 0.021951033 0.021891266
000020 61 3a 91 3d af 6a d5 bd d7 c2 1e be b9 8a 84 bd
       0.07091213 -0.10420739 -0.15504013 -0.06471772
000030 07 43 b2 3d c4 f9 29 be fb 48 a5 bd a4 b2 d3 bd
       0.08704191 -0.16599184 -0.080705605 -0.10336807
000040 e9 5c 31 3d 0c 2d c3 bd b0 a2 a9 bd 84 4b 20 bc
       0.043301497 -0.095300764 -0.08282983 -0.009783629
000050 a4 ea 11 3d 88 20 53 3d 0c 1b 0e 3d 08 8a 99 3d
       0.03562416 0.051544696 0.034693763 0.074970305
000060 79 43 e9 bd 04 5e d1 bd 10 ef 38 bd 7e 2e af bd
       -0.113898225 -0.1022301 -0.045149863 -0.085537896
000070 f7 9c 5c 3d b1 6f 6e bd 7b 8b a2 bd d3 c2 56 3d
       0.05386063 -0.058211986 -0.0793676 0.052431893
000080 e1 f3 5c 3d 2e 8d 40 3d 74 11 03 3d 6a b2 5e bd
       0.05394352 0.04700964 0.031999066 -0.054369368
000090 70 e2 57 3d 6d e3 14 be 4e 3a 29 bd 15 cf 99 bd
       0.052706182 -0.14539881 -0.04131537 -0.07510201
0000a0 14 cb 7c bd e0 90 a6 3d 21 b7 9c 3d 70 e6 16 3d
       -0.061717108 0.081331015 0.076521166 0.036840856
0000b0 22 1d 07 be 1b a9 ec bc ff 4b de 3d f0 a8 04 be
       -0.13194707 -0.02888923 0.10854339 -0.1295507
0000c0 8d c6 9b 3b 0e 4b a0 3d 98 51 8d 3c 33 bb f7 bb
       0.0047538937 0.078268155 0.017250821 -0.0075601577
0000d0 79 ed 13 bd 32 3b 98 3c 93 4b 83 3d df be 1e bd
       -0.036115143 0.018582914 0.06410899 -0.038756248
0000e0 43 d4 a9 3b 3a b9 95 3d 51 f5 78 bd 23 b2 dc bd
       0.0051827743 0.0731072 -0.060780827 -0.107761644
0000f0 4e 46 e3 bd 3a 4a 0c be 10 69 ac 3c cd de e3 3b
       -0.11097394 -0.1370019 0.021046191 0.00695405
000100 ba 53 b0 3d 4d 03 62 bd ec bd 96 3d 4d d1 ae 3d
       0.086097196 -0.05517893 0.073604435 0.08536015
000110 b1 d9 84 3d 54 45 01 bc 6b 6a f5 bd 86 65 02 bd
       0.06486834 -0.007890064 -0.11983188 -0.0318351
000120 2d 32 a8 bd 3c 33 8a bd 01 14 a5 bd ec 1d 6f bd
       -0.08212695 -0.067480534 -0.08060456 -0.058378145
000130 ef 06 88 bc 52 1c c5 bd 83 ad 1b be 87 15 1f bd
       -0.016604869 -0.09624542 -0.15202908 -0.03883889
000140 7c 0e c5 bd f2 e6 af 3d a3 fa b8 3d 6e 45 2e 3d
       -0.09621903 0.08588971 0.0903218 0.042546682
000150 01 a4 7a 3d 05 70 bc bd 6f 6b 6a bd 8b 18 6b bd
       0.061191563 -0.092010535 -0.057231363 -0.057396453
000160 8f d6 44 3d 60 c2 c9 bd b3 ce da bb b3 ca cf bd
       0.04805618 -0.09851527 -0.0066774725 -0.10146084
000170 f7 bc 29 be 11 2d a0 bd 75 8c 19 be da d6 88 3d
       -0.1657599 -0.07821096 -0.14994986 0.06681605
000180 9b 67 ad bd 0b ae c3 bd 90 13 18 be fd 82 da bd
       -0.08467027 -0.095546804 -0.14851213 -0.10669515
000190 64 80 9b bd ce 94 a6 bd 16 40 ac bd 9a a4 59 bd
       -0.07592848 -0.08133851 -0.08410661 -0.053135492
0001a0 7f 65 6b 3d 23 72 e9 bd 3c 28 11 3d d2 b5 80 bc
       0.05746984 -0.11398723 0.03543876 -0.015711699
0001b0 9f 1a bb bc 87 9c 35 3d 91 ee c9 3c a1 26 ed bd
       -0.022839842 0.04433873 0.02464989 -0.115796335
0001c0 0f 03 04 3c 79 da 96 bb 93 fe fb bd 70 91 36 bb
       0.00805737 -0.0046036807 -0.123044156 -0.0027857684
0001d0 93 99 bf bd e0 a6 3a bd 02 31 be bd 0d f8 5a bd
       -0.09355464 -0.0455693 -0.09286691 -0.053459216
0001e0 8f 01 d1 3c de 5c e4 3d e7 2c ed bd 98 cd 9c bd
       0.025513439 0.111505255 -0.1158083 -0.076564014
0001f0 49 76 87 bc 37 cb d0 3c ea 4a 48 3d 99 a1 12 be
       -0.016535895 0.025487525 0.04889957 -0.14319457
000200 52 e7 42 3b 05 9d a9 3c f9 5b 4e bd cc d3 6c bd
       0.0029739928 0.020704756 -0.05038068 -0.057819173
000210 d6 51 cc bc 60 c6 09 bd 68 fc 9d 3d 6f 0a c7 3d
       -0.024941366 -0.03363645 0.07714158 0.09718787
000220 0d 63 cb 3b ba 59 7a bd 28 8e 8c bd 4f b0 cd bd
       0.006206876 -0.061120726 -0.06863052 -0.10043394
000230 c6 01 2e bd 5b af 30 bb 4d e8 0c bd 15 fc 08 bd
       -0.04248216 -0.0026959989 -0.034401227 -0.03344353
000240 c2 db 90 3d 7a a0 9a bc 82 12 5c 3d d0 88 02 be
       0.070731655 -0.01887535 0.053728588 -0.12747502
000250 6b 0b 19 3d a2 a4 81 3c ea c7 87 bd 1a 31 4c bd
       0.037364405 0.015825573 -0.066299275 -0.049851514
000260 fa 3b b5 bc 88 62 fb bd 88 90 c3 bd 6a a7 7e 3c
       -0.022123326 -0.12274653 -0.095490515 0.015542844
000270 53 2e 3f bd 96 07 89 3c ae 73 95 3c b3 98 a2 3d
       -0.046675038 0.01672725 0.018243637 0.07939281
000280 0f 98 b6 bd b5 04 82 bd 5e 38 10 3d f1 62 a4 3d
       -0.089157216 -0.06348554 0.035210006 0.08026684
000290 d1 37 69 bd 80 91 53 3d b3 4d 09 bc 67 d1 1a bd
       -0.056937996 0.05165243 -0.008380341 -0.037797358
0002a0 b7 09 d0 3b 27 6e 4c bd a9 e3 ae bd 3a 5c 81 3c
       0.0063488143 -0.049909737 -0.085395165 0.015791047
0002b0 18 09 ab bd 34 39 68 3c e1 ab 51 bd 99 ca fa 3d
       -0.08351344 0.014173795 -0.051189307 0.12245674
0002c0 f9 04 8c bd 3e 84 76 bd 52 fe 42 bd f6 ed 06 be
       -0.06836886 -0.06018471 -0.04760582 -0.13176712
0002d0 94 de 8c 3c f7 87 8b bc d8 37 2e 3d 30 c2 3e bb
       0.017195977 -0.017032607 0.042533726 -0.0029107444
0002e0 3e bb 91 bd 2d 1a f7 3c 6b 63 a9 3d 8d e8 14 bd
       -0.07115792 0.030163849 0.082709156 -0.03635459
0002f0 49 7b d5 3d 05 18 a5 bd f4 5f d1 bc 2c 83 96 3d
       0.104239054 -0.08061222 -0.02555845 0.07349238
000300 09 a8 7f 3d 74 b5 10 be df 97 01 be ce bd 3f bd
       0.06241611 -0.14131719 -0.1265559 -0.04681187
000310 c6 2d 8d bd 5d 1a da 3d a7 3c 26 3d f4 77 d5 bd
       -0.06893496 0.1064956 0.040585186 -0.1042327
000320 43 4a 08 be b6 65 5f bd 00 8f 94 bd 70 33 86 bd
       -0.13309579 -0.05454036 -0.072538376 -0.0655278
000330 e2 dd 0a bc e9 57 b3 bc 16 9b 82 3d e6 22 06 be
       -0.008475753 -0.021892505 0.063772365 -0.1309925
000340 cd f6 a1 bd 3b 0b c5 bd a0 cb 13 be 8f a1 c7 3c
       -0.07908402 -0.09621283 -0.14433146 0.02436903
000350 ef 85 1f be 78 e3 a3 3d 09 b1 0a bd 39 4b 20 bd
       -0.15578435 0.080023706 -0.03386024 -0.039134238
000360 52 bd be bc 03 fd 3c bd 67 4b 18 be aa 46 a9 bd
       -0.023283634 -0.04613973 -0.14872514 -0.08265431
000370 75 9f 90 3c 06 cc 84 bd 93 02 68 3d a3 8d 8d bd
       0.01765416 -0.06484227 0.05664308 -0.06911781
000380 82 66 6e 3d af 5b 20 3d 8d 30 0e bd 28 19 a0 3d
       0.058203228 0.039149936 -0.03471427 0.07817298
000390 66 92 42 bc da 0a 15 be 8a e6 de bd 14 52 4d 3d
       -0.011875724 -0.14554921 -0.108838156 0.050127104
0003a0 a7 7e d9 ba 4a 98 07 bc 3d 49 d4 3d 92 22 a2 3d
       -0.0016593531 -0.008276055 0.103655316 0.0791675
0003b0 95 de f5 3a e6 94 b6 3d 43 2b aa 3c 35 cd e6 bc
       0.0018758351 0.08915119 0.020772582 -0.028174022
0003c0 c5 18 17 be 0d a7 e2 bd 65 2e cf bb 6a 6c b0 3d
       -0.14755543 -0.11067019 -0.0063226693 0.08614428
0003d0 b8 79 41 bb d5 61 d1 bd 74 3a 45 bd 5d 1b 9f bb
       -0.0029522013 -0.10223738 -0.04815145 -0.004855557
0003e0 d5 dd 1f bd 38 62 ab bd 24 5a cc 3d 87 13 3a 3d
       -0.039029915 -0.08368343 0.099781305 0.04542878
0003f0 24 60 e2 bd 3b e7 a1 3d 52 7d 34 3d 16 63 1e be
       -0.110534936 0.07905432 0.044064827 -0.15467486

encoder.bias_hh_l0 f4 [256]
000000 c7 73 1c 3d cb e3 41 bc 5c f2 04 be 22 37 f8 3c
       0.03819635 -0.011834095 -0.12983078 0.030299727
000010 a6 a2 9b 3d ad 19 9a bd 00 ed 15 be 8d 1d ca 3c
       0.07599382 -0.075244285 -0.1464119 0.024672294
000020 c2 53 c4 bc d7 17 cd bd 98 55 82 3d 13 f8 1e 3d
       -0.02396572 -0.10014313 0.06363982 0.0388108
000030 34 1f 06 bd ce ff 0a bc 3c 8e dc bd 0e 20 8c bb
       -0.0327446 -0.00848384 -0.107693166 -0.004276282
000040 fc 66 84 3c 01 9b b7 bd 0d 5e b1 3c 68 7a e4 bc
       0.016162388 -0.089651115 0.021651292 -0.0278904
000050 2c db 90 3d eb 93 fe 3b 5b 01 bc 3d 3b 29 0a bd
       0.07073054 0.007769098 0.09179946 -0.033730727
000060 b9 7d e2 bc 29 ff 54 3c 4d 62 9e bd 8d 87 60 3d
       -0.02764784 0.013000288 -0.07733593 0.05481677
000070 37 22 b4 3c d6 ce a5 3b e0 f0 9a 3c 30 6d e6 bd
       0.021988971 0.005060057 0.018913686 -0.112512946
000080 cb 04 f2 bd ac 8a 0d 3d f6 1e f0 bc 2f f6 e1 bd
       -0.118173204 0.034556076 -0.029311638 -0.11033284
000090 4b 7b 23 bd 17 80 7c 3d 95 98 0d bd d5 c7 82 3b
       -0.039912503 0.061645593 -0.03456934 0.003991107
0000a0 80 81 c1 bd fa f0 c2 3d 4c 1d 77 bd b1 27 fb bb
       -0.09448528 0.09518619 -0.060330674 -0.0076646437
0000b0 09 1b 5a bd f9 ef a5 bd 64 50 72 bd 5e 2d be bd
       -0.05324844 -0.08102412 -0.059158698 -0.09285997
0000c0 2e 79 c5 bd aa 07 74 bd 17 53 14 be 3d 7f 04 be
       -0.09642254 -0.05957762 -0.14484821 -0.12939163
0000d0 62 ae 21 bd 97 0a 22 3d 36 f1 0c be bb 7d a1 3d
       -0.039472945 0.03956088 -0.1376389 0.07885309
0000e0 44 bb 96 bd 15 b4 06 3d a1 6f f6 3d 8b fc 73 bc
       -0.07359937 0.032886583 0.1203301 -0.014891754
0000f0 f4 57 0b be 50 fe 19 bb 8d de ff bd 01 d2 26 3d
       -0.1360777 -0.002349753 -0.1249362 0.04072762
000100 11 67 eb bd 89 97 eb bd 3a 29 b7 3c 01 48 db 3b
       -0.11494268 -0.115035124 0.022358526 0.006691933
000110 9c e8 1a be 0f d5 37 bb ad 8d dc bd da 0d 16 be
       -0.15127796 -0.0028050577 -0.1076921 -0.14653721
000120 ee 2c 1c be 2d 83 63 3d e9 93 c5 ba 0e 73 a6 3d
       -0.15251514 0.05554502 -0.0015073988 0.08127414
000130 af 38 be bd 5d 0c 01 bd be a4 28 bd 35 eb be bc
       -0.09288155 -0.03150593 -0.041172735 -0.023305515
000140 b0 61 a9 3c e3 12 d9 3d 4a 83 6e 3d 80 b3 15 bd
       0.020676464 0.105993055 0.058230676 -0.036548138
000150 f8 37 96 bd 55 0f 1f 3d 3f af cc 3c 75 0a da bd
       -0.07334894 0.03883298 0.024985908 -0.10646526
000160 41 c7 8a bd d4 4f 69 bd f6 6c 05 be 9f 91 b1 3d
       -0.06776286 -0.056960896 -0.13029847 0.08670353
000170 23 5d 88 bd ac 3b a7 bd 29 95 4e 3d e9 be 01 be
       -0.066583894 -0.081656784 0.05043522 -0.12670483
000180 c6 23 9b 3d ee cd 58 3d 43 09 b2 3d d2 b3 af bd
       0.075751826 0.052930765 0.08693173 -0.0857922
000190 e5 23 9e 3d 2b eb c0 bd a5 55 be bd e8 cc 58 3d
       0.0772169 -0.09419855 -0.09293679 0.05292979
0001a0 25 90 d4 bd e6 7b d9 bc a5 8e 30 3d 74 fd a5 bd
       -0.10379056 -0.026548337 0.043104786 -0.08104983
0001b0 c3 1c 65 3d 56 7c 0b 3d f0 45 9b bd da b7 b9 3b
       0.055935632 0.034054123 -0.07581699 0.005667669
0001c0 b1 95 d9 bd c6 95 2d 3d 0b e4 6b bc f3 10 24 3d
       -0.106242545 0.042379163 -0.014397631 0.040055227
0001d0 1a 44 18 be 12 83 aa 3d ef 1c a7 bc 76 02 e5 3d
       -0.14869729 0.08325781 -0.020399539 0.1118211
0001e0 fd 90 62 bc 7b aa 30 bd cc 1d fe bc 0c 20 10 be
       -0.013828513 -0.043131333 -0.031020068 -0.14074725
0001f0 f0 13 4f 3d 4b d6 97 bd 37 95 04 be 78 5c 18 3d
       0.050556123 -0.0741392 -0.12947546 0.03719756
000200 c8 fd c5 bd 6b a5 f9 bc 63 36 2f bc d6 46 14 bd
       -0.096675456 -0.030474385 -0.010694119 -0.036200367
000210 dc a3 14 3d 2e 8f 95 bd 5b 36 d9 bd 0a d0 8c bd
       0.03628908 -0.073027 -0.106060706 -0.06875618
000220 b9 a7 27 bc 9a f6 a0 3d 5c 35 91 3d e3 9e f9 3d
       -0.010232859 0.078595355 0.070902556 0.12188508
000230 8f e4 8e bd fe 19 ae bd 3f f6 d2 3c 5a 10 05 3e
       -0.06977188 -0.08501051 0.025752185 0.12994519
000240 d3 d8 0b be af cd 0c bd 43 57 ee bc 0e 47 c9 bc
       -0.1365693 -0.034375843 -0.029094344 -0.024570014
000250 b1 9f 94 bd d5 b4 94 b9 eb 0d 1a 3d b1 33 ed 3c
       -0.07257021 -0.0002836349 0.03761093 0.028955312
000260 fd a6 dc 3c 46 91 99 3d b8 cf d0 3c 8c 46 04 be
       0.026935095 0.07498412 0.025489673 -0.12917536
000270 29 95 39 3c a8 8a 7a 3d b8 9e 19 3d 5a fd 3f 3d
       0.011327066 0.06116739 0.03750488 0.046872474
000280 fb 63 57 bd 13 83 5b 3d 41 b9 11 bd 8c 6f 91 3d
       -0.052585583 0.0535918 -0.035577063 0.07101354
000290 e9 d8 99 bc f5 0d ac bd 72 6e f0 ba 89 09 8e bd
       -0.018780189 -0.084010996 -0.0018343462 -0.069354124
0002a0 e4 ac 19 3d 8e d1 48 bc d2 76 ca bc 70 8c 0d 3d
       0.037518397 -0.012256993 -0.024714861 0.03455776
0002b0 ff e9 0c bd b4 6a 87 bd a3 48 a2 3d 09 e3 a7 b9
       -0.034402844 -0.06612149 0.079240106 -0.00032021877
0002c0 86 25 4f bd 03 04 15 bb 8f 1a 8c 3d 6c 6e 89 3d
       -0.050572895 -0.0022737987 0.06841003 0.067105144
0002d0 ef f2 a9 3c 8c 19 8e 3c 0a f1 d4 bd c5 77 d2 3d
       0.020745723 0.017346166 -0.10397537 0.102767505
0002e0 06 23 89 bd 0e 7c 97 3d f2 d9 6e 3d 76 59 4d 3a
       -0.06696133 0.073967084 0.058313318 0.000783346
0002f0 ac 42 c4 3d 97 d9 a0 3d e2 de 6b ba 8e 96 1a bd
       0.09583029 0.07854002 -0.00089977507 -0.037741236
000300 99 c5 72 3d c7 5c 7c 3c 6a cd 29 3d 3a 39 f7 bd
       0.059270475 0.015402979 0.041455664 -0.12071462
000310 c1 f4 92 3d fc 7b e3 3d cf d3 02 bd ab 4d 13 3b
       0.07175589 0.111076325 -0.031940278 0.0022476714
000320 a8 83 43 3d ba ff a3 3d 53 47 13 be 7d 7a 25 bd
       0.04773298 0.0800776 -0.14382677 -0.040400017
000330 34 86 c8 bd 48 92 f5 bd c8 a4 7e 3d ac b8 c5 bd
       -0.09791222 -0.119907916 0.062168866 -0.09654364
000340 db c1 a1 bc ce 48 c5 bd bf 0f d0 bd f7 04 ef 3b
       -0.019745758 -0.09633027 -0.10159253 0.007294293
000350 72 38 40 bc 6f b8 35 3d d1 5b 9e 3d 0a 93 62 bd
       -0.011732208 0.044365343 0.07732356 -0.05531601
000360 d3 3e 04 be 50 7c 9e bd 2d d7 58 3c 61 c5 f1 bd
       -0.1291459 -0.077385545 0.013234896 -0.11805225
000370 4b 10 24 be a0 98 b6 3d 21 98 46 3d b3 bf ad bc
       -0.1602184 0.0891583 0.048484925 -0.021209573
000380 35 4f b5 3d 09 8f 0e be 45 af 65 3d 95 30 f3 bc
       0.08852998 -0.13921751 0.056075353 -0.029686252
000390 ab c9 75 3c 89 e9 73 3c 60 e9 c1 bd 12 bf 0b be
       0.015001695 0.014887222 -0.09468341 -0.13647106
0003a0 b3 bd 87 3d 51 e0 51 bd c7 2b 5c bd 36 60 82 bd
       0.06627979 -0.051239315 -0.053752687 -0.06366007
0003b0 c3 5e c1 bc 8b f5 2a bd eb 93 ee bd 1b eb 07 be
       -0.023604756 -0.041738074 -0.11649307 -0.1327328
0003c0 38 6c 9b 3d 12 44 24 3d 54 b9 65 3d f3 ae 08 be
       0.075890005 0.04010398 0.056084946 -0.13347988
0003d0 58 f9 f3 bd 9b 6f 04 3d 57 1c 88 bb 82 61 99 bd
       -0.11912793 0.032332998 -0.004153769 -0.07489301
0003e0 e8 f7 7c 3d 4b 63 6a 3d 6e 02 81 ba 58 b3 2d 3c
       0.06175986 0.0572236 -0.0009842643 0.010601841
0003f0 e4 2c 44 3c 8c 59 10 be 95 9c c9 3c 06 55 23 be
       0.011973593 -0.1409666 0.024610797 -0.15950403

encoder.weight_ih_l1 f4 [256, 64]
000000 86 8e 7f bd 39 59 c0 3d 32 a5 90 3d 53 38 88 bc
       -0.06239178 0.09392018 0.070627585 -0.01662842
000010 15 b6 ea bd b1 f0 bb bc 4b d2 e5 3d b1 4c b9 bd
       -0.11460511 -0.022941919 0.11221751 -0.09047831
000020 0d 36 6b bd 65 06 66 bd 9b 14 91 bd ed 0c 29 3d
       -0.057424594 -0.056158442 -0.07084008 0.041272093
000030 8f ee b4 bd cc 5a d7 bd 86 1d ab bd 70 d6 d9 3d
       -0.08834564 -0.10515365 -0.083552405 0.10636604
000040 77 3b 99 bd d8 fa 37 3d 7b a0 eb 3c 7c fa c7 3d
       -0.07482045 0.044916958 0.028763046 0.09764573
000050 98 88 85 3d 44 f6 93 bd 40 e4 5b bd ed 5f 77 3d
       0.06520194 -0.07224706 -0.053684473 0.060394216
000060 68 9a 8e 3d e9 fd 53 3c ba c1 d7 bd 17 63 d3 bd
       0.069630444 0.012938955 -0.10534997 -0.10321634
000070 ad 94 86 bd 87 da 7c 3d e4 95 62 bd 3f d2 e4 bd
       -0.065713264 0.06173184 -0.055318728 -0.11172914
000080 a7 32 98 3d 80 c5 d3 3d 15 1c d2 3d 3b 19 ca bd
       0.07431536 0.103404045 0.102592625 -0.098680936
000090 df cf 7d bc d5 36 49 3a 61 cd 18 3d 51 c3 0d bc
       -0.015491455 0.0007675712 0.03730524 -0.008652524
0000a0 19 04 04 be 93 c4 8b bd 45 70 be bc 52 24 0d be
       -0.12892188 -0.06824603 -0.023246894 -0.13783386
0000b0 60 dc bf ba 7c 40 4c 3c 7b 4e eb 3d f8 77 cb 3d
       -0.001463782 0.012466546 0.11489578 0.099349916
0000c0 9e 57 97 bd 63 00 66 ba 3d 3c d3 3b 09 a2 ff bd
       -0.073897585 -0.00087738613 0.00644639 -0.12482078
0000d0 8f be b9 3d 4c a9 d6 bb f2 98 8c bd 6b 99 be bd
       0.09069549 -0.0065509435 -0.068651095 -0.09306606
0000e0 e0 64 18 bd 64 e9 aa 3d a6 c2 a5 bc 70 d7 b9 bd
       -0.037205577 0.08345297 -0.020234417 -0.090742946
0000f0 fe 02 91 bd 6c 21 9a 3d 66 ff 5c bd 24 ad 24 3d
       -0.07080649 0.07525906 -0.053954504 0.040204182
000100 f5 7c 01 bc db 3e 14 bd da 29 cc bc 4e 19 a8 3a
       -0.007903327 -0.036192756 -0.0249223 0.0012824924
000110 1e a0 98 3d bd 99 76 3d c2 67 85 3d ad 62 20 3d
       0.07452415 0.06020521 0.06513931 0.039156605
000120 7b 1f f0 bd a5 af 8e 3d 09 c0 76 bc 47 96 95 3d
       -0.117247544 0.06967095 -0.015060433 0.07304054
000130 67 ab ca bd d6 1d a6 3d 3b db f3 bb 40 27 52 3d
       -0.09895974 0.081111595 -0.007441906 0.051306963
000140 55 4f 81 3d 97 39 df 3d 21 68 fb bd ba a0 f3 3c
       0.063139595 0.10899656 -0.122757204 0.029739726
000150 5c e9 1c bd 44 c6 0e 3c e6 89 c6 3c 2a bc e5 3d
       -0.038308486 0.008714262 0.024235677 0.1121753
000160 c8 ac 68 bc 13 90 fe 3d c0 c2 a3 3d ec 51 05 3e
       -0.0142013505 0.12429824 0.0799613 0.13019532
000170 a5 12 e0 bd 8b 26 bf 3d 28 32 b6 3c f1 c0 30 bd
       -0.10941056 0.09333523 0.022240713 -0.043152753
000180 9e 56 c3 3d 82 a7 43 3d a6 8d c5 3d c3 a5 fc bd
       0.09538005 0.04776717 0.09646158 -0.12336304
000190 53 30 62 3d 94 7c 7c 3d 32 9a 92 bd be ad 28 bc
       0.055221867 0.061642244 -0.07158317 -0.01029533
0001a0 98 74 53 3d 6e 25 6b bd 6e 4b be 3c f3 da 91 bb
       0.051624864 -0.057408743 0.023229327 -0.0044511496
0001b0 aa b9 a0 bc 85 4e d3 bd f8 18 e7 bd 5e 40 df bd
       -0.019619782 -0.10317711 -0.11284059 -0.10900949
0001c0 b1 b0 2d 3d 37 31 4d bd e3 93 94 3c a8 fb 05 bd
       0.042404834 -0.050095763 0.018136924 -0.0327107
0001d0 bb e3 d1 bd f1 03 b1 bd 15 b4 64 3d 09 06 00 bd
       -0.10248514 -0.0864333 0.055835802 -0.031255756
0001e0 80 48 db 3b 8d 38 c0 bd 5b 75 c7 bd d2 bc a3 3d
       0.0066919923 -0.09385786 -0.09739181 0.07994999
0001f0 d0 95 ae 3d d1 86 f4 3c 2b eb 60 3c d2 c1 49 3d
       0.08524668 0.029849442 0.013727943 0.049257107
000200 a6 5d dc bc 59 7b e0 bb a5 e4 94 bd 42 34 c1 3d
       -0.026900124 -0.0068506417 -0.07270173 0.094337955
000210 7c ce be 3d 07 f6 ce bd 2c 01 a6 bd 06 7e ce 3d
       0.093167275 -0.1010552 -0.08105692 0.10082631
000220 de 8f 99 3d 12 c4 f9 bd 35 d7 6b 3d db 26 ee 3c
       0.074981436 -0.121956006 0.057578284 0.029071262
000230 dd 2e 08 3d bd 67 58 bd 24 82 ab bc 3a f9 f8 bd
       0.033247817 -0.052833308 -0.02093608 -0.12156911
000240 7b ee b0 3d 57 31 ba 3d fa 52 bf 3d 57 86 b7 bd
       0.086392365 0.09091442 0.093419984 -0.0896117
000250 78 a4 8a bd ff 60 c6 3d 2a 3d f2 bc fa 70 0b bd
       -0.06769651 0.09686469 -0.02957018 -0.03404329
000260 09 99 a4 bd 5b 86 8b 3d fe 78 17 3a 41 17 f2 3c
       -0.08037002 0.06812736 0.0005778222 0.029552104
000270 2c 0a ac 3d 16 24 ab 3c c1 bf be bd 38 a5 6d 3a
       0.08400378 0.02089123 -0.09313918 0.0009065452
000280 98 6f 2e bb 0c 43 eb 3c 92 6d c4 bd de e6 97 3c
       -0.0026616808 0.028718494 -0.095912114 0.018542703
000290 f9 1f 42 bd 83 72 b5 3d 00 a4 8c bd 71 9a 9b bc
       -0.047393773 0.08859732 -0.06867218 -0.018994542
0002a0 13 e0 89 bd e1 c6 e4 bd be c8 92 bd 09 09 63 bd
       -0.06732192 -0.11170746 -0.07167195 -0.05542854
0002b0 0b 83 dd 3d a5 00 02 3e e5 44 f3 3d 8e 7a 0a bd
       0.1081601 0.12695558 0.11878375 -0.033808284
0002c0 00 84 0b 3e f8 7f a5 bd 92 fe b0 bd 80 57 50 bd
       0.13624573 -0.08081049 -0.086423054 -0.050864697
0002d0 f1 c6 e4 3d bc f8 98 3d 66 ec fd 3d 90 b7 5a bc
       0.111707576 0.07469317 0.12398605 -0.013349429
0002e0 d1 74 0b 3c ac 65 a5 3d bc 2e b4 bd 98 7b b4 3d
       0.008511738 0.08076033 -0.087979764 0.08812636
0002f0 39 a0 be bd eb be 20 bd 01 c9 a1 bd ae d3 af bd
       -0.09307904 -0.039244574 -0.078996666 -0.085852966
000300 93 30 45 bc b0 02 ac bd ab cc 47 bd a5 3f ab 3c
       -0.012035507 -0.0839895 -0.04877917 0.020904372
000310 65 5c 8b 3d a8 b8 e4 bc 0c 16 96 bd 7c 04 05 bd
       0.06804732 -0.027920082 -0.07328424 -0.03247498
000320 fe 0a 9b bd 5a 70 ad 3d 92 1c 5f 3d a6 eb bd bc
       -0.07570456 0.08468695 0.054470606 -0.023183655
000330 4e b5 53 3d 7f 1d 01 3e da 8a c0 3d 91 ed 88 3d
       0.051686577 0.12608908 0.09401484 0.06685937
000340 22 42 9e bd 72 0b 68 bd 8e 01 cc 3d aa a9 a7 bc
       -0.077274576 -0.05665154 0.09961234 -0.020466644
000350 4c 0f bb bd db 47 5e 3d f7 8e a0 bd b8 4d ba 3d
       -0.09133777 0.054267745 -0.078397684 0.09096855
000360 20 b8 62 3d b2 6b ba bd fd 3e e6 bd 1f 6c f8 bc
       0.055351377 -0.091025725 -0.11242483 -0.030324994
000370 94 28 fc bc d7 41 a4 bd d5 f5 d5 bd 93 c2 e2 3c
       -0.030781068 -0.080203705 -0.10447279 0.02768067
000380 15 f0 a7 bd e6 0c ba 3d 5f 7a 74 3c ad 4a 9d 3d
       -0.08200089 0.090844914 0.014921754 0.07680259
000390 dd 3e 66 3d e2 30 e3 bb 21 ab ef 3c 26 1a bb 3c
       0.056212295 -0.0069333175 0.029256405 0.022839617
0003a0 01 5a 93 3c 3e 51 b4 bd 1a 49 6f 3d 93 cd f5 bd
       0.017987253 -0.08804558 0.058419324 -0.12002101
0003b0 61 a3 7b bd e1 c5 47 3d de 00 01 3d 57 35 a2 b9
       -0.061435107 0.048772696 0.031494968 -0.0003093879
0003c0 5c 75 f0 3d 30 a5 30 bd e9 4f 64 3d 42 d5 9b 3d
       0.117411345 -0.043126285 0.05574027 0.07609035
0003d0 06 00 9f 3c 67 f9 92 bd 61 b9 da bb e6 0b a0 3b
       0.01940919 -0.07176476 -0.006674931 0.004884231
0003e0 ad c1 7d bd e6 d7 65 3c 2b e6 83 3d 84 84 36 bd
       -0.06195228 0.014028525 0.064403854 -0.04455997
0003f0 36 55 ec 3c 20 e1 63 3d c0 bc 8b 3d b2 a9 6f 3d
       0.028849225 0.055634618 0.068231106 0.058511443

encoder.weight_hh_l1 f4 [256, 64]
000000 6d c5 27 bd 7c 92 5f 3d 2e 55 08 3e ac 23 f6 bd
       -0.040959764 0.054583058 0.13313743 -0.120185226
000010 45 0d 25 3d 04 b4 02 3d b7 19 eb 3d 29 a1 d2 3d
       0.040295858 0.031909958 0.11479514 0.10284645
000020 09 d0 97 3d 20 84 d8 bd 63 a3 ec 3c ed 35 0c 3d
       0.074127264 -0.10572076 0.028886503 0.034231115
000030 b1 ce ad 3c 9c 39 a5 3c b8 d6 c6 bd 1f ed a3 bd
       0.021216722 0.020169072 -0.09708923 -0.08004212
000040 8f 3e 21 bd 4c e9 8b 3d 62 14 4e bd 60 52 01 3e
       -0.0393663 0.06831607 -0.050312407 0.1262908
000050 9a d1 24 3d 35 5a 0a be 15 a9 7b 3c a4 51 f2 bd
       0.040238954 -0.13510974 0.0153601365 -0.11831978
000060 f5 24 1f bd a4 4e 97 3d 55 38 9f 3c a6 8a a9 3d
       -0.038853604 0.073880464 0.01943604 0.08278398
000070 29 22 f9 3d 4a 7a 96 bd 59 ee a6 3d 8c bc e5 bd
       0.12164719 -0.073475435 0.0815093 -0.11217603
000080 b3 ea eb ba 0d e1 04 3e f4 95 78 bd d0 da 60 3d
       -0.0017999023 0.12976475 -0.06068988 0.054896176
000090 ab 68 dc bd 71 f2 da 3d df 7c 7a bd 0d 64 80 bd
       -0.10762151 0.10690773 -0.061154243 -0.06269083
0000a0 f3 58 89 3d 54 5d 0b bd ea 55 d5 3d c8 de b1 bc
       0.06706419 -0.03402455 0.104167774 -0.021712676
0000b0 6b 93 5e ba 19 67 86 3d fd 25 3b 3d a5 85 72 bc
       -0.0008490595 0.06562633 0.045690525 -0.014802371
0000c0 57 6c c3 bc e5 7a a5 3d 83 1e 2c bd 0c 95 e1 bd
       -0.023855371 0.08080081 -0.042021286 -0.110147566
0000d0 99 c2 d9 bd 62 99 4b bd 73 a3 9c 3d d3 75 af 3d
       -0.1063282 -0.049706824 0.07648363 0.08567395
0000e0 cf 41 a6 3d 66 3e e4 bd f1 12 29 bc 19 a1 96 bd
       0.08118021 -0.11144714 -0.010319457 -0.07354946
0000f0 8a e6 c3 bd df bb 55 3c 19 9f 0d bd 38 da ae b9
       -0.09565456 0.01304528 -0.034575555 -0.00033350452
000100 61 c4 81 3d 06 08 0f 3e 5f c1 6a bd 13 c4 6f 3a
       0.063362844 0.13967904 -0.05731332 0.0009146344
000110 67 6f de bd d1 51 3f bc 8a a3 f2 3d 96 30 45 bd
       -0.10861092 -0.011677221 0.11847599 -0.04814204
000120 2e 19 62 3d 85 70 58 3d 0a 8f b2 bb cd 4d 23 bd
       0.055199794 0.052841682 -0.0054491805 -0.03986912
000130 b5 07 70 3d 95 94 96 bd 40 9b 95 bd 97 eb aa bc
       0.0586011 -0.073525585 -0.07305002 -0.020864291
000140 58 03 fb bc 6d 77 03 39 2f 6a 42 3d a7 d7 51 bc
       -0.030641243 0.00012537623 0.047464546 -0.012807763
000150 51 07 9a 3c bc 0f d2 bd a2 31 e6 3d 17 59 d3 bc
       0.018802317 -0.10256907 0.112399355 -0.025799317
000160 03 b3 b2 3d e3 04 c5 bc 63 77 cf 3c 37 fb 9c bc
       0.0872555 -0.024050182 0.025325483 -0.019162757
000170 a9 bb a1 bd 61 3d 7a 3d b0 e3 55 3c 60 f7 ad 3d
       -0.078971215 0.06109369 0.013054773 0.08494449
000180 1f 2e 46 3d ff 01 27 3d ad e6 96 bd af 58 34 bd
       0.04838383 0.040773388 -0.07368217 -0.044029888
000190 4b 67 b3 3d e0 a0 86 bb ef 75 9a bd 6f d5 91 3c
       0.08759936 -0.0041085333 -0.07542025 0.017801968
0001a0 1e 54 16 3c c3 77 b6 3d cc cc 94 3c 16 41 12 bc
       0.009175329 0.089095615 0.018164061 -0.0089266505
0001b0 67 13 fd bd e1 52 16 3e a6 ec 81 3d 57 17 bf 3d
       -0.12357216 0.14680053 0.06343965 0.093306236
0001c0 10 ff 4f bd b1 76 6c bd e0 d5 04 3c b5 99 5b 3d
       -0.050780356 -0.05773038 0.008107632 0.053613383
0001d0 e6 d5 a9 bd 67 13 cd 3d 30 cb 77 3d a7 99 f1 bd
       -0.08292751 0.10013466 0.06049651 -0.11796885
0001e0 85 5b 91 bd f2 2f ca bd 65 35 c7 bd c1 84 8c 3c
       -0.07097534 -0.09872426 -0.09726981 0.017153146
0001f0 70 98 99 3d 7e ba 03 bd cf 0e a3 3d 55 d3 4c bd
       0.07499778 -0.032160275 0.07961809 -0.05000623
000200 36 bf e4 3d e7 e9 a6 3d c7 29 d1 3d d0 2e ba bd
       0.11169283 0.08150082 0.102130465 -0.0909096
000210 92 b9 bc 3c b1 2e 56 3c e5 c9 50 bd cd ee cb bd
       0.023037706 0.013072656 -0.05097379 -0.09957657
000220 2d 25 a4 bd 18 d6 2c bd b8 54 7b 3d 97 03 db bd
       -0.08014903 -0.042196363 0.06136009 -0.10694044
000230 c8 c3 ab bc 01 60 10 3d 73 30 95 3c 08 ef a3 3d
       -0.02096738 0.035247806 0.018211579 0.08004576
000240 45 e6 df 3d 38 01 bb bc 03 04 ce 3c 36 3f 95 bd
       0.10932592 -0.02282773 0.025148397 -0.07287447
000250 7e 86 b1 bd 59 4c c2 3b 59 1d c9 3c 0c d2 2a 3d
       -0.086682305 0.0059295115 0.024550127 0.041704223
000260 ac 76 67 3d 9d a0 8e 3d dd 16 cc 3d d0 57 fd bd
       0.05650966 0.06964228 0.09965298 -0.123702645
000270 35 a1 8f 3d 76 75 af bd 3f 3b 14 3d c4 81 9b 3d
       0.0701317 -0.08567326 0.036189314 0.0759311
000280 42 60 ac 3d 1c ed 06 3e 7d 41 af 3d ac 35 1b bd
       0.08416797 0.13176388 0.08557413 -0.037892982
000290 2a b4 ed 3c 40 83 b0 3d e5 4a a2 bb b9 9b e4 bd
       0.029016573 0.08618784 -0.004952776 -0.11162514
0002a0 dd 9a 9d bd c5 47 93 3d 32 87 b5 3d 0f 66 5f bd
       -0.076955535 0.07191423 0.08863677 -0.05454069
0002b0 ea e3 9a 3d cb b0 dd bc c1 32 1b bd 2c 5d a1 3d
       0.075630024 -0.02706184 -0.0378902 0.07879099
0002c0 ea 2a d9 bd e7 c4 89 bd 0f 21 25 bc 36 4e 06 bc
       -0.10603888 -0.06727009 -0.010078683 -0.008197358
0002d0 e2 0a 6a 3d f8 70 68 3d 16 25 a0 3c dd c0 bf bd
       0.057139285 0.05674836 0.019548934 -0.093629576
0002e0 03 10 65 3c ca d5 05 3d 31 d0 bc 3d bd b6 2a bd
       0.013980868 0.03267459 0.09219397 -0.04167818
0002f0 eb 76 02 3e ba b0 b6 bd aa 0d df bd 7c 39 8a 3d
       0.12740676 -0.08920427 -0.10891278 0.067492455
000300 72 23 c2 3d 7c 0d 87 bc a8 73 e9 bc 85 16 8a 3d
       0.09479417 -0.016485922 -0.028497532 0.067425765
000310 32 ed bb 3d a9 49 fc bd 10 d0 41 3d 6f 63 10 bd
       0.09176101 -0.12318737 0.047317564 -0.035251077
000320 d8 b9 e5 bc 79 ee ac bc d3 1e 3d 3d fe 05 25 3b
       -0.028042719 -0.021109806 0.046171974 0.0025180574
000330 f9 e6 5e bd 5e 40 85 bd 9f 05 bf bd b0 51 e4 3d
       -0.05441949 -0.06506418 -0.09327244 0.11148393
000340 df 7a e1 3d 64 f9 36 3c af 75 8f 3d 3e c7 bc 3d
       0.11009764 0.011167858 0.07004868 0.0921769
000350 b5 0c 40 3d 15 c0 04 be fb d8 7b bc 0b 22 0f bd
       0.04688712 -0.12963898 -0.015371556 -0.034944575
000360 65 0e 99 3d 44 7c 12 3e b9 02 bb 3c d6 b6 a1 bc
       0.07473449 0.14305216 0.022828447 -0.019740503
000370 12 2f 49 bd 78 7d 0e 3d 74 ff 95 3c 15 d0 03 3c
       -0.049117155 0.034787625 0.018310286 0.008045216
000380 72 85 fb bd 2b 3b d8 bd 1b 2e ac bd 6e c8 66 3d
       -0.12281312 -0.105581604 -0.084072314 0.05634349
000390 1c 53 8c 3d 8f d7 8d 3d 9d ab 95 3d 82 69 d5 3d
       0.06851789 0.0692588 0.07308123 0.10420515
0003a0 a1 e4 0c bc c1 9b 4d 3d 8d 42 e4 bc 0b 15 a5 bd
       -0.008599431 0.050197367 -0.027863765 -0.08060654
0003b0 48 3d 1c bd 19 96 db 3c 96 be 9b bd 59 d1 d5 bd
       -0.03814438 0.02680497 -0.07604711 -0.104403205
0003c0 be e2 e6 ba 59 2d 63 bd 7a a4 94 bb a2 cf ce 3b
       -0.0017615182 -0.05546317 -0.0045362087 0.006311373
0003d0 7c f4 9b bc b3 26 89 bd 22 8a 2a bc bc d3 33 bd
       -0.019037478 -0.066968344 -0.01040891 -0.043903098
0003e0 9c da de 3d 48 49 86 3c 54 f3 b9 3d 8b 6f 7c 3c
       0.1088154 0.016392365 0.09079614 0.015407453
0003f0 04 49 ab 3d 1f 5e c8 3c d6 f9 96 3b 03 78 2c bd
       0.08363536 0.024458943 0.0046074195 -0.04210664

encoder.bias_ih_l1 f4 [256]
000000 2e a7 2a be 07 0d c5 bd 2d 26 d5 bd d8 9b b7 bd
       -0.16665336 -0.096216254 -0.10407672 -0.08965272
000010 3b e6 74 3c 1e c8 db bd 33 32 ed 3c c1 3b cb bd
       0.014947469 -0.10731529 0.0289546 -0.099235065
000020 c2 bf 92 3d f1 36 82 3d 0a 2a d0 bd 16 0d 16 bd
       0.07165481 0.063581355 -0.10164268 -0.036633573
000030 10 08 2c bd 47 85 08 3d 71 64 32 3d 98 dd 1c 3c
       -0.041999876 0.03333023 0.04355282 0.009574316
000040 21 37 ff 3d 1e 4f fd bd b9 43 d5 bd 6a ff 24 3c
       0.12461687 -0.12368606 -0.10413308 0.010070661
000050 31 ed 3c 3c 21 34 9d bd fd 07 18 be 89 16 e1 3d
       0.01153116 -0.076759584 -0.14846797 0.10990626
000060 00 d4 9e bc c3 10 8d bd 9a 49 dd bd 56 b4 a7 3d
       -0.019388199 -0.06887963 -0.10805054 0.08188693
000070 32 a6 32 be e6 67 c1 3c b7 29 fd 3c b0 94 a1 3d
       -0.17446211 0.023609113 0.03090368 0.07889688
000080 1e 92 a2 bd da f8 06 bd 7a 86 1f be d7 a0 14 be
       -0.07938026 -0.032952167 -0.15578642 -0.1451448
000090 25 60 e7 bd 56 45 17 3d c9 1b a1 bd d7 66 8e 3c
       -0.11297635 0.03693136 -0.07866628 0.017383022
0000a0 64 22 10 3d 81 04 b2 bd 69 68 e8 bd fc 1c 2a bd
       0.035189047 -0.08692265 -0.1134804 -0.041531548
0000b0 69 09 a2 bd 7b 38 f8 3d 5b b3 da bc 00 0d e8 bd
       -0.07911951 0.12120148 -0.026696851 -0.113306046
0000c0 ee 3a a8 bd 1d 87 96 bc 27 13 ab 3a 47 ab 60 bb
       -0.08214365 -0.018374974 0.0013051972 -0.0034281777
0000d0 05 48 ef bd 8a f8 21 be a1 a9 e7 bd 3b 48 11 3d
       -0.116836585 -0.15817466 -0.11311651 0.035469275
0000e0 41 47 21 be ce 78 19 3d 00 cf cd 3d d7 59 fd 3c
       -0.15749837 0.037468724 0.10049248 0.030926628
0000f0 8d db 73 bd 6a 74 82 3d ca e8 16 bc 27 5c 8a bd
       -0.05953555 0.063698605 -0.009210775 -0.06755858
000100 d9 f4 13 bc c6 f4 e9 bc 1d a5 07 3c a3 c5 90 3c
       -0.009030544 -0.0285591 0.008279112 0.017672366
000110 92 d5 0b 3b 74 f8 96 bd 3c 9b 9a 3b 8a 1f 9a 3d
       0.0021337015 -0.073716074 0.0047182124 0.07525547
000120 23 67 6d 3c 84 fb 14 3d 89 04 0d 3c 7e 18 ed bd
       0.014489922 0.036372676 0.008607038 -0.11576937
000130 4d 35 0f bd e7 11 ed bd 98 b3 a3 3d 61 4c d0 bd
       -0.03496294 -0.1157568 0.07993239 -0.10170818
000140 0e 84 0c 3e 65 5a b4 3d 28 e7 5a 3d 6d f9 d6 bd
       0.1372225 0.08806304 0.053443104 -0.10496793
000150 24 a6 9d 3c 80 08 bf bd 27 31 2f be 71 aa d6 3d
       0.019244261 -0.09327793 -0.17108594 0.10481728
000160 1d aa 9b bd 40 94 7b 3d 57 de 39 3d a1 fe ca bc
       -0.07600806 0.06142068 0.045378055 -0.02477962
000170 0c da e1 bd b8 d0 81 bd 1c 91 cd bd 87 ed 24 bc
       -0.11027917 -0.06338638 -0.10037443 -0.010066397
000180 05 ad cc 3a 61 ce 73 bd 82 ab e7 3b 4e 2b 18 be
       0.0015615529 -0.05952299 0.007070006 -0.1486027
000190 8d 3d d5 39 34 8b 5d bd 01 7d 89 3c a6 4e 29 be
       0.00040672385 -0.054087833 0.01678324 -0.16533908
0001a0 b7 b1 07 be 42 b8 16 be 89 9d 59 bd 6c fc b1 3d
       -0.13251387 -0.14718726 -0.053128753 0.08690724
0001b0 4f e6 87 bd 6f 6d 29 bd 13 7e d5 bd 28 9f d9 bd
       -0.06635725 -0.04136413 -0.104244374 -0.1062606
0001c0 8e 37 ee bb 4a f5 6e bd 96 20 d9 bd be 2a 02 be
       -0.007269806 -0.058339395 -0.106019184 -0.12711617
0001d0 b3 c2 c4 3d 25 5a d9 bc 24 88 4d bd 62 c5 0b be
       0.096074484 -0.026532242 -0.050178662 -0.13649514
0001e0 7e c3 4f 3d fa 51 ac bd 2b d8 29 3d ff bf 21 be
       0.050723545 -0.08414073 0.04146592 -0.15795897
0001f0 33 19 01 be 19 87 cc bd d2 84 33 3d 4b 05 c6 bc
       -0.12607269 -0.09986705 0.04382784 -0.024172446
000200 ad e4 a0 3c 99 7f 9c bd 72 0a 81 bd 5f 0d 07 3e
       0.019640291 -0.07641525 -0.063008204 0.13188694
000210 fa 17 92 bd 07 13 b3 3d 53 28 3b bd db 99 50 3d
       -0.071334794 0.087438636 -0.045692753 0.050927978
000220 9a 0b 98 bd 22 76 e8 3c 5d df 97 3d 0a fa fb 3d
       -0.07424088 0.028376643 0.0741565 0.123035505
000230 93 07 2d bd 4a 36 ee 3c 94 6d 91 3d 8c 51 be 3d
       -0.04224355 0.029078621 0.071009785 0.092928976
000240 d2 5d 09 be d7 74 41 bd 06 5b dc 3d 87 5e e2 bd
       -0.13414696 -0.047230568 0.10759549 -0.11053186
000250 63 13 63 3d 22 27 50 3d 8a ff aa bd 4c 30 ea 3d
       0.05543841 0.05081857 -0.083495215 0.11434993
000260 94 05 0f 3d 28 5d 89 3d 66 2a 9e 3d 71 0a 6e bd
       0.03491743 0.06707221 0.077229306 -0.058115426
000270 48 d5 be bd a0 10 91 3d f8 ed 13 3c ff d7 ea 3c
       -0.09318024 0.07083249 0.009028904 0.028667448
000280 9c 8e 16 3e db a1 c1 3d 6e e8 85 bd 4c 2c 89 bc
       0.14702839 0.094546996 -0.06538473 -0.016744755
000290 a1 cd c3 3d 9e 3d 46 bc 93 49 c7 3d db 3e bb 3b
       0.09560705 -0.012099652 0.0973083 0.00571428
0002a0 0b 87 d7 3d 34 7c 95 3c 3e 5b b7 bd 6d 39 be 3d
       0.10523804 0.018247701 -0.0895295 0.09288297
0002b0 93 59 e6 bd e3 f0 36 bd 11 3f 0a 3c 31 a6 97 bd
       -0.11247554 -0.04466332 0.008437888 -0.07404745
0002c0 22 6c e7 3d e6 e0 6a bd f9 12 54 bd a5 d2 52 bd
       0.112999216 -0.057343386 -0.051775906 -0.051470418
0002d0 ed 5c 17 bd 13 ec e5 3b 7a 98 8c 3c 92 61 c4 3d
       -0.036953855 0.0070166676 0.01716255 0.095889226
0002e0 77 66 f5 ba bd 90 2c bc c7 3e 20 ba fe e1 63 3d
       -0.0018722554 -0.010532555 -0.000611287 0.055635445
0002f0 8a d6 e0 bd d5 62 c1 3d 10 9a 80 3d cf f0 eb bd
       -0.1097842 0.09442679 0.06279385 -0.1152054
000300 9c 85 fe bd 78 83 62 3c 3b 51 74 3d 92 b9 d1 bd
       -0.12427828 0.01382529 0.05964778 -0.10240473
000310 53 ab 09 3c ab cc b5 3c 0c e3 1d be 25 95 10 be
       0.008402663 0.02219232 -0.15418643 -0.14119394
000320 d0 44 b1 bd 2d 6c 2a 3b 76 22 3d 3d 94 29 03 bc
       -0.08655703 0.002600442 0.046175443 -0.0080055185
000330 dc 5b 86 bc 39 5c 8b 3d f7 09 fd 3a f3 cc a8 bd
       -0.016401224 0.068046995 0.0019305338 -0.08242216
000340 01 93 64 bd b3 e2 d0 bd 2b 65 f4 3c 1a 1a a4 bc
       -0.055804256 -0.101994894 0.029833397 -0.020031977
000350 8c f1 7b 3d 8b 65 b9 bd 1b 69 2c be 73 1d 57 3d
       0.061509654 -0.09052571 -0.1683697 0.05251832
000360 9f e4 05 be db 58 a1 bd 0f de dc bd 4f 76 3b bd
       -0.13075493 -0.07878276 -0.10784542 -0.045767125
000370 b6 98 57 bd c8 ac dd bb 74 73 db bd 6c 0b a9 3c
       -0.05263587 -0.006764982 -0.1071538 0.02063533
000380 90 29 67 bd ad 6c cb bc 90 9d 6f bd 7e f0 23 bd
       -0.05643612 -0.024832094 -0.058499873 -0.040024273
000390 75 25 0d be 9a 6c b2 bc 8a 85 e3 3d 46 37 53 39
       -0.1378382 -0.0217803 0.11109455 0.00020143119
0003a0 1d 08 e3 3c d8 d3 cb bd 91 98 90 3b 37 6c 1a be
       0.02771383 -0.09952515 0.0044127186 -0.15080343
0003b0 7a b8 82 bd 10 b4 ef bd 17 62 98 3d db 4a fa bd
       -0.06382842 -0.11704266 0.07440584 -0.12221309
0003c0 21 95 4d bd fc 10 12 3c 28 33 d8 bd c6 83 8e bd
       -0.05019105 0.008915182 -0.10556632 -0.069587275
0003d0 9c e9 05 be 82 49 12 be 44 74 37 3d c2 61 f6 3b
       -0.13077396 -0.14285854 0.044788614 0.007518978
0003e0 c3 b3 28 bd dc e4 c8 3d 04 d0 d1 bd b7 21 2e be
       -0.04118706 0.098092765 -0.10244754 -0.17005049
0003f0 cd 1d 96 3d 2c 81 14 be 2a c9 b8 bc fb c6 0a be
       0.07329903 -0.145024 -0.02255686 -0.13552468
