models/residual_pretrained_spx.pth (torch, 225901 bytes, 17 tensors)

encoder.weight_ih_l0 f4 [256, 1]
-0.058345873 -0.044313874 -0.07394732 -0.08609624 -0.060419314 0.027520722 0.14326805 -0.09197723
0.0308217 -0.1786372 -0.008071927 -0.051762577 -0.025916273 -0.026093967 -0.12135502 0.098098785
-0.106543496 -0.0067869425 0.1352539 -0.055381957 -0.16888784 -0.06566646 -0.015604065 0.1177546
-0.017687663 -0.012898771 -0.0035003969 -0.1381166 -0.1327784 -0.02750799 -0.06318461 -0.077012114
-0.030234741 -0.05869965 -0.06266312 0.05415073 -0.0012971214 0.033710856 0.022875745 0.058398157
0.052523986 0.06084908 -0.079917185 0.098852694 0.04714307 -0.109468766 0.044397544 0.132297
-0.03492619 -0.061304316 -0.040591225 -0.14763094 -0.0024761015 -0.01291105 0.041126125 -0.13586041
0.040506218 -0.22470617 0.11897566 0.14932849 -0.14285709 0.06578651 0.09045475 0.034157783
0.011108025 0.084864065 0.025084767 -0.11165679 -0.012327355 -0.16156103 -0.024750778 -0.05812203
0.0049385764 -0.15490136 -0.019507678 -0.07691352 0.043053668 0.13158496 0.0062639103 -0.13033722
-0.07098935 -0.08689317 0.001494117 -0.13177483 -0.12626493 -0.06656069 0.04143544 0.050019633
0.10497651 -0.034562204 -0.079726726 0.0799271 0.046013467 0.10582709 0.05879869 -0.021311589
0.0778698 0.028900785 0.11876291 -0.0727548 -0.12506716 0.05606404 0.02778003 0.07222311
0.03797389 0.070835836 -0.07669196 0.121422976 0.08851727 -0.06377865 -0.07383245 0.065923415
0.0453077 0.11059843 0.13192025 0.0138552645 -0.021914383 0.08919404 0.09284495 -0.01306697
-0.054195162 -0.17014763 -0.023203673 -0.016106913 0.041561097 0.06693438 0.023630697 -0.054623153
-0.00999034 0.0035038 -0.053070266 -0.080126755 0.007831678 -0.078144 -0.006239549 0.048305046
-0.012663435 -0.11008727 0.006846218 0.02308527 0.024532296 -0.041359898 -0.048348356 0.11896053
-0.115734614 -0.04769689 -0.03320136 -0.07730358 -0.029126242 -0.0031828303 0.02347822 -0.122262575
0.030478224 -0.03435987 -0.090746686 -0.078639 0.068315536 0.03299176 0.03637802 0.067436114
-0.004635281 -0.02579168 0.008622331 -0.0011239406 -0.1180912 -0.021928106 0.032916583 -0.05808175
-0.057205103 -0.049122486 0.023554895 -0.11533866 -0.0336924 -0.024933966 0.06686944 0.09297895
0.084353134 0.007111073 0.09036046 -0.05497931 0.001842542 -0.0058503533 0.073367916 0.12366596
-0.040297315 0.08956337 -0.022579085 -0.04379884 0.095759735 -0.092690706 0.02221423 -0.02322673
-0.1354763 0.12924848 0.0035754119 -0.09389258 0.015395086 -0.053250175 0.020490235 -0.00041355958
0.10761852 -0.0006000148 0.027337784 -0.016061928 0.111167595 -0.044969335 0.051484454 -0.0048002866
-0.115450285 -0.10087066 -0.002484103 -0.08603688 -0.1550746 0.077284895 0.04818099 0.1297287
-0.005043187 -0.011270789 0.052080948 -0.14500584 -0.016040925 -0.039450932 0.028809987 0.12334077
0.06745426 -0.051970847 0.11770871 0.015191109 0.07671658 0.0086546345 0.07284833 -0.053977218
-0.06741161 0.005850211 0.005094605 0.02439929 -0.04890263 0.11619416 0.016952068 0.13531291
-0.04456518 -0.12149362 0.08435692 -0.009744359 -0.063233174 -0.091326766 0.103908 -0.21791603
0.0103127565 -0.12586054 -0.09409239 0.047192037 -0.11948827 0.05257751 -0.0898468 0.012498296
00000000: 15fc 6ebd 7782 35bd b171 97bd 3a53 b0bd
00000010: 3e7a 77bd 2373 e13c dcb4 123e 8f5e bcbd
00000020: ca7d fc3c acec 36be 1e40 04bc ff04 54bd
00000030: 5d4e d4bc 04c3 d5bc fb88 f8bd 04e8 c83d
00000040: 7a33 dabd 0065 debb 0080 0a3e 31d8 62bd
00000050: eff0 2cbe 237c 86bd 31a8 7fbc 5329 f13d
00000060: b8e5 90bc 5e55 53bc ea66 65bb 706e 0dbe
00000070: 10f7 07be 7058 e1bc ef66 81bd 87b8 9dbd
00000080: d9ae f7bc 0b6f 70bd 8655 80bd 28cd 5d3d
00000090: 2c04 aaba 6514 0a3d ea65 bb3c e832 6f3d
000000a0: 6423 573d e33c 793d 9fab a3bd 4873 ca3d
000000b0: 1719 413d 2931 e0bd 33da 353d dd78 073e
000000c0: c40e 0fbd 3c1a 7bbd fc42 26bd 912c 17be
000000d0: 1746 22bb de88 53bc de73 283d fe1e 0bbe
000000e0: d9e9 253d 6019 66be 83a9 f33d 91e9 183e
000000f0: 2149 12be 14bb 863d 5740 b93d 08e9 0b3d
00000100: 6ffe 353c 36cd ad3d 927e cd3c 51ac e4bd
00000110: adf8 49bc 4170 25be 25c2 cabc 5e11 6ebd
00000120: c8d3 a13b 769e 1ebe 91ce 9fbc d684 9dbd
00000130: 0b59 303d 35be 063e 7d41 cd3b 1f77 05be
00000140: dd62 91bd 0cf5 b1bd 3fd6 c33a fbef 06be
00000150: 984b 01be f950 88bd 35b8 293d 63e1 4c3d
00000160: edfd d63d 1991 0dbd c447 a3bd d2b0 a33d
00000170: 9e78 3c3d e0bb d83d e5d6 703d a495 aebc
00000180: 347a 9f3d 57c1 ec3c f839 f33d 7800 95bd
00000190: 9b11 00be 68a3 653d f292 e33c b6e9 933d
000001a0: 828a 1b3d 6112 913d ad10 9dbd 9cac f83d
000001b0: 8b48 b53d 619e 82bd 7835 97bd db02 873d
000001c0: 9194 393d 6e81 e23d 1a16 073e 3101 633c
000001d0: cb85 b3bc 5dab b63d 7e25 be3d d816 56bc
000001e0: bffb 5dbd 2e3b 2ebe a115 bebc a5f2 83bc
000001f0: f83b 2a3d e414 893d 2a95 c13c 87bc 5fbd
00000200: 86ae 23bc 02a0 653b 3560 59bd 7f19 a4bd
00000210: 7050 003c f609 a0bd 2175 ccbb 83db 453d
00000220: 4c7a 4fbc 6f75 e1bd 3d56 e03b 521d bd3c
00000230: f4f7 c83c ff68 29bd ed08 46bd 94a1 f33d
00000240: 4506 edbd d05d 43bd 26fe 07bd 5751 9ebd
00000250: 289a eebc 0897 50bb 6555 c03c cd64 fabd
00000260: 78ad f93c efbc 0cbd 66d9 b9bd 7c0d a1bd
00000270: 04e9 8b3d 5e22 073d 1e01 153d f21b 8a3d
00000280: 8ee3 97bb 1349 d3bc ad44 0d3c 3051 93ba
00000290: cdd9 f1bd 92a2 b3bc 8ad3 063d 21e7 6dbd
000002a0: e64f 6abd a934 49bd 32f6 c03c ad36 ecbd
000002b0: 0b01 0abd 5142 ccbc d8f2 883d bf6b be3d
000002c0: 56c1 ac3d 0104 e93b e80e b93d fc31 61bd
000002d0: 7381 f13a 52b4 bfbb eb41 963d 9444 fd3d
000002e0: cc0e 25bd 006d b73d c6f7 b8bc 6a66 33bd
000002f0: ae1d c43d a0d4 bdbd 9efa b53c fc45 bebc
00000300: 4dba 0abe b759 043e 7551 6a3b c14a c0bd
00000310: ac3b 7c3c db1c 5abd 23db a73c 07d3 d8b9
00000320: 1967 dc3d 504a 1dba 7df3 df3c 4e94 83bc
00000330: d6ab e33d c431 38bd 5de1 523d b94b 9dbb
00000340: 3371 ecbd 4795 cebd 55cc 22bb 1b34 b0bd
00000350: e0cb 1ebe 8b47 9e3d 6e59 453d 9ad7 043e
00000360: 5241 a5bb 1ea9 38bc d552 553d 697c 14be
00000370: 4268 83bc 4d97 21bd ec02 ec3c 169a fc3d
00000380: 7625 8a3d 62df 54bd 4411 f13d 21e4 783c
00000390: 951d 9d3d 2bcc 0d3c 8131 953d 3717 5dbd
000003a0: 190f 8abd 20b3 bf3b a5f0 a63b 05e1 c73c
000003b0: 204e 48bd 34f7 ed3d 10df 8a3c 788f 0a3e
000003c0: fa89 36bd a6d1 f8bd 52c3 ac3d cea6 1fbc
000003d0: 6580 81bd 8709 bbbd b8cd d43d 6125 5fbe
000003e0: d6f6 283c 96e1 00be 83b3 c0bd 704c 413d
000003f0: 44b6 f4bd 845b 573d 9901 b8bd a7c5 4c3c

encoder.weight_hh_l0 f4 [256, 64]
0.010927227 -0.024883617 0.044889137 0.10923131 0.05765101 0.113188185 -0.11225412 -0.071356304
0.052482527 -0.104656495 0.017256126 -0.026462372 0.039293803 0.008525003 0.07328875 0.024414651
-0.090304986 0.046269663 0.063671105 0.033583965 0.0013395061 0.03255403 0.038807854 0.020365702
0.037564293 0.055833813 0.07058035 -0.020355813 -0.06561104 -0.031785585 0.05666907 -0.07402604
0.067186296 0.07566375 0.107562415 0.08388052 0.072217785 -0.047949545 -0.020836277 0.096072935
0.052925125 0.12851161 0.12826681 -0.015058841 0.04116594 -0.09660323 -0.12976916 0.0010705552
-0.008840838 -0.0030276834 0.024878344 0.09726486 -0.043837268 -0.012919779 -0.10266201 0.05498872
-0.038386457 0.012523777 0.08319276 0.027367543 -0.13188325 0.06607881 -0.10254648 0.08763086
-0.05161744 0.09710284 -0.09085804 0.04332247 -0.055529714 0.1267373 0.0072492715 -0.09349181
0.10517314 0.10814869 0.11908763 0.039201975 0.07053038 -0.05718456 -0.09545998 0.0669534
0.11832388 -0.03701109 -0.093035065 -0.044180162 0.042474985 -0.06842741 0.023286415 -0.04270127
-0.10689688 0.118264124 0.11651581 0.047502294 0.09807268 -0.011583237 0.103749774 -0.013119368
-0.004514599 0.010597672 -0.066915594 0.029893968 -0.00032403864 -0.015138996 -0.095407374 -0.1043297
-0.08049878 -0.018795095 -0.06973066 0.103256345 -0.11427925 0.11868058 0.0024072416 -0.012697703
0.053665422 -0.061548732 -0.12163596 -0.057594277 -0.029388385 0.009446137 -0.09161414 -0.047351234
0.012818369 -0.08501581 0.014121073 0.04245849 -0.008429106 0.07287473 -0.11045345 0.06717084
-0.106149085 0.0084265275 -0.08648295 0.06071627 0.00071991637 -0.00146599 0.1015274 0.11389396
0.094935566 -0.036909677 0.017723015 -0.09684982 -0.053156346 0.03835504 0.056685615 -0.11401158
-0.09754474 0.006477129 -0.03356038 -0.086229384 -0.0878344 0.05119579 -0.10042328 0.13075167
0.08710016 -0.018774748 -0.07540653 0.06440509 0.040194843 -0.08579516 -0.025965812 0.083258726
0.09853275 -0.06593556 -0.009959026 0.05153245 0.07050704 0.015038232 0.11416087 0.024940679
0.00012703416 -0.015634952 -0.11273499 0.054184586 -0.11435472 -0.09954871 0.0076307794 0.028512765
-0.04243127 -0.04001193 -0.044507165 0.061911933 0.043563437 -0.052827604 -0.097014114 -0.1261755
0.09001955 -0.10113691 0.00065448455 0.09021758 0.046487197 -0.011337849 -0.10921222 -0.11188212
-0.015243157 0.11645965 -0.025193973 -0.03227794 -0.032188177 0.036994617 -0.042906966 0.027655061
0.07799184 -0.10431623 0.12649234 0.03156531 -0.0132769365 -0.083872564 -0.08459207 -0.09028942
0.03478543 -0.043723043 0.044546932 -0.054246206 -0.010781378 0.03308318 -0.0055474318 0.09494227
0.044296876 0.12575541 0.09267636 -0.06789105 -0.023043808 0.048886195 -0.106187575 0.101836085
0.0063067246 -0.005703269 -0.119491674 0.01726603 0.07448142 0.11025595 0.100020215 -0.07757819
0.0023238023 -0.11267141 0.12592 0.10152734 -0.097569376 -0.10088446 0.031694777 -0.11754343
0.11012278 0.014305443 0.109066546 0.034719363 -0.08905936 -0.114708245 -0.039986543 -0.063941814
0.014169002 0.0063687325 0.008540828 0.035654712 0.066181056 -0.0928365 -0.07039404 0.062853925
00000000: 1d08 333c bad8 cbbc acdd 373d aab4 df3d
00000010: 7723 6c3d 35cf e73d 7de5 e5bd 4123 92bd
00000020: ebf7 563d 2556 d6bd b85c 8d3c 9ec7 d8bc
00000030: 8af2 203d 74ac 0b3c 6a18 963d 3c01 c83c
00000040: d2f1 b8bd 4285 3d3d ff65 823d 578f 093d
00000050: 5e92 af3a 6057 053d fcf4 1e3d f9d5 a63c
00000060: 04dd 193d ffb1 643d 6e8c 903d 3cc1 a6bc
00000070: 155f 86bd 9a31 02bd d41d 683d f79a 97bd
00000080: f898 893d 99f5 9a3d af49 dc3d 8dc9 ab3d
00000090: ebe6 933d be66 44bd d7b0 aabc e3c1 c43d
000000a0: 04c8 583d 8c98 033e 6058 033e 5bb9 76bc
000000b0: 9e9d 283d ead7 c5bd 35e2 04be df51 8c3a
000000c0: 2ad9 10bc 196c 46bb abcd cb3c cd32 c73d
000000d0: b58e 33bd 7bad 53bc 7640 d2bd da3b 613d
000000e0: 1e3b 1dbd 8730 4d3c f760 aa3d e631 e03c
000000f0: 670c 07be 5454 873d e403 d2bd cf77 b33d
00000100: cf6c 53bd dbdd c63d c813 babd e772 313d
00000110: 2073 63bd 6cc7 013e 4c8b ed3b a278 bfbd
00000120: 0465 d73d 0f7d dd3d 37e4 f33d 4092 203d
00000130: 3b72 903d 5b3a 6abd 8680 c3bd dd1e 893d
00000140: ca53 f23d f198 17bd 2b89 bebd 42f6 34bd
00000150: 40fa 2d3d ac23 8cbd 27c3 be3c 87e7 2ebd
00000160: c0ec dabd 7634 f23d d79f ee3d c491 423d
00000170: 54da c83d 9ec7 3dbc c37a d43d 9ef2 56bc
00000180: 34ef 93bb dca1 2d3c 0b0b 89bd 32e4 f43c
00000190: bbe3 a9b9 8d09 78bc f164 c3bd cfaa d5bd
000001a0: 8bdc a4bd 2cf8 99bc f3ce 8ebd 1078 d33d
000001b0: 3d0b eabd ce0e f33d d0c2 1d3b 070a 50bc
000001c0: 46d0 5b3d 861a 7cbd 461c f9bd fae7 6bbd
000001d0: e9bf f0bc f8c3 1a3c 32a0 bbbd 5ef3 41bd
000001e0: 2304 523c c51c aebd 135c 673c f4e8 2d3d
000001f0: 3c1a 0abc 593f 953d 6b35 e2bd de90 893d
00000200: b164 d9bd 6b0f 0a3c f91d b1bd a0b1 783d
00000210: c5b8 3c3a 7626 c0ba 99ed cf3d 3d41 e93d
00000220: 946d c23d 9a2e 17bd db2f 913c 3359 c6bd
00000230: 78ba 59bd 2d1a 1d3d 2d2f 683d e77e e9bd
00000240: 89c5 c7bd 193e d43b 9c76 09bd 0899 b0bd
00000250: 86e2 b3bd adb2 513d b8aa cdbd c4e3 053e
00000260: 9261 b23d 80cd 99bc bd6e 9abd d1e6 833d
00000270: 59a3 243d 5fb5 afbd 41b6 d4bc 8d83 aa3d
00000280: 8acb c93d 3909 87bd 2f2b 23bc b113 533d
00000290: ff65 903d eb62 763c 2dcd e93d 6550 cc3c
000002a0: 7934 0539 df14 80bc 9ae1 e6bd a8f0 5d3d
000002b0: cf32 eabd 32e0 cbbd 9e0b fa3b 9a93 e93c
000002c0: 69cc 2dbd 8de3 23bd 254d 36bd 5e97 7d3d
000002d0: 936f 323d c261 58bd 56af c6bd 2634 01be
000002e0: 2b5c b83d de20 cfbd b791 2b3a ffc3 b83d
000002f0: 5c69 3e3d 63c2 39bc a8aa dfbd 7422 e5bd
00000300: 6fbe 79bc 6682 ee3d 9763 cebc e035 04bd
00000310: c0d7 03bd ab87 173d 37bf 2fbd de8c e23c
00000320: 30ba 9f3d bfa3 d5bd 3587 013e a04a 013d
00000330: 8287 59bc 61c5 abbd 9b3e adbd a9e9 b8bd
00000340: 2b7b 0e3d ef16 33bd d876 363d 4531 5ebd
00000350: 60a4 30bc 3b82 073d 3bc7 b5bb 1871 c23d
00000360: a470 353d 07c6 003e 1acd bd3d 760a 8bbd
00000370: 5ec6 bcbc e43c 483d df78 d9bd 708f d03d
00000380: a4a8 ce3b 7de2 babb 0db8 f4bd 7d71 8d3c
00000390: b789 983d dfcd e13d 66d7 cc3d 50e1 9ebd
000003a0: ef4a 183b 45c0 e6bd 2cf1 003e 91ed cf3d
000003b0: 74d2 c7bd 839c cebd 62d2 013d 9cba f0bd
000003c0: 0d88 e13d 6061 6a3c 485e df3d e435 0e3d
000003d0: c164 b6bd 28ec eabd eec8 23bd edf3 82bd
000003e0: 1a25 683c cdb0 d03b d4ee 0b3c ad0a 123d
000003f0: ef89 873d 1021 bebd c02a 90bd 8fb9 803d

encoder.bias_ih_l0 f4 [256]
-0.00060214085 -0.081372306 -0.0646525 -0.101729766 -0.107774265 -0.073738426 0.020627337 0.021825992
0.07117006 -0.10445204 -0.15449393 -0.06565618 0.08749186 -0.16671863 -0.07914449 -0.10379588
0.04279856 -0.09625953 -0.08147152 -0.011106601 0.034040723 0.05261672 0.03447566 0.07436479
-0.11417256 -0.10257009 -0.045920704 -0.08661944 0.05333083 -0.057529718 -0.077963695 0.05066307
0.055571184 0.046896264 0.033022325 -0.05231448 0.052225824 -0.14512916 -0.041848194 -0.07439755
-0.062295903 0.081217274 0.0773893 0.036578067 -0.1314504 -0.02884648 0.107488014 -0.12918627
0.0026804495 0.07605994 0.018726395 -0.0078085605 -0.03715777 0.018281305 0.06514093 -0.040085983
0.0057707364 0.07235107 -0.060958665 -0.10854896 -0.11085216 -0.13693567 0.021673823 0.0070952764
0.0867862 -0.05394976 0.073640876 0.08435635 0.06561464 -0.0080993185 -0.12103011 -0.032122377
-0.081897125 -0.067980394 -0.0799821 -0.05945485 -0.016227545 -0.09657285 -0.15054059 -0.039298654
-0.09670599 0.08497275 0.091641724 0.04130854 0.05948166 -0.09093473 -0.057315804 -0.05789985
0.047857713 -0.09873277 -0.0074143275 -0.102504864 -0.16649213 -0.07746372 -0.14876865 0.06531176
-0.08310577 -0.09587508 -0.1475136 -0.10465149 -0.07640615 -0.08118484 -0.08455938 -0.05243907
0.056931138 -0.114021845 0.036398944 -0.01613643 -0.022128602 0.04435159 0.023793986 -0.115121685
0.0060671987 -0.006526115 -0.121680334 -0.0029751335 -0.09451224 -0.045829713 -0.09200938 -0.05505271
0.026142092 0.110457115 -0.11600468 -0.07674282 -0.016264234 0.025566336 0.049518444 -0.14305083
0.0023753662 0.018039808 -0.050144076 -0.05828538 -0.024558198 -0.034102745 0.078453496 0.09961581
0.0051871557 -0.06086788 -0.067424566 -0.10092015 -0.043178923 -0.0027515152 -0.034069624 -0.033709627
0.07081822 -0.021393899 0.055084094 -0.12858395 0.037825055 0.019095438 -0.06581093 -0.051533353
-0.02097381 -0.12381812 -0.09602148 0.014366748 -0.046209544 0.017860804 0.01979595 0.07658368
-0.09087489 -0.061247148 0.03665869 0.08220611 -0.057579238 0.051429305 -0.006878012 -0.039016664
0.005715142 -0.04976777 -0.086412825 0.015884394 -0.08445812 0.014801419 -0.050884645 0.12195959
-0.066790715 -0.057124816 -0.049908817 -0.13122216 0.01578852 -0.01753949 0.0411507 -0.001443339
-0.0719394 0.030303415 0.082414426 -0.038009237 0.106289595 -0.079358645 -0.026077794 0.07416643
0.062971175 -0.14017351 -0.12648416 -0.047626972 -0.06830033 0.1062001 0.03933201 -0.10436585
-0.13282639 -0.05512396 -0.07195513 -0.06649029 -0.008032015 -0.022612832 0.06516243 -0.13143799
-0.07959499 -0.09713511 -0.14303645 0.023060847 -0.15739307 0.08114059 -0.03410221 -0.039711367
-0.023572188 -0.04649397 -0.14955465 -0.08376655 0.017002774 -0.06415328 0.058116127 -0.07073768
0.05986272 0.03904757 -0.033670183 0.08021074 -0.012316628 -0.1452881 -0.109403975 0.050785832
-0.002308786 -0.0083579905 0.10456728 0.078884885 0.0024296057 0.089229144 0.019714577 -0.0277909
-0.14965737 -0.1128071 -0.004767426 0.08582898 -0.003991683 -0.10253393 -0.04709161 -0.0061242483
-0.03847316 -0.08469161 0.09947472 0.044694718 -0.11041394 0.07909468 0.04460729 -0.15448175
00000000: fdd8 1dba 86a6 a6bd 8868 84bd b257 d0bd
00000010: c1b8 dcbd 2c04 97bd a9fa a83c 6ccc b23c
00000020: 9cc1 913d f3ea d5bd a833 1ebe bf76 86bd
00000030: ef2e b33d 4ab8 2abe 8216 a2bd ef92 d4bd
00000040: 8b4d 2f3d b723 c5bd 8ada a6bd 76f8 35bc
00000050: 496e 0b3d a184 573d 5a36 0d3d 914c 983d
00000060: 4ed3 e9bd 4410 d2bd 5917 3cbd 8865 b1bd
00000070: 6e71 5a3d 48a4 6bbd 6eab 9fbd 1484 4f3d
00000080: 9c9e 633d 4c16 403d 6b42 073d b547 56bd
00000090: bfea 553d bd9c 14be 0369 2bbd be5d 98bd
000000a0: fd29 7fbd 3e55 a63d 487e 9e3d e2d2 153d
000000b0: ef9a 06be 744f ecbc ad22 dc3d 6849 04be
000000c0: 7baa 2f3b 50c5 9b3d 1968 993c f4de ffbb
000000d0: bf32 18bd adc2 953c 9c68 853d 3331 24bd
000000e0: 7218 bd3b cc2c 943d cbaf 79bd eb4e debd
000000f0: 7506 e3bd dd38 0cbe 4d8d b13c 7e7f e83b
00000100: f7bc b13d 6cfa 5cbd 07d1 963d 06c3 ac3d
00000110: f860 863d 01b3 04bc a2de f7bd c192 03bd
00000120: aeb9 a7bd 4e39 8bbd a8cd a3bd ee86 73bd
00000130: a1ef 84bc fdc7 c5bd 5027 1abe a0f7 20bd
00000140: ca0d c6bd 3106 ae3d a8ae bb3d 2533 293d
00000150: 0ba3 733d fd3b babd fac3 6abd 6528 6dbd
00000160: 7306 443d 6834 cabd e3f3 f2bb 12ee d1bd
00000170: ea7c 2abe 4da5 9ebd cf56 18be 2cc2 853d
00000180: 5c33 aabd 275a c4bd ce0d 17be 8553 d6bd
00000190: d47a 9cbd 3d44 a6bd 782d adbd 5aca 56bd
000001a0: a030 693d 4984 e9bd 0f17 153d 8c30 84bc
000001b0: 0b47 b5bc 03aa 353d 9beb c23c ebc4 ebbd
000001c0: 5acf c63b 05d9 d5bb 8a33 f9bd 75fa 42bb
000001d0: a28f c1bd f0b7 3bbd 6a6f bcbd f37e 61bd
000001e0: f127 d63c 5737 e23d dd93 edbd 572b 9dbd
000001f0: 923c 85bc 7e70 d13c dad3 4a3d eb7b 12be
00000200: 08ac 1b3b 38c8 933c e063 4dbd a7bc 6ebd
00000210: 462e c9bc 52af 0bbd 3aac a03d 6003 cc3d
00000220: 04f9 a93b 9950 79bd e415 8abd 39af cebd
00000230: 62dc 30bd c452 34bb 978c 0bbd 1b13 0abd
00000240: 2509 913d 4242 afbc dc9f 613d 83ab 03be
00000250: 72ee 1a3d 096e 9c3c e2c7 86bd a314 53bd
00000260: 45d1 abbc 5b94 fdbd e9a6 c4bd 8262 6b3c
00000270: 3846 3dbd d250 923c 1e2b a23c e8d7 9c3d
00000280: 9d1c babd 4ade 7abd 6c27 163d ad5b a83d
00000290: 35d8 6bbd 89a7 523d f260 e1bb f0cf 1fbd
000002a0: 1646 bb3b 4ad9 4bbd 35f9 b0bd fd1f 823c
000002b0: 61f8 acbd a781 723c 6b6c 50bd f3c5 f93d
000002c0: 92c9 88bd b6fb 69bd 306d 4cbd 1a5f 06be
000002d0: ed56 813c faae 8fbc a38d 283d 6c2e bdba
000002e0: f754 93bd de3e f83c e5c8 a83d 93af 1bbd
000002f0: 5cae d93d c986 a2bd 19a1 d5bc 92e4 973d
00000300: 08f7 803d a589 0fbe 1085 01be 8014 43bd
00000310: 0be1 8bbd 707f d93d 9a1a 213d c3bd d5bd
00000320: a403 08be a9c9 61bd 365d 93bd 102c 88bd
00000330: b698 03bc 8c3e b9bc e173 853d ae97 06be
00000340: b302 a3bd c6ee c6bd 2678 12be 1aea bc3c
00000350: a62b 21be 0a2d a63d c2ae 0bbd 63a8 22bd
00000360: 761a c1bc 7670 3ebd db24 19be cc8d abbd
00000370: 6749 8b3c cb62 83bd 2d0b 6e3d ebde 90bd
00000380: 9d32 753d 58f0 1f3d bfe9 09bd 8745 a43d
00000390: afcb 49bc 67c6 14be 310f e0bd ce04 503d
000003a0: 004f 17bb f4ef 08bc 5f27 d63d 668e a13d
000003b0: 053a 1f3b c5bd b63d 7780 a13c bea9 e3bc
000003c0: c83f 19be 6907 e7bd 1138 9cbb 1bc7 af3d
000003d0: aacc 82bb 4ffd d1bd 22e3 40bd ebad c8bb
000003e0: 0896 1dbd cb72 adbd 67b9 cb3d cf11 373d
000003f0: b420 e2bd 64fc a13d 22b6 363d 7730 1ebe

encoder.bias_hh_l0 f4 [256]
0.038774665 -0.010620348 -0.12977366 0.029412258 0.07663711 -0.075593814 -0.1477353 0.02460702
-0.023707781 -0.100387774 0.06418626 0.037872303 -0.032294493 -0.009210477 -0.10613205 -0.0047040717
0.015659379 -0.09060988 0.023009513 -0.02921335 0.06914716 0.008841122 0.09158132 -0.034336243
-0.027922202 0.012660249 -0.07810679 0.053735316 0.021459186 0.0057423725 0.020317605 -0.11428183
-0.1165455 0.0344427 -0.028288363 -0.1082778 -0.040392864 0.061915126 -0.035102166 0.004695527
-0.095064096 0.09507245 -0.05946264 -0.007927422 -0.052751664 -0.08098134 -0.060214 -0.092495546
-0.09849587 -0.061785724 -0.14337249 -0.12964015 -0.040515576 0.039259236 -0.13660689 0.077523306
-0.07301136 0.032130472 0.12015246 -0.015679127 -0.13595594 -0.0022835496 -0.12430862 0.04086884
-0.11425367 -0.11380609 0.022394894 0.0056882333 -0.15053171 -0.003014328 -0.10889033 -0.14682466
-0.15228522 0.05504521 -0.0008849569 0.08019754 -0.09250419 -0.0318333 -0.039684057 -0.023765296
0.020189423 0.10507609 0.059550546 -0.03778628 -0.07505899 0.039908744 0.0249015 -0.10696858
-0.06796138 -0.05717846 -0.13103525 0.085659504 -0.06731617 -0.08090955 0.051616475 -0.1282091
0.07731632 0.052602343 0.087930195 -0.08374853 0.07673923 -0.09404488 -0.09338956 0.05362621
-0.104329154 -0.026582813 0.04406497 -0.08147454 0.056646906 0.034066983 -0.076672874 0.0063423784
-0.10823278 0.040456712 -0.013033872 0.03986593 -0.149655 0.08299751 -0.019542057 0.11022763
-0.013199864 -0.044179443 -0.031216454 -0.14092606 0.05082775 -0.0740604 -0.12885617 0.037341222
-0.09727415 -0.033139367 -0.010457487 -0.036666576 0.03667224 -0.073493205 -0.104748785 -0.06632823
-0.011252596 0.07884809 0.07210851 0.12139887 -0.07046877 -0.08506603 0.026083736 0.12967913
-0.13648295 -0.036894415 -0.027738873 -0.025678832 -0.07210945 0.0029862297 0.03809929 0.027273463
0.028084612 0.07391252 0.024958663 -0.13035145 0.011792574 0.062300928 0.03905719 0.044063393
-0.05430332 0.05583015 -0.03412838 0.07295281 -0.019421436 -0.08423412 -0.0003320324 -0.07057363
0.03688474 -0.012115027 -0.02573254 0.034651075 -0.03534758 -0.06549381 0.079544894 -0.0008173666
-0.04899476 0.0007860278 0.0661071 0.06764988 0.019338267 0.016839283 -0.10535844 0.104234874
-0.06774281 0.07410672 0.058018822 -0.0008713349 0.09788083 0.079793595 -0.0014191424 -0.03706712
0.05982546 0.016546616 0.04152759 -0.12152972 0.07239053 0.11078083 -0.033193454 0.002114452
0.048002094 0.07949401 -0.14324315 -0.041362636 -0.09746851 -0.12062815 0.06355896 -0.096989185
-0.020256756 -0.097252555 -0.1002976 0.005986124 -0.013340894 0.0454824 0.07708169 -0.055893134
-0.12943473 -0.07773987 0.01240547 -0.11916448 -0.16086991 0.08984729 0.049957972 -0.022829397
0.090189524 -0.1393199 0.05711944 -0.027648494 0.014560789 0.015148256 -0.09524922 -0.13581227
0.065630466 -0.0513213 -0.05284074 -0.063942686 -0.023050971 -0.04166015 -0.11755124 -0.13234966
0.073787905 0.037966967 0.057640247 -0.13379504 -0.12016743 0.032036398 -0.0030939574 -0.07616177
0.06231668 0.056215305 -0.001290852 0.009867783 0.012094648 -0.14092594 0.025153225 -0.15931092
00000000: 2fd2 1e3d f800 2ebc 63e3 04be faf1 f03c
00000010: ebf3 9c3d eed0 9abd ec47 17be a994 c93c
00000020: d236 c2bc 1b98 cdbd 1674 833d fd1f 1b3d
00000030: 3b47 04bd 8ae7 16bc c35b d9bd 9d24 9abb
00000040: 1948 803c ac91 b9bd 727e bc3c d650 efbc
00000050: 079d 8d3d 5ada 103c fd8e bb3d 29a4 0cbd
00000060: 1abd e4bc ef6c 4f3c 74f6 9fbd 9019 5c3d
00000070: 2dcb af3c 832a bc3b 1b71 a63c 980c eabd
00000080: 68af eebd ca13 0d3d ffbc e7bc c0c0 ddbd
00000090: fd72 25bd b79a 7d3d 4ac7 0fbd efdc 993b
000000a0: f7b0 c2bd 58b5 c23d 198f 73bd 05e2 01bc
000000b0: 2112 58bd 8bd9 a5bd f5a2 76bd 4e6e bdbd
000000c0: 34b8 c9bd 0713 7dbd 3dd0 12be 63c0 04be
000000d0: a9f3 25bd 4bce 203d ade2 0bbe 8ac4 9e3d
000000e0: fb86 95bd 3e9b 033d 7e12 f63d 8371 80bc
000000f0: 0938 0bbe 9ba7 15bb 8595 febd 1666 273d
00000100: d4fd e9bd 2b13 e9bd 7f75 b73c 5c64 ba3b
00000110: fc24 1abe 088c 45bb e501 dfbd 3459 16be
00000120: a8f0 1bbe 1677 613d 74fc 67ba 9c3e a43d
00000130: d672 bdbd a263 02bd c08b 22bd 70af c2bc
00000140: 4a64 a53c 2232 d73d 46eb 733d c9c5 1abd
00000150: 87b8 99bd 5a77 233d 3bfe cb3c 5812 dbbd
00000160: 562f 8bbd f633 6abd 1b2e 06be 406e af3d
00000170: 0fdd 89bd e8b3 a5bd cc6b 533d 3f49 03be
00000180: 0558 9e3d 8e75 573d bf14 b43d 5984 abbd
00000190: 7529 9d3d 9a9a c0bd 0743 bfbd 28a7 5b3d
000001a0: 86aa d5bd 33c4 d9bc 787d 343d 20dc a6bd
000001b0: 9606 683d d289 0b3d ab06 9dbd bad3 cf3b
000001c0: 26a9 ddbd f0b5 253d 058c 55bc 754a 233d
000001d0: 293f 19be 99fa a93d aa16 a0bc 06bf e13d
000001e0: 3e44 58bc 81f5 34bd a6b9 ffbc ec4e 10be
000001f0: c230 503d fbac 97bd dff2 03be 1cf3 183d
00000200: ab37 c7bd 25bd 07bd e155 2bbc b12f 16bd
00000210: a135 163d 9b83 96bd 8886 d6bd 18d7 87bd
00000220: cf5c 38bc 1b7b a13d a0ad 933d f99f f83d
00000230: ee51 90bd 1937 aebd 8fad d53c 9bca 043e
00000240: 30c2 0bbe 991e 17bd a23c e3bc 6a5c d2bc
00000250: 1fae 93bd 9fb4 433b 000e 1c3d 996c df3c
00000260: b311 e63c 735f 973d 1c76 cc3c da7a 05be
00000270: a435 413c 422f 7f3d 6ffa 1f3d d17b 343d
00000280: 286d 5ebd 28ae 643d 33ca 0bbd 4868 953d
00000290: b419 9fbc f082 acbd a214 aeb9 e888 90bd
000002a0: 7414 173d 1b7e 46bc 0ccd d2bc 49ee 0d3d
000002b0: a0c8 10bd 9e21 86bd 6fe8 a23d 8b44 56ba
000002c0: bbae 48bd 6f0d 4e3a 2963 873d 058c 8a3d
000002d0: 496b 9e3c 89f2 893c 2ac6 d7bd 1879 d53d
000002e0: bebc 8abd 44c5 973d 25a5 6d3d 4c6a 64ba
000002f0: bf75 c83d d36a a33d 8402 baba b1d3 17bd
00000300: 8b0b 753d c58c 873c d618 2a3d 93e4 f8bd
00000310: 7c41 943d 0fe1 e23d dcf5 07bd 9e92 0a3b
00000320: d89d 443d c1cd a23d 55ae 12be de6b 29bd
00000330: 929d c7bd e40b f7bd 332b 823d 44a2 c6bd
00000340: 7ff1 a5bc 592c c7bd d468 cdbd 3f27 c43b
00000350: c493 5abc c14b 3a3d 01dd 9d3d 33f0 64bd
00000360: 8a8a 04be 1536 9fbd 5040 4b3c 820c f4bd
00000370: 15bb 24be db01 b83d bba0 4c3d b704 bbbc
00000380: 49b5 b83d e0a9 0ebe 13f6 693d 187f e2bc
00000390: 6090 6e3c 6430 783c 0612 c3bd 5f12 0bbe
000003a0: 4469 863d 4936 52bd 886f 58bd 62f4 82bd
000003b0: 64d5 bcbc d5a3 2abd b4be f0bd ab86 07be
000003c0: 1d1e 973d 4083 1b3d 2e18 6c3d 9101 09be
000003d0: 571a f6bd 9938 033d fec3 4abb b4fa 9bbd
000003e0: c63f 7f3d 0542 663d ce31 a9ba 7bac 213c
000003f0: a128 463c e44e 10be 230e ce3c 6722 23be

encoder.weight_ih_l1 f4 [256, 64]
-0.06274112 0.09389107 0.07053728 -0.016600415 -0.11441089 -0.022860587 0.11212758 -0.090658806
-0.05744052 -0.056274306 -0.0707994 0.041348808 -0.0882042 -0.105055675 -0.08394028 0.106372625
-0.0751256 0.04507511 0.028839992 0.09724434 0.0654651 -0.072277084 -0.05389758 0.05996142
0.06957048 0.01322516 -0.104801476 -0.10320553 -0.06607612 0.06175092 -0.055377692 -0.11192116
0.074411675 0.10352649 0.10281693 -0.09882582 -0.015266525 0.0009326923 0.03738782 -0.008445263
-0.12859741 -0.067956164 -0.023416454 -0.13782524 -0.0011547614 0.01244826 0.114433035 0.09894506
-0.07386939 -0.0007452375 0.0063797333 -0.124955855 0.09042629 -0.00634975 -0.06850058 -0.093528464
-0.037141014 0.08283958 -0.019806037 -0.090737864 -0.07037458 0.075510845 -0.053887345 0.0404272
-0.0077176373 -0.035814844 -0.024879334 0.0017603264 0.07476439 0.06028343 0.06548242 0.038826246
-0.11723946 0.06997615 -0.015188984 0.072864234 -0.09801626 0.08116716 -0.0075531583 0.051007442
0.06379608 0.10950962 -0.12250945 0.030615732 -0.03775816 0.008698787 0.024029596 0.111930676
-0.014014359 0.12468982 0.08021465 0.13039798 -0.1096346 0.093259275 0.022437643 -0.043012664
0.095178686 0.047903202 0.09608201 -0.12346054 0.05570694 0.062070288 -0.071356736 -0.010327554
0.05140304 -0.05766116 0.02330401 -0.004835395 -0.019228512 -0.103480406 -0.11319624 -0.10891253
0.04268744 -0.050020363 0.018012393 -0.0325579 -0.10258538 -0.0866547 0.05589194 -0.031884465
0.00659434 -0.094117664 -0.0985452 0.079916544 0.08471309 0.029959707 0.013785613 0.04917369
-0.027089896 -0.006654637 -0.072774716 0.09526615 0.09375138 -0.100753844 -0.08069888 0.099868126
0.07488755 -0.12147201 0.057488095 0.028914817 0.034365963 -0.052764375 -0.021061718 -0.12260107
0.08734678 0.092061095 0.09374965 -0.08835254 -0.0667413 0.09689196 -0.030132042 -0.034273375
-0.080569714 0.06900634 0.0011828344 0.030471569 0.08342619 0.020739788 -0.09283406 0.00046659767
-0.0026465142 0.029110832 -0.09608874 0.018380122 -0.04671737 0.089454316 -0.06847169 -0.018692717
-0.06704205 -0.11159441 -0.07188261 -0.05555953 0.10891511 0.12642309 0.11768711 -0.034133483
0.13626528 -0.0808912 -0.08669232 -0.05066401 0.11159031 0.07468594 0.123970784 -0.014780663
0.008764333 0.07998569 -0.088981695 0.08875223 -0.09381139 -0.038820274 -0.07899643 -0.08556634
-0.011656476 -0.08327422 -0.049556248 0.020214805 0.06752201 -0.028902024 -0.07349279 -0.031768963
-0.0758275 0.08305662 0.054372076 -0.022985788 0.052166432 0.12579301 0.09278956 0.06816642
-0.07833756 -0.057840727 0.09930082 -0.021337818 -0.09260283 0.054296356 -0.07773881 0.0899628
0.055791654 -0.091757655 -0.11383651 -0.030630209 -0.029998247 -0.0794291 -0.105020195 0.028536566
-0.081993565 0.09047508 0.015447248 0.07586465 0.054782122 -0.0071147075 0.029774325 0.02307371
0.016723853 -0.08878571 0.05858405 -0.12122504 -0.061611373 0.049116354 0.0322483 0.00050341507
0.119042605 -0.0426121 0.05672995 0.0750687 0.018639242 -0.071879804 -0.0060396423 0.0064485143
-0.06254322 0.016157143 0.0638574 -0.04472665 0.029908476 0.05463769 0.06827708 0.058225524
00000000: 6b7e 80bd f649 c03d d975 903d 98fd 87bc
00000010: 4250 eabd 2046 bbbc 25a3 e53d 53ab b9bd
00000020: c046 6bbd e37f 66bd 47ff 90bd 5e5d 293d
00000030: 67a4 b4bd 6e27 d7bd e2e8 abbd e4d9 d93d
00000040: 73db 99bd aea0 383d d941 ec3c 0a28 c73d
00000050: 9112 863d 0206 94bd b5c3 5cbd 1b9a 753d
00000060: f87a 8e3d 57ae 583c 28a2 d6bd 6c5d d3bd
00000070: eb52 87bd 88ee 7c3d b8d3 62bd ec36 e5bd
00000080: 2665 983d b205 d43d af91 d23d 3165 cabd
00000090: 7220 7abc ec7f 743a f923 193d 005e 0abc
000000a0: 0aaf 03be 9a2c 8bbd ddd3 bfbc 0f22 0dbe
000000b0: 5d5b 97ba c9f3 4b3c de5b ea3d b5a3 ca3d
000000c0: d648 97bd 0b5c 43ba 150d d13b dbe8 ffbd
000000d0: 6b31 b93d 9011 d0bb 084a 8cbd da8b bfbd
000000e0: 2d21 18bd cca7 a93d 4540 a2bc c6d4 b9bd
000000f0: 8c20 90bd 6ea5 9a3d fab8 5cbd fe96 253d
00000100: 3ce4 fcbb 96b2 12bd bfcf cbbc c1ba e63a
00000110: 131e 993d c2eb 763d a61b 863d 4508 1f3d
00000120: 3e1b f0bd a84f 8f3d 37db 78bc d839 953d
00000130: c0bc c8bd f83a a63d 7c80 f7bb 2eed 503d
00000140: 85a7 823d 9446 e03d 3ce6 fabd d8cd fa3c
00000150: 4da8 1abd 5b85 0e3c b7d9 c43c e93b e53d
00000160: 7b9c 65bc 605d ff3d 9447 a43d 0c87 053e
00000170: 1b88 e0bd b8fe be3d 26cf b73c 0c2e 30bd
00000180: 0bed c23d 2636 443d a5c6 c43d e1d8 fcbd
00000190: f62c 643d 6a3d 7e3d 7b23 92bd e734 29bc
000001a0: fe8b 523d 1c2e 6cbd 0de8 be3c 3c72 9ebb
000001b0: 1d85 9dbc 89ed d3bd 6ed3 e7bd 880d dfbd
000001c0: 06d9 2e3d 27e2 4cbd ba8e 933c 6f5b 05bd
000001d0: 4918 d2bd 0578 b1bd f2ee 643d 4999 02bd
000001e0: 5515 d83b c3c0 c0bd 11d2 c9bd 49ab a33d
000001f0: 0e7e ad3d 0f6e f53c 0ddd 613c 5a6a 493d
00000200: a1eb ddbc 240f dabb e90a 95bd e61a c33d
00000210: b900 c03d 0858 cebd 7445 a5bd a987 cc3d
00000220: a55e 993d 51c6 f8bd a378 6b3d c4de ec3c
00000230: 53c3 0c3d 751f 58bd a089 acbc 4516 fbbd
00000240: dee2 b23d 878a bc3d d1ff bf3d 2df2 b4bd
00000250: aaaf 88bd 4b6f c63d 79d7 f6bc 3d62 0cbd
00000260: bc01 a5bd 3253 8d3d 5609 9b3a 839f f93c
00000270: 5adb aa3d 7de6 a93c c91f bebd aea1 f439
00000280: 2471 2dbb d779 ee3c 2cca c4bd e991 963c
00000290: b75a 3fbd d333 b73d e33a 8cbd 7821 99bc
000002a0: 584d 89bd 9c8b e4bd 3137 93bd 6492 63bd
000002b0: e30e df3d 0e75 013e f105 f13d 8dcf 0bbd
000002c0: 2089 0b3e 49aa a5bd be8b b1bd 1185 4fbd
000002d0: 7689 e43d f1f4 983d 65e4 fd3d 982a 72bc
000002e0: 4798 0f3c 8acf a33d 093c b6bd bbc3 b53d
000002f0: 3020 c0bd 0202 1fbd e1c8 a1bd 683d afbd
00000300: cefa 3ebc ad8b aabd 7efb 4abd 8599 a53c
00000310: fb48 8a3d f0c3 ecbc 6383 96bd 2c20 02bd
00000320: 734b 9bbd 9719 aa3d 41b5 5e3d b14c bcbc
00000330: 78ac 553d e2cf 003e 7408 be3d d69a 8b3d
00000340: 716f a0bd 66ea 6cbd 3a5e cb3d a6cc aebc
00000350: 8da6 bdbd db65 5e3d 8635 9fbd 6b3e b83d
00000360: ca85 643d 70eb bbbd 1e23 e9bd 34ec fabc
00000370: e2be f5bc b9ab a2bd d414 d7bd 84c5 e93c
00000380: 3eec a7bd 004b b93d 7416 7d3c ed5e 9b3d
00000390: 3863 603d 7e22 e9bb 49e9 f33c 1405 bd3c
000003a0: 7600 893c 48d5 b5bd d4f5 6f3d d544 f8bd
000003b0: 355c 7cbd 3b2e 493d cb16 043d 9df7 033a
000003c0: 9ccc f33d 068a 2ebd aa5d 683d 9ebd 993d
000003d0: 53b1 983c b835 93bd 31e8 c5bb 0f4e d33b
000003e0: a916 80bd fc5b 843c abc7 823d 4b33 37bd
000003f0: 9f02 f53c c5cb 5f3d dbd4 8b3d e37d 6e3d

encoder.weight_hh_l1 f4 [256, 64]
-0.040939867 0.05476544 0.1331455 -0.1202715 0.040349863 0.0319313 0.11486072 0.1026833
0.07409399 -0.10574125 0.028759649 0.034267027 0.021317868 0.02000246 -0.09705239 -0.080046624
-0.039251596 0.06840375 -0.050528266 0.1263941 0.040175624 -0.1352441 0.015400874 -0.118448235
-0.038835146 0.07385842 0.019419445 0.08283286 0.121562906 -0.073468894 0.08143748 -0.11224716
-0.002085776 0.12969808 -0.060650606 0.054831035 -0.1076712 0.10689637 -0.061181236 -0.062770225
0.0671864 -0.03401625 0.10426197 -0.021754455 -0.00086828246 0.06580568 0.045866005 -0.014853649
-0.024029015 0.08066274 -0.04194484 -0.11012893 -0.10620489 -0.049751 0.076429494 0.085578665
0.08117214 -0.11144104 -0.010373378 -0.07347892 -0.09554492 0.013062631 -0.034648016 -0.00028558992
0.063516125 0.13978533 -0.057227455 0.0004978009 -0.10871744 -0.011980441 0.11849819 -0.04819129
0.055120394 0.05259175 -0.005382726 -0.04008998 0.058717016 -0.07341705 -0.07301369 -0.02065984
-0.030300273 0.00032450008 0.047052443 -0.012412094 0.018719248 -0.10308044 0.11255492 -0.026082952
0.087553054 -0.023668505 0.025481971 -0.01925506 -0.07926104 0.06097331 0.012981985 0.08515355
0.047960293 0.04061603 -0.073359124 -0.04386736 0.08784649 -0.0039122654 -0.075776406 0.017403591
0.0092646545 0.089005575 0.017969668 -0.008882629 -0.12344795 0.14726576 0.06373703 0.09324639
-0.051196735 -0.058129877 0.008029976 0.053683937 -0.08270578 0.099942304 0.060392372 -0.11807542
-0.07048601 -0.09856667 -0.09739331 0.01739294 0.075072505 -0.03210859 0.07953327 -0.049855437
0.11187385 0.0817425 0.102007866 -0.09159209 0.023309628 0.012827103 -0.050619174 -0.100035384
-0.08052658 -0.04251274 0.0613291 -0.10708371 -0.02089014 0.03528389 0.018209921 0.08030011
0.10963151 -0.022666993 0.024404941 -0.07246071 -0.08673514 0.0053658932 0.02491587 0.041433446
0.056975015 0.07031391 0.10011022 -0.12381322 0.06952251 -0.08576588 0.036144156 0.07645454
0.08337043 0.13130605 0.08595471 -0.037726358 0.029386178 0.08622136 -0.0052228235 -0.11230804
-0.07659142 0.07174846 0.088500775 -0.054491404 0.07588685 -0.026357789 -0.037127614 0.07862232
-0.1065759 -0.067715056 -0.010192076 -0.007876022 0.057443045 0.056404613 0.019609084 -0.09384183
0.014484473 0.032690585 0.09181237 -0.041294795 0.12775823 -0.088731036 -0.10909489 0.067700274
0.0950606 -0.016186187 -0.028238228 0.067840986 0.09170681 -0.12310187 0.046840597 -0.0345448
-0.02742652 -0.0209881 0.046146523 0.002563613 -0.0539385 -0.0648725 -0.09268458 0.11102213
0.11051563 0.011608362 0.07059281 0.09196785 0.046498526 -0.12960339 -0.01599533 -0.035307545
0.07457749 0.14207058 0.022065395 -0.019476354 -0.048661456 0.034539092 0.018180199 0.0066420273
-0.12251586 -0.10511519 -0.084350854 0.05607575 0.06789566 0.06915665 0.07270074 0.10461202
-0.008843075 0.05027629 -0.027556429 -0.08063643 -0.03819914 0.026494484 -0.076388255 -0.10415381
-0.001675558 -0.055319227 -0.004039169 0.00575888 -0.019003004 -0.06693457 -0.009976054 -0.043733303
0.10852581 0.016054608 0.09123722 0.015032016 0.08313644 0.023496538 0.0045146323 -0.041896977
00000000: 90b0 27bd ba51 603d 4b57 083e e750 f6bd
00000010: e645 253d 65ca 023d 193c eb3d 9f4b d23d
00000020: 97be 973d de8e d8bd 5b99 eb3c 955b 0c3d
00000030: cfa2 ae3c 33dc a33c 67c3 c6bd 7cef a3bd
00000040: 48c6 20bd 4417 8c3d baf6 4ebd 746d 013e
00000050: 328f 243d 6e7d 0abe f353 7c3c fd94 f2bd
00000060: 9a11 1fbd 1543 973d 8715 9f3c 46a4 a93d
00000070: f9f5 f83d dc76 96bd b2c8 a63d d7e1 e5bd
00000080: 84b1 08bb 93cf 043e c56c 78bd 8296 603d
00000090: b882 dcbd 7cec da3d 2d99 7abd ad8d 80bd
000000a0: 0699 893d a054 0bbd 4d87 d53d 6636 b2bc
000000b0: 739d 63ba 21c5 863d fedd 3b3d b85c 73bc
000000c0: 7fd8 c4bc 8232 a53d 5ace 2bbd 478b e1bd
000000d0: f381 d9bd b4c7 4bbd 1187 9c3d de43 af3d
000000e0: 943d a63d 333b e4bd 1af5 29bc 1e7c 96bd
000000f0: 0ead c3bd a504 563c 14eb 0dbd 3bbb 95b9
00000100: be14 823d e323 0f3e 5667 6abd da7e 023a
00000110: 40a7 debd 9d49 44bc 2eaf f23d 3b64 45bd
00000120: ecc5 613d 726a 573d 9461 b0bb 6435 24bd
00000130: 4181 703d ae5b 96bd 3488 95bd d33e a9bc
00000140: 4738 f8bc aa21 aa39 10ba 403d 185c 4bbc
00000150: 1c59 993c d61b d3bd 3283 e63d eaab d5bc
00000160: 044f b33d 74e4 c1bc 91bf d03c cabc 9dbc
00000170: 9d53 a2bd 26bf 793d 64b2 543c fc64 ae3d
00000180: 0372 443d ff5c 263d 4f3d 96bd 43ae 33bd
00000190: dce8 b33d 7632 80bb a930 9bbd fa91 8e3c
000001a0: c7ca 173c 8e48 b63d 2035 933c 7288 11bc
000001b0: 47d2 fcbd d6cc 163e 8f88 823d f7f7 be3d
000001c0: abb3 51bd 9819 6ebd 2990 033c b0e3 5b3d
000001d0: a661 a9bd 8dae cc3d fe5d 773d 87d1 f1bd
000001e0: f85a 90bd 53dd c9bd 2576 c7bd a47b 8e3c
000001f0: 9dbf 993d 4c84 03bd 57e2 a23d 3735 4cbd
00000200: 1e1e e53d 9d68 a73d 80e9 d03d a294 bbbd
00000210: d5f3 be3c c528 523c 0d56 4fbd 5adf ccbd
00000220: 1feb a4bd d721 2ebd 3934 7b3d b44e dbbd
00000230: cd21 abbc d785 103d f92c 953c 6274 a43d
00000240: 7c86 e03d 21b0 b9bc dfec c73c 4866 94bd
00000250: 31a2 b1bd 60d4 af3b 5e1c cc3c 1eb6 293d
00000260: a25e 693d bd00 903d 9606 cd3d c991 fdbd
00000270: d161 8e3d 06a6 afbd e50b 143d 3394 9c3d
00000280: 1ebe aa3d 1875 063e 0609 b03d f486 1abd
00000290: 48bb f03c d394 b03d 3824 abbb c201 e6bd
000002a0: f6db 9cbd dbf0 923d e53f b53d 6132 5fbd
000002b0: 916a 9b3d 4aec d7bc 2013 18bd bd04 a13d
000002c0: 7744 dabd 31ae 8abd aafc 26bc 6e0a 01bc
000002d0: 6649 6b3d 8608 673d 3ba3 a03c 2530 c0bd
000002e0: 4850 6d3c 90e6 053d 2008 bc3d bb24 29bd
000002f0: 0ed3 023e 9eb8 b5bd 246d dfbd 71a6 8a3d
00000300: 22af c23d e598 84bc db53 e7bc 37f0 8a3d
00000310: c8d0 bb3d d51c fcbd eddb 3f3d d97e 0dbd
00000320: 95ad e0bc 3cef abbc 2304 3d3d 4a02 283b
00000330: 9eee 5cbd e0db 84bd 6ad1 bdbd 925f e33d
00000340: 0556 e23d 0031 3e3c f792 903d a459 bc3d
00000350: 3d75 3e3d c0b6 04be a308 83bc a59e 10bd
00000360: 15bc 983d f37a 113e 7dc2 b43c e08c 9fbc
00000370: 3c51 47bd dd78 0d3d a4ee 943c 5da5 d93b
00000380: 98e9 fabd a246 d7bd 24c0 acbd b0af 653d
00000390: e10c 8b3d 00a2 8d3d 20e4 943d d43e d63d
000003a0: 8be2 10bc 83ee 4d3d 05be e1bc b624 a5bd
000003b0: b476 1cbd f60a d93c 7271 9cbd 984e d5bd
000003c0: 669e dbba 6a96 62bd 015b 84bb fdb4 bc3b
000003d0: 30ac 9bbc fe14 89bd 9a72 23bc b121 33bd
000003e0: c842 de3d f484 833c 94da ba3d d848 763c
000003f0: 7043 aa3d d07b c03c 7bef 933b 2a9c 2bbd

encoder.bias_ih_l1 f4 [256]
-0.166779 -0.096575305 -0.10440972 -0.090314694 0.014452758 -0.10831264 0.030136911 -0.10220463
0.07107952 0.06304377 -0.10138641 -0.037449203 -0.04179836 0.033034876 0.043227937 0.0085337255
0.12460934 -0.122470915 -0.10438416 0.008963736 0.012350246 -0.07626856 -0.1495892 0.11113216
-0.02163438 -0.06977168 -0.110600315 0.082526654 -0.17420298 0.02257668 0.030711707 0.077222236
-0.0771289 -0.03274846 -0.1558998 -0.14488763 -0.1125995 0.03926911 -0.07715436 0.01489847
0.035506073 -0.08699936 -0.1114744 -0.03940019 -0.079702914 0.120439574 -0.02686562 -0.114646085
-0.08212946 -0.019010957 -0.00030920733 -0.0046587796 -0.11505054 -0.15871717 -0.1092179 0.036876682
-0.15896288 0.03808728 0.10104407 0.031014197 -0.059382256 0.06463855 -0.008141474 -0.06749101
-0.00940089 -0.028738735 0.0083364835 0.01739197 0.002143435 -0.07458852 0.0061961454 0.07247432
0.013773475 0.036114715 0.009526046 -0.116699725 -0.034751978 -0.11547562 0.07997395 -0.10237299
0.13722597 0.089274295 0.05314137 -0.10600512 0.02012154 -0.09265798 -0.17192425 0.10607747
-0.078142025 0.06044413 0.043174922 -0.024371358 -0.10981674 -0.06427117 -0.100133285 -0.011944108
0.0040232157 -0.059465084 0.0070598344 -0.14931805 0.0010167421 -0.051589996 0.018401287 -0.16808975
-0.13168402 -0.14610463 -0.050961908 0.088968076 -0.067040615 -0.042063445 -0.104981825 -0.1077776
-0.0071036983 -0.058785018 -0.107757114 -0.12823613 0.09806025 -0.026225772 -0.048661616 -0.13509637
0.049241066 -0.08304224 0.04219803 -0.15765844 -0.12607864 -0.09920994 0.045231264 -0.024071988
0.0198555 -0.076169156 -0.06271527 0.13251139 -0.07226515 0.08683409 -0.04791749 0.05490128
-0.07157353 0.028382793 0.073593065 0.122218005 -0.042495366 0.02877974 0.0698929 0.09127325
-0.13415839 -0.04849698 0.10786668 -0.109187946 0.056126807 0.051752813 -0.08403391 0.115558125
0.036302984 0.06674543 0.07394784 -0.05903443 -0.09299291 0.06970509 0.009212775 0.02664617
0.14969277 0.09716673 -0.06577434 -0.016321316 0.09669287 -0.015299939 0.09896664 0.004435746
0.10211288 0.018249692 -0.09184308 0.095034994 -0.11108379 -0.044383258 0.008737895 -0.07170309
0.11371111 -0.057196636 -0.048795737 -0.053360313 -0.03941108 0.007572311 0.01947578 0.09820012
-0.00080743484 -0.011765525 -0.00078557106 0.054992422 -0.108189076 0.09555146 0.06392795 -0.11538172
-0.12440282 0.013513039 0.059308507 -0.103004344 0.007915464 0.02120676 -0.15295085 -0.14414486
-0.08719657 0.0020628327 0.04645767 -0.008809996 -0.01622111 0.06776841 0.0015929773 -0.08354964
-0.055807494 -0.10077814 0.029597798 -0.021140885 0.06229923 -0.09002797 -0.16950539 0.053765446
-0.13300936 -0.07964376 -0.11042064 -0.045116607 -0.052392755 -0.007802408 -0.10733544 0.018932924
-0.05416853 -0.024487127 -0.05858758 -0.03975886 -0.13743888 -0.019444602 0.112562954 -0.0023335624
0.028017895 -0.09960012 0.0064267362 -0.14864588 -0.064425856 -0.11777459 0.07423438 -0.12356448
-0.050180256 0.008292652 -0.1071933 -0.07081919 -0.1289771 -0.14340752 0.04859148 0.0089119375
-0.042650905 0.09870697 -0.10188483 -0.17002022 0.07344975 -0.1440943 -0.021493599 -0.1354199
00000000: 1dc8 2abe 46c9 c5bd c3d4 d5bd e9f6 b8bd
00000010: 43cb 6c3c 04d3 ddbd afe1 f63c a950 d1bd
00000020: 2492 913d 181d 813d aea3 cfbd 5664 19bd
00000030: c234 2bbd 944f 073d c70f 313d 0ad1 0b3c
00000040: 2f33 ff3d 08d2 fabd 5dc7 d5bd a2dc 123c
00000050: b058 4a3c b132 9cbd e92d 19be 4299 e33d
00000060: 953a b1bc 74e4 8ebd 6b82 e2bd bc03 a93d
00000070: 4462 32be bbf2 b83c 1e97 fb3c b126 9e3d
00000080: c2f5 9dbd 4023 06bd 32a4 1fbe 6c5d 14be
00000090: 919a e6bd a5d8 203d 1b03 9ebd b618 743c
000000a0: d16e 113d b82c b2bd b14c e4bd 1862 21bd
000000b0: 483b a3bd 06a9 f63d 4a15 dcbc 91cb eabd
000000c0: 7e33 a8bd debc 9bbc 1b1d a2b9 ada8 98bb
000000d0: 9e9f ebbd c186 22be a2ad dfbd 010c 173d
000000e0: 2ac7 22be 6801 1c3d 32f0 ce3d 7c11 fe3c
000000f0: cf3a 73bd 3761 843d d163 05bc ba38 8abd
00000100: 3106 1abc 7f6d ebbc bf95 083c 9b79 8e3c
00000110: df78 0c3b dec1 98bd 0909 cb3b 6b6d 943d
00000120: 24aa 613c 06ed 133d 2213 1c3c 4400 efbd
00000130: 1758 0ebd 7b7e ecbd 62c9 a33d eea8 d1bd
00000140: f784 0c3e 71d5 b63d c4aa 593d 3619 d9bd
00000150: eed5 a43c 78c3 bdbd e90c 30be 253f d93d
00000160: ed08 a0bd 4494 773d 30d8 303d 71a6 c7bc
00000170: 99e7 e0bd 9aa0 83bd ae12 cdbd 38b1 43bc
00000180: 2ed5 833b a991 73bd 2f56 e73b d5e6 18be
00000190: 3444 853a 0850 53bd 4cbe 963c b81f 2cbe
000001a0: 2dd8 06be 749c 15be 6fbd 50bd e534 b63d
000001b0: 974c 89bd b84a 2cbd b600 d7bd 81ba dcbd
000001c0: 24c6 e8bb 8fc8 70bd c3af dcbd 5550 03be
000001d0: d0d3 c83d 6ed7 d6bc 6751 47bd b456 0abe
000001e0: 00b1 493d 0d12 aabd d7d7 2c3d 3771 21be
000001f0: c21a 01be 952e cbbd 6b44 393d 9e32 c5bc
00000200: 00a8 a23c 93fe 9bbd dd70 80bd 11b1 073e
00000210: c0ff 93bd 12d6 b13d 2145 44bd 2ae0 603d
00000220: 2595 92bd 0883 e83c f6b7 963d 6f4d fa3d
00000230: 9f0f 2ebd 7dc3 eb3c 0224 8f3d 78ed ba3d
00000240: d160 09be c5a4 46bd 35e9 dc3d ee9d dfbd
00000250: 39e5 653d c2fa 533d f819 acbd bda9 ec3d
00000260: 70b2 143d d4b1 883d f771 973d 16ce 71bd
00000270: 1173 bebd 8bc1 8e3d 2ef1 163c 1249 da3c
00000280: 1049 193e 5aff c63d b2b4 86bd 48b4 85bc
00000290: e906 c63d 98ac 7abc 06af ca3d bc59 913b
000002a0: 8f20 d13d 6180 953c 3a18 bcbd b5a1 c23d
000002b0: e67f e3bd 38cb 35bd 6329 0f3c 12d9 92bd
000002c0: 5fe1 e83d 0547 6abd 0ade 47bd 5890 5abd
000002d0: 836d 21bd 2621 f83b ac8b 9f3c 251d c93d
000002e0: 09aa 53ba 30c4 40bc c8ee 4dba bc3f 613d
000002f0: 3c92 ddbd 7cb0 c33d a8ec 823d 404d ecbd
00000300: e8c6 febd cb65 5d3c 7aed 723d f1f3 d2bd
00000310: ddaf 013c cdb9 ad3c 269f 1cbe b69a 13be
00000320: 1e94 b2bd 9730 073b 664a 3e3d cd57 10bc
00000330: 22e2 84bc 2aca 8a3d 73cb d03a 131c abbd
00000340: 6696 64bd c564 cebd 1577 f23c a62f adbc
00000350: 7a2d 7f3d 9660 b8bd d292 2dbe 2839 5c3d
00000360: 9b33 08be 451c a3bd 3724 e2bd 31cc 38bd
00000370: c999 56bd 58ab ffbb afd2 dbbd 3819 9b3c
00000380: d2df 5dbd 3a99 c8bc 88f9 6fbd 30da 22bd
00000390: c7bc 0cbe 494a 9fbc 6887 e63d aeee 18bb
000003a0: c985 e53c 26fb cbbd 5f97 d23b a036 18be
000003b0: b4f1 83bd ce33 f1bd 3208 983d 600f fdbd
000003c0: d089 4dbd e7dd 073c 2988 dbbd a709 91bd
000003d0: 9312 04be 6cd9 12be dc07 473d 6003 123c
000003e0: b7b2 2ebd e126 ca3d fea8 d0bd c819 2ebe
000003f0: d36c 963d 758d 13be 5813 b0bc 84ab 0abe
